slam/rbpf_slam/data/old_results/playing_w_parameters/svgp.pth (torch, 166090 bytes, 4 tensors)

variational_strategy.inducing_points f4 [200, 2]
00000000: d132 3ec1 58ca 97c3 423e e542 6250 21c3
00000010: 9c64 8d42 6516 22c3 acca 6440 4fb9 5dc3
00000020: e5d5 3742 1a3c 86c3 f4e1 1a42 31c0 51c3
00000030: 7f94 9a42 17b1 c7c3 29d3 2e43 1395 bdc3
00000040: c320 0e43 2056 73c3 b06c 8dc2 7158 32c3
00000050: 3f41 6342 c937 dcc3 94d6 d241 8e4f 81c3
00000060: d0ef 8b42 fbbe 72c3 8df0 dd42 f65d 68c3
00000070: ce0a 4941 77cc 88c3 5c2d b742 af64 a9c3
00000080: 5a50 43c2 0ce1 99c3 29ca da41 3e97 e1c3
00000090: 227d 9e42 6427 76c3 c927 7a42 235a 2ec3
000000a0: cb14 9ec2 869d 41c3 59c7 1742 ba0e 22c3
000000b0: c34a 5d42 7348 abc3 5f25 1e43 6c8d ccc3
000000c0: 8abb 3043 f565 a0c3 5278 8342 a019 39c3
000000d0: 862d 59c1 b781 7ac3 a084 1843 b97d 9ac3
000000e0: a729 e842 5554 79c3 166d 6ec1 2d68 8fc3
000000f0: 65a3 bb42 dd45 2ac3 addb a242 94bc 99c3
00000100: 95df 9041 1f49 43c3 fdf3 6b42 1a82 31c3
00000110: a2d7 68c2 f646 a7c3 cafd 5242 ac53 57c3
00000120: 0b7b 66c2 f930 2ec3 6021 1f43 4f8c 86c3
00000130: 3008 6442 2409 f5c2 9b77 37c2 bc02 44c3
00000140: 8327 99c1 5fcb 75c3 94e0 a3c2 dc97 29c3
00000150: 05af 8941 8ca3 d9c3 e7a7 f6c1 743d 2bc3
00000160: 50e4 91c2 4830 78c3 1fe6 1ec2 909a 1bc3
00000170: 745c 2142 fd95 5bc3 1844 0cc1 732c bbc3
00000180: fddb 3742 9163 0cc3 ae5b 1043 ce6c 90c3
00000190: 8e37 3542 d460 a7c3 33dc a742 aa3c 4ec3
000001a0: 52b0 0dc2 b8eb 8cc3 5035 3842 0a38 8bc3
000001b0: 3b00 c642 2db3 04c3 3e20 f541 de6e 7bc3
000001c0: 3164 80c1 6671 38c3 c84d 6742 265b 95c3
000001d0: 491e 2942 7fb2 70c3 81ca d4bf f4e1 8ec3
000001e0: 587e a8c1 723d 84c3 d162 d642 79a5 85c3
000001f0: b0d0 cc42 5ba2 aec3 f609 33c2 c154 88c3
00000200: 1eee d742 1b07 30c3 7665 9241 6076 e6c3
00000210: bf59 b342 f5d9 8fc3 0281 c3c2 20a2 8ac3
00000220: 75ff 8e42 bcba 87c3 23be 2b42 74c3 94c3
00000230: ba48 bdc2 4128 93c3 cc9c 7042 9daf 8ac3
00000240: 1f74 abc2 dad4 b8c3 4b50 8fc2 080f 6fc3
00000250: bac2 abc2 25bd f6c3 7b68 1e42 0a85 81c3
00000260: 1643 b441 b791 4ec3 c70f 68c2 fd0e 6fc3
00000270: 23ca 9842 f5b1 6bc3 23c7 0643 aeaa 68c3
00000280: b912 76c2 357d 7cc3 6ce6 2243 a267 adc3
00000290: b40f 9042 69be 3ec3 8745 1ec2 4609 bcc3
000002a0: 95cc f342 84e5 8ec3 516d fe41 439a 1fc3
000002b0: 4702 9842 d81c 83c3 b114 8cc1 78c2 23c3
000002c0: 789a 0243 02c5 a8c3 1b0f b542 f173 3fc3
000002d0: 34e4 bd42 a136 78c3 c976 bfc2 882d 65c3
000002e0: b320 3b42 da67 afc3 ef81 a8c2 8904 9bc3
000002f0: 0974 da42 7e63 44c3 eac1 14c2 947c aac3
00000300: 5b4b 3942 3aeb 9ac3 408a 9cc2 6609 ecc3
00000310: 3a9d 8f42 3266 d4c3 3907 8342 1ba5 9dc3
00000320: 7b86 11c2 21e3 69c3 d828 90c2 dbd8 89c3
00000330: f960 1140 7a4a c0c3 fdf2 b3c0 7237 41c3
00000340: 81c4 5dc2 1906 9dc3 b9ff 4042 6f38 cbc3
00000350: 00ae b3bf 5100 61c3 b3e2 0441 a872 e0c3
00000360: 647d c241 90f1 73c3 68f5 9ec1 8182 b2c3
00000370: 69e1 1cc2 ea8d 9dc3 c742 59c1 3a88 4cc3
00000380: 6db2 4342 e389 4fc3 1c04 5640 b6e3 64c3
00000390: a95a 53c2 9e2d acc3 562d 75c2 7669 c5c3
000003a0: f6c4 e741 bff6 bfc3 3c69 76c2 b24f 91c3
000003b0: e479 95c1 75af a7c3 9e14 3ec1 6fe3 59c3
000003c0: c540 3542 d798 2ec3 5593 ae42 acb8 11c3
000003d0: 9bec 45c2 9e3b 8dc3 1581 bec2 c56d 42c3
000003e0: ad1c 50c2 3cad 82c3 253c cd42 a74b 90c3
000003f0: 3633 1240 a685 6ec3 1cc7 d4c1 36bb d8c3
-11.887406 -303.5808 114.6216 -161.314 70.6965 -162.08748 3.57487 -221.72386
45.95888 -268.46954 38.720657 -209.75075 77.29003 -399.3835 174.82484 -379.16464
142.12798 -243.33643 -70.71228 -178.34547 56.813717 -440.43582 26.354774 -258.62152
69.96838 -242.74602 110.969826 -232.36703 12.565138 -273.59738 91.58859 -338.7866
-48.82847 -307.75818 27.348711 -451.18158 79.2444 -246.15387 62.538853 -174.3521
-79.04061 -193.61533 37.944675 -162.05753 55.32301 -342.566 158.14598 -409.10486
176.73257 -320.79654 65.735 -185.1001 -13.573614 -250.5067 152.51807 -308.9822
116.08135 -249.32942 -14.901632 -286.81387 93.81913 -170.2729 81.429054 -307.47327
18.10917 -195.28563 58.98827 -177.50821 -58.21058 -334.55438 52.74784 -215.32684
-57.62016 -174.1913 159.13037 -269.09616 57.007996 -122.51785 -45.866802 -196.01068
-19.144293 -245.79442 -81.93863 -169.5932 17.210459 -435.2777 -30.831984 -171.24005
-72.94592 -248.1886 -39.724728 -155.60376 40.340286 -219.58589 -8.766624 -374.34726
45.964832 -140.38893 144.35812 -288.85004 45.304253 -334.75647 83.93008 -206.23697
-35.422188 -281.84155 46.052063 -278.4378 99.00045 -132.6999 30.640743 -251.43307
-16.048922 -184.44296 57.82596 -298.7121 42.279575 -240.69725 -1.6624299 -285.76526
-21.061691 -264.48004 107.193 -267.29276 102.40759 -349.2684 -44.759727 -272.66214
107.96507 -176.02776 18.299541 -460.9248 89.675285 -287.7028 -97.75197 -277.2666
71.49894 -271.45886 42.93568 -297.52698 -94.642044 -294.31448 60.153122 -277.37198
-85.7268 -369.6629 -71.65682 -239.05872 -85.880325 -493.4777 39.60203 -259.03937
22.532757 -206.5692 -58.015408 -239.05855 76.3948 -235.69514 134.77788 -232.66672
-61.518284 -252.48909 162.90009 -346.80963 72.03067 -190.74379 -39.567898 -376.07245
121.899574 -285.7931 31.803377 -159.60258 76.00445 -262.22534 -17.510103 -163.75964
130.6034 -337.53912 90.5295 -191.4529 94.94571 -248.2134 -95.732 -229.17786
46.781933 -350.81134 -84.25378 -310.03543 109.22663 -196.38864 -37.18937 -340.97327
46.32359 -309.8377 -78.27002 -472.07343 71.80708 -424.7984 65.51411 -315.2899
-36.38133 -233.88722 -72.07977 -275.69418 2.2715437 -384.58185 -5.6234117 -193.21658
-55.4419 -314.04764 48.24973 -406.4409 -1.4037476 -225.00124 8.3053465 -448.89575
24.311226 -243.9436 -19.869827 -357.01956 -39.220127 -315.1087 -13.578803 -204.53214
48.924244 -207.53862 3.3440008 -228.8895 -52.838535 -344.35638 -61.294273 -394.8239
28.971172 -383.9277 -61.602768 -290.62262 -18.684517 -335.37076 -11.8800335 -217.88841
45.31325 -174.59703 87.28776 -145.72137 -49.48106 -282.46576 -95.25211 -194.42879
-52.028004 -261.3534 102.61747 -288.59103 2.2843757 -238.52206 -26.597221 -433.4626

variational_strategy._variational_distribution.variational_mean f4 [200]
00000000: 5b05 81c1 f183 56c1 8d4d 76c1 db65 65c1
00000010: ba7f 81c1 a0ab 6ec1 00fc 8ac1 c5c8 9ec1
00000020: 3408 8fc1 4a4b 4bc1 8e4a 8fc1 7c87 60c1
00000030: b340 5ec1 6840 68c1 76fa 45c1 ff84 8bc1
00000040: 832f 82c1 018a 89c1 35e2 24c1 502f 20c1
00000050: f516 24c1 d75b 4ec1 e16c 82c1 419e 88c1
00000060: 76f2 99c1 68a4 24c1 1812 3cc1 60d1 8dc1
00000070: effd 2ac1 32cb 39c1 8df9 2fc1 b9ee 63c1
00000080: 69f0 40c1 702c b8c0 9264 8cc1 a62c 0cc1
00000090: 715f 24c1 9642 83c1 6137 47c1 f8b8 3bc1
000000a0: 29d9 14c1 8192 03c1 81e5 69c1 c917 35c1
000000b0: 9eb2 60c1 909a 03c1 eec9 1ec1 849a 90c1
000000c0: b1f6 32c1 c93e 35c1 35a8 35c1 9c71 31c1
000000d0: 0322 2dc1 6081 39c1 af17 45c1 f46b 22c1
000000e0: 4258 12c1 4f18 33c1 4b11 cbc0 3a6d 01c1
000000f0: f918 00c1 0da1 21c1 5e5b 69c1 9d4f 98c0
00000100: 28a6 15c1 0ad2 18c1 1904 35c1 ab0d 48c1
00000110: a5b3 1bc1 b283 09c1 8000 50c1 0872 9cc0
00000120: f54e a0c1 918e 13c1 a03a 52c1 6dd2 16c1
00000130: 9a23 0fc1 3e21 e8c0 b307 1ec1 cdb0 3ec1
00000140: 6492 06c1 84fd 82c1 acfc cac0 9ada 8bc1
00000150: aac2 06c1 6556 01c1 f02e 10c1 548d 0fc1
00000160: 880a 5dc1 369e cfc0 fb19 00c1 24f5 39c1
00000170: f0d3 50c1 ccd3 4ac1 d150 1cc1 d525 4cc1
00000180: a915 08c1 0d45 64c1 f662 69c1 da04 20c1
00000190: 81fc e8c0 9b58 19c1 60db 7dc1 6d1c e3c0
000001a0: f0d7 09c1 fef4 5cc1 379d 0ec1 0257 fac0
000001b0: a728 edc0 6e72 45c1 0b21 2bc1 ffe4 d7c0
000001c0: c7d8 dac0 0252 fac0 9586 21c1 6804 88c1
000001d0: 4cfc 53c1 ad3f 02c1 61e0 1cc1 c13a c6c0
000001e0: d7c5 dcc0 b8b8 10c1 7709 eac0 fcff 02c1
000001f0: 304a c5c0 d530 14c1 7b1b 04c1 b5b8 88c1
00000200: 9b91 c8c0 711e 10c1 ecd4 03c1 5ab5 06c1
00000210: 0951 b4c0 666b ebc0 5ad7 78c0 e314 25c1
00000220: ce34 11c1 b703 dbc0 177e e3c0 2a5a cec0
00000230: b7b9 f5c0 29d6 07c1 0669 b6c0 5829 0fc1
00000240: d602 e2c0 21d2 6ec1 f9bc 32c1 270b 60c1
00000250: 14ab 23c1 b843 613e bf3c 3dc1 8838 6dc1
00000260: de8c 28c1 f319 1ac1 af59 5bc1 7073 92c0
00000270: 9d3c e2c0 d8d5 f9c0 1720 a7c0 cf18 d9c0
00000280: 410a f1c0 622a 38c1 b809 09c1 7d06 d4c0
00000290: 911f 29c1 98e8 83c0 acd3 a1c0 9414 2cc1
000002a0: 2639 cec0 e448 a8c0 ce65 dfc0 a4cc 05c1
000002b0: 2f54 2ec0 708a 2ac1 02bb 53c1 42ca 44c1
000002c0: 3890 28c1 0dff 10c1 8b36 c7bf b03c 11c1
000002d0: d9f4 5fc1 d05a 8fc0 d166 71c0 368e 1dc1
000002e0: 84c3 e3c0 9a67 c3c0 6af0 06c1 41c0 b8c0
000002f0: 0b31 1cc1 d371 f9c0 31fb 0ac1 e38c a4c0
00000300: 9038 bbc0 046a f2c0 4358 68c1 6f2d bec0
00000310: 991a 0dc1 9929 eec0 25d8 34c1 153a 3cc1
-16.127615 -13.407212 -15.393933 -14.337367 -16.187366 -14.916901 -17.373047 -19.848032
-17.879005 -12.705881 -17.911404 -14.033077 -13.890796 -14.515724 -12.373648 -17.43994
-16.2732 -17.192385 -10.305226 -10.011551 -10.255605 -12.897422 -16.303164 -17.077272
-19.24339 -10.290138 -11.754417 -17.727234 -10.6869955 -11.612108 -10.9984255 -14.245782
-12.058694 -5.7554245 -17.549107 -8.7609005 -10.273301 -16.407513 -12.45102 -11.732658
-9.303018 -8.223268 -14.618531 -11.318307 -14.043608 -8.225235 -9.924299 -18.075447
-11.185227 -11.327828 -11.353566 -11.090237 -10.820804 -11.594086 -12.318282 -10.151356
-9.146547 -11.193435 -6.345861 -8.089167 -8.006097 -10.101819 -14.584806 -4.7597184
-9.3530655 -9.551279 -11.3135 -12.503337 -9.731359 -8.594652 -13.000122 -4.88892
-20.038553 -9.222306 -13.139313 -9.4263735 -8.946192 -7.254058 -9.87688 -11.918164
-8.41074 -16.373787 -6.3433437 -17.481739 -8.422525 -8.083592 -9.011459 -8.972004
-13.815071 -6.488063 -8.006343 -11.622349 -13.051743 -12.676708 -9.769731 -12.759236
-8.505288 -14.266858 -14.58666 -10.001184 -7.280823 -9.584132 -15.866058 -7.09722
-8.615219 -13.809813 -8.913383 -7.823121 -7.4112124 -12.340437 -10.695567 -6.7467036
-6.838962 -7.8225107 -10.095357 -17.002151 -13.249096 -8.140546 -9.80478 -6.194672
-6.8991504 -9.045097 -7.3136554 -8.187496 -6.165306 -9.261922 -8.256709 -17.090189
-6.267774 -9.007432 -8.239483 -8.419275 -5.634892 -7.35686 -3.888144 -10.317599
-9.075392 -6.8442035 -7.109142 -6.4485064 -7.6789203 -8.489785 -5.7003202 -8.947594
-7.062846 -14.926301 -11.171136 -14.002723 -10.229267 0.21998489 -11.827331 -14.826302
-10.534391 -9.631335 -13.709395 -4.5765915 -7.069899 -7.807354 -5.222667 -6.7842784
-7.5325017 -11.510347 -8.564873 -6.625792 -10.570207 -4.122143 -5.057089 -10.755024
-6.444476 -5.258898 -6.9811773 -8.362461 -2.7238882 -10.658798 -13.233156 -12.299379
-10.53521 -9.062268 -1.556352 -9.077316 -13.997277 -4.4798355 -3.7719004 -9.847219
-7.1176167 -6.1063967 -8.433695 -5.7734685 -9.761973 -7.7951446 -8.686326 -5.142198
-5.8506546 -7.5754414 -14.521548 -5.943046 -8.818994 -7.442578 -11.30277 -11.76418

variational_strategy._variational_distribution.chol_variational_covar f4 [200, 200]
00000000: e861 8b3e 0000 0000 0000 0000 0000 0000
00000010: 0000 0000 0000 0000 0000 0000 0000 0000
00000020: 0000 0000 0000 0000 0000 0000 0000 0000
00000030: 0000 0000 0000 0000 0000 0000 0000 0000
00000040: 0000 0000 0000 0000 0000 0000 0000 0000
00000050: 0000 0000 0000 0000 0000 0000 0000 0000
00000060: 0000 0000 0000 0000 0000 0000 0000 0000
00000070: 0000 0000 0000 0000 0000 0000 0000 0000
00000080: 0000 0000 0000 0000 0000 0000 0000 0000
00000090: 0000 0000 0000 0000 0000 0000 0000 0000
000000a0: 0000 0000 0000 0000 0000 0000 0000 0000
000000b0: 0000 0000 0000 0000 0000 0000 0000 0000
000000c0: 0000 0000 0000 0000 0000 0000 0000 0000
000000d0: 0000 0000 0000 0000 0000 0000 0000 0000
000000e0: 0000 0000 0000 0000 0000 0000 0000 0000
000000f0: 0000 0000 0000 0000 0000 0000 0000 0000
00000100: 0000 0000 0000 0000 0000 0000 0000 0000
00000110: 0000 0000 0000 0000 0000 0000 0000 0000
00000120: 0000 0000 0000 0000 0000 0000 0000 0000
00000130: 0000 0000 0000 0000 0000 0000 0000 0000
00000140: 0000 0000 0000 0000 0000 0000 0000 0000
00000150: 0000 0000 0000 0000 0000 0000 0000 0000
00000160: 0000 0000 0000 0000 0000 0000 0000 0000
00000170: 0000 0000 0000 0000 0000 0000 0000 0000
00000180: 0000 0000 0000 0000 0000 0000 0000 0000
00000190: 0000 0000 0000 0000 0000 0000 0000 0000
000001a0: 0000 0000 0000 0000 0000 0000 0000 0000
000001b0: 0000 0000 0000 0000 0000 0000 0000 0000
000001c0: 0000 0000 0000 0000 0000 0000 0000 0000
000001d0: 0000 0000 0000 0000 0000 0000 0000 0000
000001e0: 0000 0000 0000 0000 0000 0000 0000 0000
000001f0: 0000 0000 0000 0000 0000 0000 0000 0000
00000200: 0000 0000 0000 0000 0000 0000 0000 0000
00000210: 0000 0000 0000 0000 0000 0000 0000 0000
00000220: 0000 0000 0000 0000 0000 0000 0000 0000
00000230: 0000 0000 0000 0000 0000 0000 0000 0000
00000240: 0000 0000 0000 0000 0000 0000 0000 0000
00000250: 0000 0000 0000 0000 0000 0000 0000 0000
00000260: 0000 0000 0000 0000 0000 0000 0000 0000
00000270: 0000 0000 0000 0000 0000 0000 0000 0000
00000280: 0000 0000 0000 0000 0000 0000 0000 0000
00000290: 0000 0000 0000 0000 0000 0000 0000 0000
000002a0: 0000 0000 0000 0000 0000 0000 0000 0000
000002b0: 0000 0000 0000 0000 0000 0000 0000 0000
000002c0: 0000 0000 0000 0000 0000 0000 0000 0000
000002d0: 0000 0000 0000 0000 0000 0000 0000 0000
000002e0: 0000 0000 0000 0000 0000 0000 0000 0000
000002f0: 0000 0000 0000 0000 0000 0000 0000 0000
00000300: 0000 0000 0000 0000 0000 0000 0000 0000
00000310: 0000 0000 0000 0000 0000 0000 0000 0000
00000320: 21d2 e9bb 1681 2b3f 0000 0000 0000 0000
00000330: 0000 0000 0000 0000 0000 0000 0000 0000
00000340: 0000 0000 0000 0000 0000 0000 0000 0000
00000350: 0000 0000 0000 0000 0000 0000 0000 0000
00000360: 0000 0000 0000 0000 0000 0000 0000 0000
00000370: 0000 0000 0000 0000 0000 0000 0000 0000
00000380: 0000 0000 0000 0000 0000 0000 0000 0000
00000390: 0000 0000 0000 0000 0000 0000 0000 0000
000003a0: 0000 0000 0000 0000 0000 0000 0000 0000
000003b0: 0000 0000 0000 0000 0000 0000 0000 0000
000003c0: 0000 0000 0000 0000 0000 0000 0000 0000
000003d0: 0000 0000 0000 0000 0000 0000 0000 0000
000003e0: 0000 0000 0000 0000 0000 0000 0000 0000
000003f0: 0000 0000 0000 0000 0000 0000 0000 0000
0.27223134 0.0 0.0 0.0 0.0 0.0 0.0 0.0
0.0 0.0 0.0 0.0 0.0 0.0 0.0 0.0
0.0 0.0 0.0 0.0 0.0 0.0 0.0 0.0
0.0 0.0 0.0 0.0 0.0 0.0 0.0 0.0
0.0 0.0 0.0 0.0 0.0 0.0 0.0 0.0
0.0 0.0 0.0 0.0 0.0 0.0 0.0 0.0
0.0 0.0 0.0 0.0 0.0 0.0 0.0 0.0
0.0 0.0 0.0 0.0 0.0 0.0 0.0 0.0
0.0 0.0 0.0 0.0 0.0 0.0 0.0 0.0
0.0 0.0 0.0 0.0 0.0 0.0 0.0 0.0
0.0 0.0 0.0 0.0 0.0 0.0 0.0 0.0
0.0 0.0 0.0 0.0 0.0 0.0 0.0 0.0
0.0 0.0 0.0 0.0 0.0 0.0 0.0 0.0
0.0 0.0 0.0 0.0 0.0 0.0 0.0 0.0
0.0 0.0 0.0 0.0 0.0 0.0 0.0 0.0
0.0 0.0 0.0 0.0 0.0 0.0 0.0 0.0
0.0 0.0 0.0 0.0 0.0 0.0 0.0 0.0
0.0 0.0 0.0 0.0 0.0 0.0 0.0 0.0
0.0 0.0 0.0 0.0 0.0 0.0 0.0 0.0
0.0 0.0 0.0 0.0 0.0 0.0 0.0 0.0
0.0 0.0 0.0 0.0 0.0 0.0 0.0 0.0
0.0 0.0 0.0 0.0 0.0 0.0 0.0 0.0
0.0 0.0 0.0 0.0 0.0 0.0 0.0 0.0
0.0 0.0 0.0 0.0 0.0 0.0 0.0 0.0
0.0 0.0 0.0 0.0 0.0 0.0 0.0 0.0
-0.007135645 0.66993845 0.0 0.0 0.0 0.0 0.0 0.0
0.0 0.0 0.0 0.0 0.0 0.0 0.0 0.0
0.0 0.0 0.0 0.0 0.0 0.0 0.0 0.0
0.0 0.0 0.0 0.0 0.0 0.0 0.0 0.0
0.0 0.0 0.0 0.0 0.0 0.0 0.0 0.0
0.0 0.0 0.0 0.0 0.0 0.0 0.0 0.0
0.0 0.0 0.0 0.0 0.0 0.0 0.0 0.0

cov.base_kernel.raw_lengthscale f4 [1, 2]
00000000: dd47 8f41 b28f 8b41
17.91009 17.445164
