slam/rbpf_slam/data/old_results/live_more_particles/svgp_particle2.pth (torch, 367369 bytes, 4 tensors)

variational_strategy.inducing_points f4 [300, 2]
00000000: 748d 8c42 5fb3 7242 49bf ca41 88a8 d1c2
00000010: 9eac d1c1 4c96 3ec2 66b3 2942 7663 06c3
00000020: 5c47 4142 06aa c342 3288 bf42 d412 b341
00000030: 3d24 46c2 d7cd d6c2 6993 8d41 012e c7c2
00000040: a68e d442 7c0c a2c0 bb8e 6842 3673 7741
00000050: 5af6 d341 7077 7a3f 6850 b6c1 8e59 bec2
00000060: c395 9242 6082 af41 6bd5 6442 42a4 c041
00000070: 353e c4c1 d2ff c7c2 98a6 a042 7328 8e41
00000080: eac4 ae42 5a28 4040 62b6 cc42 9c61 fdc0
00000090: 4a0f f5c0 80b3 74c2 6b6c a642 17bf f340
000000a0: ea8c 6c42 4252 4e42 8af3 d842 5842 dac0
000000b0: 9544 e142 24e4 9641 4dc3 eb41 c22b dbc0
000000c0: 08af 7742 8685 0742 82fd 8342 285b dbc2
000000d0: c434 4342 4c74 1142 087e a0c0 2c9e 0ec2
000000e0: aa83 2742 b470 ad42 8f35 7942 bea9 8141
000000f0: 45de 36c2 b018 f8c2 7ce7 8f42 f3e5 9041
00000100: af98 5ec2 21b3 cac2 7895 0742 1f17 98c2
00000110: 2eae 8b42 9c72 f7c2 f946 6142 396e d1c2
00000120: 25f5 bd42 fcf7 fe41 db34 b742 417e 74c2
00000130: b0e0 02c2 f1b8 0ec3 9c60 f241 0a90 f241
00000140: 4ff2 f941 3389 a042 0cc0 0143 7e0b 0e43
00000150: 95c7 1942 e693 ccc2 1074 3fc2 15f5 b9c2
00000160: 7ee3 5941 6982 9dc0 fe3d ef42 0406 8ec2
00000170: 6525 cb42 8e0e c642 6912 2542 a61d 0dc3
00000180: f0bc 9a42 2e7b 8c41 7864 8142 15d8 6ec2
00000190: 58a7 df42 ff9b 3ac2 ed57 6842 b9da cbc2
000001a0: c382 2242 477d 3242 3cbf 23c1 e857 ecc2
000001b0: 26ae 3e42 40a0 2041 a90c e242 eee0 3f42
000001c0: 22fb 0543 0de9 7ac2 20ce 5242 b86d 40c1
000001d0: e1bb 9d42 c40e 33c1 edf4 3041 8ea8 1bc1
000001e0: 9839 0d43 e9d1 4cc2 b1dd 4f42 12f2 3a42
000001f0: afec e4c1 b0fd 20c2 f347 1843 1820 8cc2
00000200: c18f fe42 f083 db42 eed1 cd42 4c94 fe42
00000210: 2c82 1d43 7a31 5ec2 5171 b141 ba29 40c0
00000220: a593 c342 9c83 3c42 42d2 4342 3c32 fbc2
00000230: 3e1e 7ec1 0e00 17c3 af0d a1c1 2610 8bc1
00000240: 6eb3 0743 2990 a0c2 b3a3 dc42 d0ca acc2
00000250: f1e5 65c2 943d d9c2 7d07 c042 7006 b7c2
00000260: a5a5 8742 d9c7 5742 ba36 d041 afae e3c1
00000270: 3ecf 55c1 4b71 0ec2 c36f 3142 0afb 0dc3
00000280: 19fc a5c1 4302 d5c2 fa4d d442 4e7a d241
00000290: 816b 4242 ba9e 01c3 9fec 0e43 1bf1 91c2
000002a0: 258b 2d42 6cc8 2942 4c2c b742 f18b a3c2
000002b0: 193e c842 5f1b 9542 a9e0 cc42 c507 f542
000002c0: 064b 4742 841c c8c2 6859 3242 876a 7d42
000002d0: 476c 7442 b360 bc40 54fb 8442 d8d2 8842
000002e0: 080d 2ec2 4658 abc2 377b 8e42 2bdb d3c2
000002f0: 8ca8 0542 fa90 87c2 899a b340 f270 dfc2
00000300: d1c2 8d42 f343 d540 f2b1 fd41 3811 c342
00000310: 19a4 7742 a25a f3c2 b261 d342 334c c4c2
00000320: 51c2 bc42 b8c4 8940 8264 f342 d49d 80c2
00000330: 5130 bac0 0538 1cc3 f339 e241 bad7 5942
00000340: 1311 cb41 2647 8ec1 aa50 1642 337d 82c2
00000350: 9cf5 d942 24db 0743 5a77 0e42 4209 cc40
00000360: 643c df42 abad 5ac2 a052 c642 141d 5e42
00000370: cfb1 f242 d22a 7fc1 d3e6 8642 cc47 17c2
00000380: 5761 7142 6e5a 4142 4485 ef42 d05b cf41
00000390: 7b58 c842 6a5a a5c2 53da 0942 cf7e d241
000003a0: eee2 5d42 e4aa 90c2 af4d 1842 3b43 dc42
000003b0: cb45 8e42 8d5f c042 a11c 5740 ef6e 7641
000003c0: 650f e542 8ba5 95c1 f83b c842 e6a8 9dc1
000003d0: 2f70 a042 b69d ccc2 c943 8142 a022 7542
000003e0: e9f7 0943 9d17 5dc2 6159 a842 cba5 db42
000003f0: a9d4 f242 4cc9 85c1 66d4 f542 6718 7e42
70.276276 60.675167 25.343401 -104.82916 -26.209286 -47.646774 42.425194 -134.38852
48.319687 97.83208 95.76601 22.384193 -49.53539 -107.40203 17.696978 -99.58985
106.27861 -5.064024 58.139385 15.465628 26.495289 0.978385 -22.78926 -95.17491
73.2925 21.93866 57.208416 24.080204 -24.530375 -99.99965 80.32538 17.76975
87.3846 3.0024629 102.35622 -7.918165 -7.6581163 -61.175293 83.211754 7.6170764
59.13761 51.58033 108.47566 -6.8205986 112.63395 18.861397 29.470362 -6.8490915
61.92093 33.880394 65.99513 -109.67804 48.80153 36.36357 -5.0153847 -35.654465
41.87858 86.72012 62.302303 16.207882 -45.71706 -124.04822 71.95212 18.11228
-55.649105 -101.34986 33.895966 -76.04516 69.840195 -123.72385 56.31931 -104.71528
94.9788 31.871086 91.60323 -61.123295 -32.71942 -142.72243 30.297173 30.320332
31.243315 80.26797 129.75018 142.04489 38.444904 -102.288864 -47.863342 -92.978676
13.61804 -4.922169 119.62108 -71.01175 101.57304 99.02843 41.26798 -141.11581
77.36902 17.560146 64.69623 -59.711018 111.82684 -46.65234 58.085865 -101.92719
40.627697 44.62234 -10.234188 -118.17169 47.670067 10.039124 113.02473 47.969658
133.98099 -62.72759 52.701294 -12.026787 78.86695 -11.191105 11.059796 -9.728651
141.22498 -51.20499 51.966496 46.736397 -28.615568 -40.24774 152.28105 -70.06268
127.28077 109.75769 102.91002 127.28964 157.50848 -55.548317 22.18033 -3.0025468
97.78837 47.128525 48.95533 -125.598114 -15.882383 -151.00021 -20.131681 -17.382885
135.7009 -80.28156 110.319725 -86.39612 -57.474552 -108.62027 96.014626 -91.51257
67.823524 53.945164 26.026722 -28.460295 -13.363096 -35.610638 44.359142 -141.98062
-20.748095 -106.50442 106.1523 26.30972 48.604984 -129.62003 142.9243 -72.97091
43.385883 42.445724 91.58652 -81.77332 100.121284 74.55346 102.43879 122.515175
49.823265 -100.055695 44.58731 63.35403 61.10574 5.886804 66.490875 68.411804
-43.512726 -85.67241 71.240654 -105.92806 33.414597 -67.78316 5.612614 -111.7206
70.8805 6.6645446 31.711887 97.53363 61.91025 -121.67702 105.69081 -98.14883
94.379524 4.3052635 121.696304 -64.30826 -5.818398 -156.21883 28.278296 54.46067
25.383337 -17.78474 37.578773 -65.24453 108.979706 135.85602 35.616554 6.37613
111.61795 -54.669598 99.16138 55.528397 121.34728 -15.947954 67.45083 -37.820114
60.34506 48.33831 119.760284 25.91983 100.17281 -82.67659 34.463207 26.311918
55.47161 -72.33377 38.075863 110.13131 71.136314 96.18662 3.3611224 15.402083
114.53007 -18.705832 100.11713 -19.70747 80.21911 -102.30803 64.63239 61.283813
137.9684 -55.27306 84.17457 109.823814 121.41535 -16.72329 122.91484 63.52383

variational_strategy._variational_distribution.variational_mean f4 [300]
00000000: f6dd 83c0 bd8e e1c0 8d3c 4dc0 6b89 b7c0
00000010: 6f98 c9bf 9fe0 92c0 9685 7ec0 8a77 50bf
00000020: 6500 6dc0 35a4 7bbf 777b 53c0 1798 a0be
00000030: 531c 143e dda5 ddbe 0191 d2be 5148 3a3f
00000040: 1bc1 423d d209 0abf 0770 e0bf 6b36 5dbf
00000050: c46e 5b3e f565 0dc0 4ed3 adbf 448c 6cbe
00000060: adc5 f9bd 127a 6ac0 123f 01bf 6131 993e
00000070: 87a1 f93d a4d7 813c f564 16c0 9619 2b3c
00000080: eca8 98bf c73e 91bf d53f b9be 165c 8b3f
00000090: c0bb 09bf 64d0 66c0 d066 38c0 730f 57be
000000a0: 7c25 13bf adf1 11c0 a55d cbbd 0330 203f
000000b0: 3f9c dd3e ed7c 8bc0 bd98 bbbf 7ef8 02c0
000000c0: d0e6 bf3c 947d 6bbf fd28 dfbe 80f2 e0bb
000000d0: 57d0 cdbd 3da9 2a3e bb3a 62bd 669f aabf
000000e0: fdc2 2cc0 faaf efbe 373d b7be a210 ec3c
000000f0: 92f3 0cc0 720f 683d de16 5dbf 7408 30c0
00000100: f4f9 b9bf 11ec ca3d 5f8b a6bf a1a3 97bd
00000110: 1c44 da3e 8e82 2bbe fca0 13c0 4e17 d1be
00000120: 34dc 9ebf 051c 94bf 7d2b 6dbf 3256 d2be
00000130: e020 e0bd 6b6d 423e 4a3c 0f3e 2861 913e
00000140: 8f9f 1ebe f3c8 d63e 81d6 8b3c 5d21 093e
00000150: 121b dd3d 6392 9e3e 1058 12be f348 c43c
00000160: 8707 90bd 06ad 483d 1cee 5cbd 839f 92bb
00000170: e57b c13d 06b2 3dbe 4279 6cbd d643 f1be
00000180: cedb d93b 6664 993d e3d0 3b3e 3c35 86be
00000190: fd97 633c f940 f2bd 0bcb ffbf 5dfa 98be
000001a0: d8a5 b33a 0f1a 2fbd b3c3 5f3e c4fc 44bd
000001b0: e237 2a3e ac34 f83d ca80 3ebf 756e 2cbe
000001c0: 3acf d83a a57f 14bf b555 9a3c 390d b83d
000001d0: c316 dabc 6b41 003d 2f8b c4bd f28c 19bd
000001e0: 5ec4 ac3e e0f6 30be 7998 0dbe 1aef a13c
000001f0: 4468 423e 4e15 62be 2a0b 14bd d3fe 72bf
00000200: f482 0fc0 b8be f1bc 43ff a1bd 8af0 c73b
00000210: 9ea9 3dbe 6708 eebc 435f e0bd 86af 02bf
00000220: 6042 6eb8 41c2 a3bd 53ba 1abf ebed 3ec0
00000230: 184f 3dbf 9359 d9bc 30d6 bebc a4ed d83e
00000240: 25b5 a4bc d69b 62bd 4d9b 11bc 60f8 66bd
00000250: 4121 be3c 40ed 0fbf 366b f8ba 4eb1 fbbd
00000260: 0800 9c3d 2c31 86bd 288e cabb 8c5a 0a3e
00000270: ebb5 e4be 20fe 93bc 7d46 a13d bf33 41bc
00000280: 67ba 803a 2b64 003e cabe b43b 5c0e 6a3c
00000290: 9f49 83bc 4cae 19bd 6e14 c6bb c33e cebc
000002a0: 8744 0f3b d2e5 0ebe 85e2 78bc 6e24 4bbd
000002b0: eb76 c33c ef37 94bc 15b9 b7bc ab27 a33d
000002c0: f66e c6bc 5bd3 0dbb ee5e d63b 64bf d93c
000002d0: f4f9 523c 6bcc af3c ffd7 9f3c 3ca3 27bc
000002e0: c6df 553c fcf1 8f3c 88b6 14bd ec3c a2bc
000002f0: 2a1a 37bf f0ed ee3b 7e4c 03bd 8edd 84bb
00000300: 277f 6cbc ff29 333d a80d 94bb 57b2 10bb
00000310: b2d0 fcbb 2a52 cdbb 4a58 c2bc c25f 0bbc
00000320: 4006 18bc 9622 293c b98c fb3c 6794 9bbe
00000330: 3418 9bbd 189d 8ebb 21e0 9d3b db28 45bf
00000340: c45b 7ebd 3139 a73d aea5 773b 7cb9 a8be
00000350: 24a8 b6bd defb a73b db8f 6abe 00cb c6bb
00000360: bb14 79be 4244 15bc 73a2 aabc 9d51 c23b
00000370: 594d 13bd c418 d6bc 794b 4fbc c57a 0f3c
00000380: 9915 95bd b99c 36bd 74a0 0a3c 9bcc babb
00000390: 513a d43d 3c3c 143d 305b 84be 7881 43bb
000003a0: 32bd 70bb a113 09be 32fd 9fbe cdf4 f03c
000003b0: cb43 3f3b 2910 e23b 8c5e 37bc 78b1 91bc
000003c0: 0cbc bd3c 78bf 723b 1a35 50bb 41f5 30bb
000003d0: f2a2 a1bc b81e f13c 1368 55bc 72e3 b0bd
000003e0: 62e9 13bd ca46 e13a 8a5c c33b d8ea c6bc
000003f0: 1ac3 f6bc bd21 643d da3d 193d bccd c13a
-4.120845 -7.048674 -3.2068207 -5.7355247 -1.5749644 -4.5899196 -3.9769034 -0.814324
-3.703149 -0.98297435 -3.3044107 -0.31366035 0.1446393 -0.43290606 -0.41126254 0.72766596
0.04754744 -0.53921235 -1.7534188 -0.8641116 0.21428972 -2.209348 -1.358011 -0.23100382
-0.12195907 -3.6637006 -0.5048686 0.29920486 0.12189012 0.015849896 -2.349912 0.010443112
-1.1926551 -1.1347283 -0.36181512 1.0887477 -0.5380211 -3.6064692 -2.8812752 -0.21001987
-0.5747907 -2.2803757 -0.09929971 0.6257326 0.4328327 -4.3589997 -1.4655987 -2.0464168
0.02342549 -0.9198849 -0.4358596 -0.0068648458 -0.10049503 0.16666122 -0.05523179 -1.3329895
-2.6994011 -0.46813947 -0.3578889 0.028816525 -2.2023664 0.056655355 -0.8636302 -2.750516
-1.4529405 0.09908307 -1.3011283 -0.074042566 0.42630088 -0.16749021 -2.3067007 -0.40838093
-1.2410951 -1.1571051 -0.9264448 -0.41081387 -0.109437704 0.18987052 0.13987842 0.28394437
-0.15490554 0.41950187 0.017070057 0.13391633 0.10796179 0.3097106 -0.14291406 0.023960566
-0.07032686 0.048993133 -0.053938016 -0.0044745817 0.09447459 -0.18524942 -0.057732828 -0.47122067
0.006648517 0.074898526 0.18341403 -0.2621249 0.013891217 -0.11828799 -1.9983839 -0.29878512
0.0013706041 -0.04274946 0.21851997 -0.04809262 0.1662288 0.12119421 -0.74415267 -0.16839011
0.001654125 -0.5800727 0.018839696 0.08986897 -0.026622182 0.031312387 -0.0959686 -0.03748793
0.33743566 -0.17281675 -0.13827695 0.019767333 0.18985087 -0.2207844 -0.03614346 -0.9492008
-2.2423677 -0.029509887 -0.079100154 0.0061016725 -0.18521735 -0.02905674 -0.1095567 -0.5104908
-5.680544e-05 -0.07996035 -0.6044056 -2.9832714 -0.7394881 -0.02653197 -0.023295492 0.42368805
-0.020105908 -0.055324398 -0.008887124 -0.056389213 0.023209216 -0.5622139 -0.001895285 -0.122896776
0.076171935 -0.065523475 -0.006181497 0.13511103 -0.44670042 -0.018065512 0.07874773 -0.011792122
0.0009821177 0.12538211 0.005515908 0.01428565 -0.016026316 -0.037519738 -0.006044916 -0.025176411
0.0021860914 -0.13954857 -0.015190725 -0.04959529 0.023860415 -0.018093077 -0.022427121 0.079665504
-0.024222832 -0.002164087 0.006542078 0.02658052 0.012876976 0.021459779 0.019512175 -0.010231789
0.01305384 0.017571442 -0.036306888 -0.01980444 -0.715243 0.007291548 -0.03205537 -0.0040547317
-0.014434612 0.043741222 -0.0045182295 -0.0022078955 -0.007715308 -0.0062658982 -0.02372374 -0.008506717
-0.009278834 0.010323187 0.03070675 -0.3038666 -0.07572976 -0.004352223 0.004817978 -0.77015465
-0.062099233 0.08165205 0.0037787962 -0.32954013 -0.08918789 0.0051264605 -0.22906439 -0.00606668
-0.24324314 -0.009110512 -0.020829415 0.005930139 -0.035962436 -0.026134856 -0.012652271 0.008757298
-0.0727951 -0.044583056 0.008461107 -0.0057006604 0.103626855 0.036190256 -0.2585082 -0.0029831808
-0.0036733863 -0.13386394 -0.3124786 0.029413605 0.0029184695 0.006898899 -0.011191975 -0.017784819
0.023160957 0.0037040394 -0.0031769932 -0.0027001651 -0.019731019 0.029433593 -0.0130253015 -0.08637132
-0.036111243 0.0017187234 0.0059619593 -0.024281904 -0.030122329 0.055696238 0.037412502 0.0014786045

variational_strategy._variational_distribution.chol_variational_covar f4 [300, 300]
00000000: 2065 a53e 0000 0000 0000 0000 0000 0000
00000010: 0000 0000 0000 0000 0000 0000 0000 0000
00000020: 0000 0000 0000 0000 0000 0000 0000 0000
00000030: 0000 0000 0000 0000 0000 0000 0000 0000
00000040: 0000 0000 0000 0000 0000 0000 0000 0000
00000050: 0000 0000 0000 0000 0000 0000 0000 0000
00000060: 0000 0000 0000 0000 0000 0000 0000 0000
00000070: 0000 0000 0000 0000 0000 0000 0000 0000
00000080: 0000 0000 0000 0000 0000 0000 0000 0000
00000090: 0000 0000 0000 0000 0000 0000 0000 0000
000000a0: 0000 0000 0000 0000 0000 0000 0000 0000
000000b0: 0000 0000 0000 0000 0000 0000 0000 0000
000000c0: 0000 0000 0000 0000 0000 0000 0000 0000
000000d0: 0000 0000 0000 0000 0000 0000 0000 0000
000000e0: 0000 0000 0000 0000 0000 0000 0000 0000
000000f0: 0000 0000 0000 0000 0000 0000 0000 0000
00000100: 0000 0000 0000 0000 0000 0000 0000 0000
00000110: 0000 0000 0000 0000 0000 0000 0000 0000
00000120: 0000 0000 0000 0000 0000 0000 0000 0000
00000130: 0000 0000 0000 0000 0000 0000 0000 0000
00000140: 0000 0000 0000 0000 0000 0000 0000 0000
00000150: 0000 0000 0000 0000 0000 0000 0000 0000
00000160: 0000 0000 0000 0000 0000 0000 0000 0000
00000170: 0000 0000 0000 0000 0000 0000 0000 0000
00000180: 0000 0000 0000 0000 0000 0000 0000 0000
00000190: 0000 0000 0000 0000 0000 0000 0000 0000
000001a0: 0000 0000 0000 0000 0000 0000 0000 0000
000001b0: 0000 0000 0000 0000 0000 0000 0000 0000
000001c0: 0000 0000 0000 0000 0000 0000 0000 0000
000001d0: 0000 0000 0000 0000 0000 0000 0000 0000
000001e0: 0000 0000 0000 0000 0000 0000 0000 0000
000001f0: 0000 0000 0000 0000 0000 0000 0000 0000
00000200: 0000 0000 0000 0000 0000 0000 0000 0000
00000210: 0000 0000 0000 0000 0000 0000 0000 0000
00000220: 0000 0000 0000 0000 0000 0000 0000 0000
00000230: 0000 0000 0000 0000 0000 0000 0000 0000
00000240: 0000 0000 0000 0000 0000 0000 0000 0000
00000250: 0000 0000 0000 0000 0000 0000 0000 0000
00000260: 0000 0000 0000 0000 0000 0000 0000 0000
00000270: 0000 0000 0000 0000 0000 0000 0000 0000
00000280: 0000 0000 0000 0000 0000 0000 0000 0000
00000290: 0000 0000 0000 0000 0000 0000 0000 0000
000002a0: 0000 0000 0000 0000 0000 0000 0000 0000
000002b0: 0000 0000 0000 0000 0000 0000 0000 0000
000002c0: 0000 0000 0000 0000 0000 0000 0000 0000
000002d0: 0000 0000 0000 0000 0000 0000 0000 0000
000002e0: 0000 0000 0000 0000 0000 0000 0000 0000
000002f0: 0000 0000 0000 0000 0000 0000 0000 0000
00000300: 0000 0000 0000 0000 0000 0000 0000 0000
00000310: 0000 0000 0000 0000 0000 0000 0000 0000
00000320: 0000 0000 0000 0000 0000 0000 0000 0000
00000330: 0000 0000 0000 0000 0000 0000 0000 0000
00000340: 0000 0000 0000 0000 0000 0000 0000 0000
00000350: 0000 0000 0000 0000 0000 0000 0000 0000
00000360: 0000 0000 0000 0000 0000 0000 0000 0000
00000370: 0000 0000 0000 0000 0000 0000 0000 0000
00000380: 0000 0000 0000 0000 0000 0000 0000 0000
00000390: 0000 0000 0000 0000 0000 0000 0000 0000
000003a0: 0000 0000 0000 0000 0000 0000 0000 0000
000003b0: 0000 0000 0000 0000 0000 0000 0000 0000
000003c0: 0000 0000 0000 0000 0000 0000 0000 0000
000003d0: 0000 0000 0000 0000 0000 0000 0000 0000
000003e0: 0000 0000 0000 0000 0000 0000 0000 0000
000003f0: 0000 0000 0000 0000 0000 0000 0000 0000
0.32303715 0.0 0.0 0.0 0.0 0.0 0.0 0.0
0.0 0.0 0.0 0.0 0.0 0.0 0.0 0.0
0.0 0.0 0.0 0.0 0.0 0.0 0.0 0.0
0.0 0.0 0.0 0.0 0.0 0.0 0.0 0.0
0.0 0.0 0.0 0.0 0.0 0.0 0.0 0.0
0.0 0.0 0.0 0.0 0.0 0.0 0.0 0.0
0.0 0.0 0.0 0.0 0.0 0.0 0.0 0.0
0.0 0.0 0.0 0.0 0.0 0.0 0.0 0.0
0.0 0.0 0.0 0.0 0.0 0.0 0.0 0.0
0.0 0.0 0.0 0.0 0.0 0.0 0.0 0.0
0.0 0.0 0.0 0.0 0.0 0.0 0.0 0.0
0.0 0.0 0.0 0.0 0.0 0.0 0.0 0.0
0.0 0.0 0.0 0.0 0.0 0.0 0.0 0.0
0.0 0.0 0.0 0.0 0.0 0.0 0.0 0.0
0.0 0.0 0.0 0.0 0.0 0.0 0.0 0.0
0.0 0.0 0.0 0.0 0.0 0.0 0.0 0.0
0.0 0.0 0.0 0.0 0.0 0.0 0.0 0.0
0.0 0.0 0.0 0.0 0.0 0.0 0.0 0.0
0.0 0.0 0.0 0.0 0.0 0.0 0.0 0.0
0.0 0.0 0.0 0.0 0.0 0.0 0.0 0.0
0.0 0.0 0.0 0.0 0.0 0.0 0.0 0.0
0.0 0.0 0.0 0.0 0.0 0.0 0.0 0.0
0.0 0.0 0.0 0.0 0.0 0.0 0.0 0.0
0.0 0.0 0.0 0.0 0.0 0.0 0.0 0.0
0.0 0.0 0.0 0.0 0.0 0.0 0.0 0.0
0.0 0.0 0.0 0.0 0.0 0.0 0.0 0.0
0.0 0.0 0.0 0.0 0.0 0.0 0.0 0.0
0.0 0.0 0.0 0.0 0.0 0.0 0.0 0.0
0.0 0.0 0.0 0.0 0.0 0.0 0.0 0.0
0.0 0.0 0.0 0.0 0.0 0.0 0.0 0.0
0.0 0.0 0.0 0.0 0.0 0.0 0.0 0.0
0.0 0.0 0.0 0.0 0.0 0.0 0.0 0.0

cov.base_kernel.raw_lengthscale f4 [1, 2]
00000000: 59b0 2342 45dc 2342
40.922215 40.965107
