slam/rbpf_slam/data/old_results/live_more_particles/svgp_particle0.pth (torch, 367369 bytes, 4 tensors)

variational_strategy.inducing_points f4 [300, 2]
0	0x4291479a	72.63985
1	0x4054aba1	3.3229754
2	0x43328b18	178.54333
3	0xc282658c	-65.19833
4	0x42156eab	37.358074
5	0xc31234c5	-146.20613
6	0x42cf3788	103.60846
7	0xc0321190	-2.782322
8	0x42c1e85e	96.95384
9	0xc0f72b74	-7.7240543
10	0x42ca4118	101.12714
11	0xc22d51b6	-43.329796
12	0xc21cf747	-39.24148
13	0xc205a21e	-33.408318
14	0xc1e5eee3	-28.741644
15	0xc32b1753	-171.09111
16	0x41c7f1d3	24.993078
17	0xc26687ae	-57.6325
18	0x42dab398	109.35077
19	0x42abf4a0	85.97778
20	0x41dd2b5d	27.646173
21	0xc1ab945f	-21.447447
22	0x424a7398	50.612885
23	0xc11ede14	-9.929218
24	0x42a211fa	81.03511
25	0xc28e5965	-71.1746
26	0x40cdff2a	6.437398
27	0x423c2d1f	47.044064
28	0x42fa1df1	125.05848
29	0xc232755e	-44.614616
30	0x3fbb2d5d	1.4623219
31	0xc30935f7	-137.2108
32	0x4290c100	72.37695
33	0x413242bb	11.141292
34	0x42902388	72.0694
35	0x421102fd	36.25292
36	0x431452fc	148.32416
37	0xc286dfca	-67.43709
38	0x42c15a04	96.67581
39	0xc0992eaf	-4.7869487
40	0x42b57c1f	90.742424
41	0x420b9efd	34.905262
42	0x42ed86d0	118.763306
43	0xc2aa9c83	-85.30569
44	0xc22553fa	-41.33201
45	0xc2d2e6f8	-105.45111
46	0x41cb5a43	25.419073
47	0xc3250c73	-165.04863
48	0x427951b0	62.329773
49	0x417a57e3	15.646457
50	0xc1f2bb59	-30.341478
51	0xc3322dbf	-178.1787
52	0x42c91edb	100.560265
53	0xc247beb5	-49.936237
54	0x41ec8980	29.567139
55	0xc1fbe8eb	-31.48873
56	0x432e644f	174.39183
57	0xc121cd03	-10.112552
58	0x42dba1e7	109.816216
59	0x4260f2cc	56.237106
60	0x43241dcb	164.11638
61	0xc1478f50	-12.472488
62	0x4234402e	45.062675
63	0xc25f3c45	-55.808857
64	0xc2256698	-41.35019
65	0xc2e1232e	-112.56871
66	0xc29310b4	-73.53262
67	0xc2a22f74	-81.09268
68	0x41bf3c75	23.90452
69	0xc2c579f9	-98.73823
70	0x42ae0faf	87.03063
71	0x41c0921b	24.07134
72	0x42eee175	119.440346
73	0x420bf5c1	34.989994
74	0x424ff2e8	51.987213
75	0xc2c85b8e	-100.17882
76	0x41414930	12.080368
77	0xc2c263cd	-97.19492
78	0x43018eac	129.55731
79	0x42c56822	98.703384
80	0x430a663b	138.39934
81	0x42da2e54	109.090485
82	0x4246d700	49.70996
83	0xc2599433	-54.394726
84	0x426fa9b3	59.91572
85	0xc303d181	-131.81837
86	0x42929451	73.28968
87	0x4255c95e	53.446648
88	0x42f692fa	123.28706
89	0x421fb176	39.9233
90	0xc211e773	-36.476025
91	0xc2119f98	-36.405853
92	0xc287437e	-67.63182
93	0xc2e9789c	-116.735565
94	0xc1ad4beb	-21.66207
95	0xc2ac0d96	-86.026535
96	0x42832085	65.563515
97	0xc2bc369d	-94.10667
98	0x3f12c278	0.57327986
99	0xc2ddc892	-110.89174
100	0x41d77bc9	26.935442
101	0x422e0ff8	43.515594
102	0x42dd8059	110.75068
103	0xc1ead815	-29.355509
104	0x429a90fb	77.283165
105	0x42005d99	32.091404
106	0x424a696b	50.602947
107	0xc2183423	-38.050915
108	0x41138bd0	9.221634
109	0xc2a81ed7	-84.060234
110	0xc2778209	-61.876987
111	0xc2ba81f0	-93.253784
112	0x41b8a3e4	23.080025
113	0xc31ff80b	-159.96892
114	0x41f0255c	30.018242
115	0xc1ef7ca6	-29.935863
116	0xc13cfd5e	-11.811857
117	0x429168af	72.70446
118	0xc1a72937	-20.895124
119	0xc23a2dac	-46.5446
120	0x42d46802	106.20314
121	0xc170b666	-15.044531
122	0x40410694	3.0160265
123	0xc2ac413f	-86.12743
124	0x430e53a8	142.32678
125	0xc21c406a	-39.062904
126	0x42301345	44.018818
127	0xc2d977ac	-108.733734
128	0x430806cc	136.02655
129	0xc1ccdf34	-25.608986
130	0x42d72f03	107.59182
131	0xc0a28a6f	-5.0793986
132	0x421d00e7	39.25088
133	0xc29a1ee1	-77.06031
134	0x40bf6d56	5.9820967
135	0xc2cc4d13	-102.150536
136	0x43023b13	130.23076
137	0xc1c09904	-24.074715
138	0x42b22112	89.06459
139	0xc10c474d	-8.767407
140	0x43223bcd	162.2336
141	0xc253de29	-52.966953
142	0x420da721	35.41321
143	0xc251757a	-52.364723
144	0x41b90b74	23.130592
145	0xc22ecf89	-43.70267
146	0xc144a8aa	-12.291178
147	0x3f41364b	0.7547347
148	0x426ab911	58.68073
149	0x4210919e	36.142204
150	0x40f4742d	7.6391816
151	0xc1e6fafd	-28.872553
152	0x40f10a7a	7.532529
153	0x415507aa	13.314371
154	0x42445861	49.086308
155	0xc23af9a3	-46.743786
156	0x42f592fc	122.78708
157	0x41d7aebf	26.960325
158	0x42302f36	44.046104
159	0xc2c369bc	-97.70651
160	0x424dde66	51.467186
161	0x41c6ad7e	24.834713
162	0x4090f337	4.5296893
163	0xc311409a	-145.25235
164	0x42a519b0	82.55017
165	0x42096403	34.347668
166	0x42911f36	72.56096
167	0xc2d1d517	-104.91619
168	0x421b307d	38.79735
169	0xc2d2ca18	-105.394714
170	0x42b9f2af	92.97399
171	0xc28a32c1	-69.09913
172	0x42346d04	45.10646
173	0xc3075c67	-135.36095
174	0x42caf785	101.48344
175	0x428d4059	70.62568
176	0x42bc124b	94.03573
177	0xc0af9082	-5.48639
178	0x418949b5	17.16099
179	0x426da27e	59.408684
180	0x42b773e7	91.72637
181	0xc08e9cc8	-4.4566383
182	0x42d4280b	106.07821
183	0xc29b3ed9	-77.62275
184	0x41fffe0c	31.999046
185	0xc24f1e2c	-51.779465
186	0x42f3bef0	121.872925
187	0x428bc587	69.885796
188	0x415f2ea3	13.948886
189	0x4258299e	54.04064
190	0x425e6bcb	55.605267
191	0xc1d23678	-26.276596
192	0x42af66ea	87.701004
193	0x41f0f1f4	30.118141
194	0xc0f0c951	-7.5245748
195	0xc243b179	-48.923313
196	0xc1968e42	-18.819462
197	0xc2bed021	-95.4065
198	0x4303da2c	131.85223
199	0xc1499413	-12.598651
200	0x42c553d7	98.66375
201	0x420e90ac	35.64128
202	0x42d5a103	106.814476
203	0x420ca0a0	35.15686
204	0x4227e744	41.975845
205	0xc23fdafd	-47.963856
206	0x4205e9ce	33.478325
207	0xbf33f53f	-0.7029609
208	0x42711f84	60.280777
209	0xc1f4e1b1	-30.6102
210	0xc22afee0	-42.7489
211	0xc2702413	-60.03523
212	0x429c9c9d	78.305885
213	0x3ea42770	0.32061338
214	0xc1360b5c	-11.377773
215	0xc345dafe	-197.85544
216	0x42ceda80	103.42676
217	0xc2affdae	-87.99547
218	0x42a9cdb9	84.9018
219	0xc1e6e9fa	-28.864246
220	0x42a3b104	81.84573
221	0xc0a176a2	-5.0457315
222	0x42ad4e14	86.6525
223	0xc29bbefc	-77.87302
224	0x42a701d8	83.5036
225	0x40016973	2.022061
226	0x429bdc72	77.93056
227	0x424ff142	51.985603
228	0x429ba04e	77.813095
229	0x419eba3a	19.84093
230	0x428c7246	70.22319
231	0x4193bbc0	18.466675
232	0x42c49b34	98.30313
233	0xc24eea45	-51.72878
234	0x41e13ba6	28.154125
235	0xc2a03b31	-80.11561
236	0x42bd24d6	94.571945
237	0x42c04648	96.13727
238	0x42621ff4	56.531204
239	0xc30302b1	-131.01051
240	0x416bd696	14.739889
241	0xc1f2b4c0	-30.338257
242	0x426bc3c4	58.941177
243	0xc28d638a	-70.69441
244	0x42aecd60	87.40112
245	0xc22fd28b	-43.95561
246	0x4218977c	38.147934
247	0x4205f022	33.484505
248	0x410305fe	8.188963
249	0xc2dab609	-109.35554
250	0x41ac8151	21.563143
251	0xbf7fd38e	-0.9993218
252	0x4291bd78	72.870056
253	0xc20fa52a	-35.911293
254	0x40a9c675	5.3054757
255	0xc2b31480	-89.54004

variational_strategy._variational_distribution.variational_mean f4 [300]
0	0xc0cda72f	-6.426658
1	0xc0e1f8a6	-7.0616026
2	0xc10ef3b9	-8.934503
3	0xc05bd422	-3.4348226
4	0xbefe178b	-0.49627337
5	0xc086d80e	-4.213874
6	0xc06899db	-3.6343906
7	0xc0ec9b8a	-7.3939867
8	0xc060d877	-3.513212
9	0xc0815f98	-4.042919
10	0xbfa2a982	-1.270798
11	0x3dee02a8	0.116216004
12	0xc043acc8	-3.0574207
13	0xc008a81a	-2.13526
14	0xc056367c	-3.3470755
15	0xbf452f44	-0.77025247
16	0xbf102718	-0.5630965
17	0xbf314635	-0.6924775
18	0xc01c5193	-2.442479
19	0x3ef18a0c	0.47175634
20	0xbe978a87	-0.29597875
21	0xc01a45cd	-2.4105103
22	0xc021c795	-2.5278065
23	0xbefb7753	-0.49114475
24	0xbeb0662e	-0.34452957
25	0xc025555c	-2.583335
26	0x3ebd6bce	0.3699631
27	0x3ea5c78b	0.32378802
28	0xc0568f7d	-3.3525078
29	0xbf55e824	-0.83557343
30	0xbf83cdd4	-1.0297189
31	0x3e252d70	0.16130614
32	0xbef97419	-0.48721388
33	0xbf912847	-1.1340417
34	0xbf64195f	-0.89101213
35	0x3c487238	0.012234263
36	0xbfbec8a5	-1.4904982
37	0xbffc9169	-1.9731876
38	0xbf36ed08	-0.7145543
39	0xc01168bf	-2.2720182
40	0xbfd3635c	-1.6514697
41	0xbc07a1a1	-0.008278281
42	0xc005b74c	-2.0893126
43	0xbf1e7853	-0.6190235
44	0xbf2e396f	-0.68056387
45	0xbe8f1e6e	-0.27952904
46	0xbfe1ab4d	-1.7630402
47	0xbf22b3d0	-0.6355562
48	0xbf3e486f	-0.74329275
49	0x3d9141a1	0.07092596
50	0xbe980011	-0.2968755
51	0xbda2cf3d	-0.07949684
52	0xbd20c95b	-0.039254528
53	0xbd5becc6	-0.0536926
54	0xbd54be34	-0.051939204
55	0x3ef7a1d6	0.4836566
56	0xbe888846	-0.26666468
57	0xbdabe824	-0.08393887
58	0xbf09a574	-0.53768086
59	0xbea7f41d	-0.3280343
60	0x3d6e3d68	0.05816403
61	0xbc746257	-0.014916024
62	0xbeed8fe7	-0.4639885
63	0xbe1b0178	-0.15137279
64	0xbe8f9019	-0.28039625
65	0xbda206b1	-0.079114325
66	0x3db8c0fa	0.09021182
67	0xbcb3ff7c	-0.02197241
68	0xbaa867c0	-0.0012848303
69	0x3e947c72	0.29001194
70	0xbefd1c09	-0.49435452
71	0x3a9b4ec6	0.0011849038
72	0x3da0a858	0.07844609
73	0xbea83c28	-0.32858396
74	0xbd24cc78	-0.04023406
75	0x3dc2af98	0.09506148
76	0x3e9ad263	0.30238637
77	0xbd84d3b9	-0.064856954
78	0xbe744c38	-0.238572
79	0xbdcae695	-0.09907261
80	0x3df3f291	0.119115
81	0xbe664d23	-0.22490363
82	0x3e137e93	0.14403753
83	0xbf849062	-1.0356562
84	0xbd3cbc25	-0.046077866
85	0xbd3f8fd2	-0.046768017
86	0xbd3d4191	-0.046205107
87	0x3d9cfcde	0.07665418
88	0xbc89cdec	-0.016821824
89	0xbed549a4	-0.41657746
90	0x3d214d91	0.039380614
91	0x3da182e6	0.07886295
92	0x3ae03684	0.0017106091
93	0xbe9e9119	-0.30970076
94	0x3e9cdb26	0.30635947
95	0x3d432268	0.047640234
96	0xbd87e900	-0.06636238
97	0xbd15de9f	-0.03658926
98	0xbd7a1667	-0.06105652
99	0xbd09ce3e	-0.033643954
100	0xbe2b8982	-0.16751674
101	0xbe0a0e38	-0.13481987
102	0x3c2e40a1	0.010635526
103	0xbabed791	-0.0014560093
104	0x3cd2025d	0.025635893
105	0xbe6f329b	-0.23359148
106	0x3d72bf09	0.059264217
107	0xbec37f63	-0.38183126
108	0xbf1edcfa	-0.62055933
109	0x3dde4f76	0.10855
110	0x3ca5f7e8	0.020259812
111	0x3d6dfd3c	0.05810283
112	0x3db2f1e0	0.0873754
113	0x3e00c2e8	0.12574351
114	0x3c5fd0d0	0.013660625
115	0xbccc78d6	-0.024959963
116	0x3dd873ef	0.105689876
117	0x3d3ac507	0.045598056
118	0xbf71c585	-0.94442016
119	0x3e7bdb8b	0.24595468
120	0x3d4406d6	0.04785808
121	0xbdab8c00	-0.08376312
122	0xbdac4af2	-0.08412732
123	0xbdaa10df	-0.08303999
124	0x3d76a760	0.060218215
125	0xbce3983c	-0.027782552
126	0xbd18bf3a	-0.037291743
127	0x3b2b9950	0.002618391
128	0xbe906de8	-0.28208852
129	0x3d491bde	0.04909884
130	0xbd9dc2ab	-0.077031456
131	0x3e3bde0f	0.18346427
132	0xbe144087	-0.1447774
133	0xbd121ee1	-0.03567398
134	0x3cdb97e1	0.02680582
135	0x3d322656	0.04349359
136	0x3d06f405	0.03294756
137	0xbd385df9	-0.045011494
138	0xbc1d9dc4	-0.009620134
139	0xbf0d60bb	-0.55225724
140	0xbda4a72d	-0.08039699
141	0x3ca6c370	0.020356864
142	0xbcc01795	-0.023448745
143	0x3c2ad025	0.010425602
144	0xbbd39a12	-0.0064575756
145	0xbe0c5d93	-0.1370757
146	0xbd702918	-0.05863294
147	0xbe62bcf9	-0.221424
148	0x3aa26a70	0.001239134
149	0x3cd5499e	0.02603608
150	0xbe0a86ab	-0.13527934
151	0x3cd95d91	0.026533874
152	0xc02efacc	-2.7340574
153	0xbbf6079e	-0.0075082323
154	0xbf09010b	-0.53517216
155	0xbdca76ab	-0.09885915
156	0xbe9ac3ea	-0.30227596
157	0x3c93c39c	0.01803761
158	0x3b5147d8	0.0031933691
159	0x3e87dca0	0.2653551
160	0xbe06d782	-0.13168147
161	0x3cf0408c	0.029327653
162	0x3e2c80b1	0.16845967
163	0xbc9d0c7d	-0.019170994
164	0xbc84778d	-0.016170288
165	0x3ef4441e	0.4770822
166	0xbeec3a66	-0.46138304
167	0x3ca699e0	0.020337045
168	0xbf00820a	-0.50198424
169	0xbe4198d5	-0.18905957
170	0x3c7f6de0	0.015590161
171	0xc010dc3e	-2.2634425
172	0xbf9948f0	-1.1975384
173	0x3d104419	0.035221193
174	0xb8a82720	-8.018152e-05
175	0xbb95d5c1	-0.0045726006
176	0xbd1d7521	-0.03844178
177	0x3cb0e68e	0.021594312
178	0xbb36508f	-0.0027819013
179	0x3ceb5e88	0.0287316
180	0x3d4e70b2	0.050400443
181	0xbb025e81	-0.0019892754
182	0xbaf29277	-0.0018506785
183	0x3df3b8ca	0.1190048
184	0x3afa0740	0.0019075647
185	0x3bbc8857	0.0057535577
186	0x3c07fced	0.008300048
187	0xbdf3909c	-0.118928164
188	0x3b8e0379	0.00433391
189	0xbf0f68d2	-0.5601932
190	0x3c36c65e	0.011155693
191	0xbcb4917b	-0.022042027
192	0x3cfc13c8	0.030771151
193	0x3d074795	0.03302725
194	0xbd445064	-0.04792823
195	0x39816448	0.00024679513
196	0x3c939ec1	0.018020036
197	0xbc0bad32	-0.00852518
198	0x3d166bc6	0.036723875
199	0x3dbfa202	0.093570724
200	0x3b921372	0.0044578845
201	0xbe84af92	-0.259152
202	0x3c540bce	0.012942268
203	0xbd64d3ee	-0.055866174
204	0xbb725cde	-0.0036981623
205	0xbe6cb278	-0.23114955
206	0xbd4ad93a	-0.04952357
207	0xbcb3edce	-0.02196398
208	0xbd80c654	-0.06287828
209	0x3ca2cb0e	0.019872215
210	0xbb20bae8	-0.0024525467
211	0xbc882d37	-0.016623123
212	0x3ca1d49a	0.019754697
213	0x3d8fa1b5	0.07013265
214	0xbdb3998f	-0.08769523
215	0x3c5578f4	0.013029326
216	0xbbb003f6	-0.005371566
217	0xbc5f4c1e	-0.013628988
218	0x3b969b2c	0.0045961346
219	0x3be94322	0.0071185986
220	0x3c1ea53c	0.00968295
221	0xbca7e916	-0.020496886
222	0x3ba0b824	0.004904764
223	0xbc09e844	-0.008417193
224	0xbd630d34	-0.055432513
225	0xbd96d80f	-0.07365429
226	0x3e6bbe74	0.23021871
227	0xbbf286c0	-0.0074013174
228	0xbec9ebd0	-0.39437723
229	0x3b287f3f	0.002571061
230	0x3d6077f5	0.0548019
231	0xbeded8a9	-0.43524674
232	0xbc39c9f8	-0.011339657
233	0xbd4f4f1e	-0.05061256
234	0x3c3a3da8	0.011367239
235	0x3a3177e4	0.0006769879
236	0x3b0ee599	0.0021804331
237	0xbe056829	-0.13028015
238	0xbdee9a1f	-0.1165049
239	0xbc823450	-0.015894085
240	0xbd91344f	-0.07090055
241	0x3c9b106f	0.018928735
242	0x3baf530d	0.0053504766
243	0x3daa4568	0.083140194
244	0xbd9c3b98	-0.07628554
245	0xbb655827	-0.003499517
246	0x3c7ef24c	0.015560698
247	0xbd238157	-0.03991827
248	0xbecda701	-0.40166476
249	0x3b3b1abb	0.0028549868
250	0x3c245f91	0.01003255
251	0x3b4391d9	0.002984157
252	0x3ab5451b	0.0013829799
253	0xbbdf5053	-0.0068149953
254	0x3da7f4b3	0.082009695
255	0x3a4cfe20	0.000781985

variational_strategy._variational_distribution.chol_variational_covar f4 [300, 300]
0	0x3e89f727	0.26946375
1	0x00000000	0.0
2	0x00000000	0.0
3	0x00000000	0.0
4	0x00000000	0.0
5	0x00000000	0.0
6	0x00000000	0.0
7	0x00000000	0.0
8	0x00000000	0.0
9	0x00000000	0.0
10	0x00000000	0.0
11	0x00000000	0.0
12	0x00000000	0.0
13	0x00000000	0.0
14	0x00000000	0.0
15	0x00000000	0.0
16	0x00000000	0.0
17	0x00000000	0.0
18	0x00000000	0.0
19	0x00000000	0.0
20	0x00000000	0.0
21	0x00000000	0.0
22	0x00000000	0.0
23	0x00000000	0.0
24	0x00000000	0.0
25	0x00000000	0.0
26	0x00000000	0.0
27	0x00000000	0.0
28	0x00000000	0.0
29	0x00000000	0.0
30	0x00000000	0.0
31	0x00000000	0.0
32	0x00000000	0.0
33	0x00000000	0.0
34	0x00000000	0.0
35	0x00000000	0.0
36	0x00000000	0.0
37	0x00000000	0.0
38	0x00000000	0.0
39	0x00000000	0.0
40	0x00000000	0.0
41	0x00000000	0.0
42	0x00000000	0.0
43	0x00000000	0.0
44	0x00000000	0.0
45	0x00000000	0.0
46	0x00000000	0.0
47	0x00000000	0.0
48	0x00000000	0.0
49	0x00000000	0.0
50	0x00000000	0.0
51	0x00000000	0.0
52	0x00000000	0.0
53	0x00000000	0.0
54	0x00000000	0.0
55	0x00000000	0.0
56	0x00000000	0.0
57	0x00000000	0.0
58	0x00000000	0.0
59	0x00000000	0.0
60	0x00000000	0.0
61	0x00000000	0.0
62	0x00000000	0.0
63	0x00000000	0.0
64	0x00000000	0.0
65	0x00000000	0.0
66	0x00000000	0.0
67	0x00000000	0.0
68	0x00000000	0.0
69	0x00000000	0.0
70	0x00000000	0.0
71	0x00000000	0.0
72	0x00000000	0.0
73	0x00000000	0.0
74	0x00000000	0.0
75	0x00000000	0.0
76	0x00000000	0.0
77	0x00000000	0.0
78	0x00000000	0.0
79	0x00000000	0.0
80	0x00000000	0.0
81	0x00000000	0.0
82	0x00000000	0.0
83	0x00000000	0.0
84	0x00000000	0.0
85	0x00000000	0.0
86	0x00000000	0.0
87	0x00000000	0.0
88	0x00000000	0.0
89	0x00000000	0.0
90	0x00000000	0.0
91	0x00000000	0.0
92	0x00000000	0.0
93	0x00000000	0.0
94	0x00000000	0.0
95	0x00000000	0.0
96	0x00000000	0.0
97	0x00000000	0.0
98	0x00000000	0.0
99	0x00000000	0.0
100	0x00000000	0.0
101	0x00000000	0.0
102	0x00000000	0.0
103	0x00000000	0.0
104	0x00000000	0.0
105	0x00000000	0.0
106	0x00000000	0.0
107	0x00000000	0.0
108	0x00000000	0.0
109	0x00000000	0.0
110	0x00000000	0.0
111	0x00000000	0.0
112	0x00000000	0.0
113	0x00000000	0.0
114	0x00000000	0.0
115	0x00000000	0.0
116	0x00000000	0.0
117	0x00000000	0.0
118	0x00000000	0.0
119	0x00000000	0.0
120	0x00000000	0.0
121	0x00000000	0.0
122	0x00000000	0.0
123	0x00000000	0.0
124	0x00000000	0.0
125	0x00000000	0.0
126	0x00000000	0.0
127	0x00000000	0.0
128	0x00000000	0.0
129	0x00000000	0.0
130	0x00000000	0.0
131	0x00000000	0.0
132	0x00000000	0.0
133	0x00000000	0.0
134	0x00000000	0.0
135	0x00000000	0.0
136	0x00000000	0.0
137	0x00000000	0.0
138	0x00000000	0.0
139	0x00000000	0.0
140	0x00000000	0.0
141	0x00000000	0.0
142	0x00000000	0.0
143	0x00000000	0.0
144	0x00000000	0.0
145	0x00000000	0.0
146	0x00000000	0.0
147	0x00000000	0.0
148	0x00000000	0.0
149	0x00000000	0.0
150	0x00000000	0.0
151	0x00000000	0.0
152	0x00000000	0.0
153	0x00000000	0.0
154	0x00000000	0.0
155	0x00000000	0.0
156	0x00000000	0.0
157	0x00000000	0.0
158	0x00000000	0.0
159	0x00000000	0.0
160	0x00000000	0.0
161	0x00000000	0.0
162	0x00000000	0.0
163	0x00000000	0.0
164	0x00000000	0.0
165	0x00000000	0.0
166	0x00000000	0.0
167	0x00000000	0.0
168	0x00000000	0.0
169	0x00000000	0.0
170	0x00000000	0.0
171	0x00000000	0.0
172	0x00000000	0.0
173	0x00000000	0.0
174	0x00000000	0.0
175	0x00000000	0.0
176	0x00000000	0.0
177	0x00000000	0.0
178	0x00000000	0.0
179	0x00000000	0.0
180	0x00000000	0.0
181	0x00000000	0.0
182	0x00000000	0.0
183	0x00000000	0.0
184	0x00000000	0.0
185	0x00000000	0.0
186	0x00000000	0.0
187	0x00000000	0.0
188	0x00000000	0.0
189	0x00000000	0.0
190	0x00000000	0.0
191	0x00000000	0.0
192	0x00000000	0.0
193	0x00000000	0.0
194	0x00000000	0.0
195	0x00000000	0.0
196	0x00000000	0.0
197	0x00000000	0.0
198	0x00000000	0.0
199	0x00000000	0.0
200	0x00000000	0.0
201	0x00000000	0.0
202	0x00000000	0.0
203	0x00000000	0.0
204	0x00000000	0.0
205	0x00000000	0.0
206	0x00000000	0.0
207	0x00000000	0.0
208	0x00000000	0.0
209	0x00000000	0.0
210	0x00000000	0.0
211	0x00000000	0.0
212	0x00000000	0.0
213	0x00000000	0.0
214	0x00000000	0.0
215	0x00000000	0.0
216	0x00000000	0.0
217	0x00000000	0.0
218	0x00000000	0.0
219	0x00000000	0.0
220	0x00000000	0.0
221	0x00000000	0.0
222	0x00000000	0.0
223	0x00000000	0.0
224	0x00000000	0.0
225	0x00000000	0.0
226	0x00000000	0.0
227	0x00000000	0.0
228	0x00000000	0.0
229	0x00000000	0.0
230	0x00000000	0.0
231	0x00000000	0.0
232	0x00000000	0.0
233	0x00000000	0.0
234	0x00000000	0.0
235	0x00000000	0.0
236	0x00000000	0.0
237	0x00000000	0.0
238	0x00000000	0.0
239	0x00000000	0.0
240	0x00000000	0.0
241	0x00000000	0.0
242	0x00000000	0.0
243	0x00000000	0.0
244	0x00000000	0.0
245	0x00000000	0.0
246	0x00000000	0.0
247	0x00000000	0.0
248	0x00000000	0.0
249	0x00000000	0.0
250	0x00000000	0.0
251	0x00000000	0.0
252	0x00000000	0.0
253	0x00000000	0.0
254	0x00000000	0.0
255	0x00000000	0.0

cov.base_kernel.raw_lengthscale f4 [1, 2]
0	0x421d9017	39.390713
1	0x42366bc0	45.605225
