slam/rbpf_slam/data/old_results/working_now_better_training/svgp.pth (torch, 44874 bytes, 4 tensors)

variational_strategy.inducing_points f4 [100, 2]
00000000: ccb4 f742 cb97 40c3 951f fe42 6892 88c3
00000010: 24c2 b2c2 f346 94c3 f0ea f942 b19b c9c3
00000020: 404a f842 6546 9bc3 bfaf 9b42 ee2a a2c3
00000030: 9035 b5c0 986a 8ec3 16d6 2c43 144a a4c3
00000040: 0718 adc2 c623 45c3 2677 10c2 cade a2c3
00000050: 4069 bb42 113b aec3 cf56 ea42 5c4b a7c3
00000060: 71c1 1f41 e43d 5fc3 68d5 b1c2 3f24 a3c3
00000070: 1eb4 ccc1 50a8 8dc3 36b2 2842 c3c2 4ac3
00000080: af26 1ac2 8924 96c3 00c1 1243 8fb6 93c3
00000090: 5983 f740 f335 91c3 4c14 6e42 5aef 4dc3
000000a0: b65c 1442 a690 d0c3 1247 8c42 6ba2 42c3
000000b0: 228c e942 cb53 83c3 44af 9842 6cf9 6bc3
000000c0: 3c60 f341 86d6 8ac3 b7b7 2c43 03e5 bac3
000000d0: de7e 3142 5b98 6ac3 211c 09c2 558d c5c3
000000e0: 7b8e 1043 571c a1c3 ff75 bf42 254c 1ec3
000000f0: c2d0 1e42 f6ce b3c3 36de cec0 f0a1 82c3
00000100: f70e a842 a35d 64c3 87d8 3d41 4617 7cc3
00000110: 4196 08c2 617d 84c3 185b 61c2 a491 a1c3
00000120: 5db8 5c42 e928 38c3 9b19 b7c2 dbc2 89c3
00000130: 2bb2 89c2 ace0 96c3 f5f5 0b43 044d 90c3
00000140: 2088 8fc2 b4fc 8ec3 c19e 3142 1872 a7c3
00000150: a267 0c43 8421 8ac3 517d c240 d89a b7c3
00000160: f1d5 1dc1 b853 74c3 5f19 9942 41ed 91c3
00000170: afd6 0743 65ca 80c3 17ae 09c2 6fae 69c3
00000180: e5b5 0043 4c46 a7c3 4af4 a7c2 ee6d 7dc3
00000190: 50d8 2e43 bce7 b0c3 7778 6b42 8ceb 6cc3
000001a0: 7798 55c2 b0f3 89c3 5e17 9542 4405 7ac3
000001b0: 74b0 3442 da6f dbc3 1032 ad42 7dc2 4bc3
000001c0: 4dc7 dd42 678c 43c3 cee1 3bc2 e1ac a9c3
000001d0: 0c8b d642 c04f 99c3 befa db41 e339 50c3
000001e0: a611 fe42 c96f afc3 7456 8dc2 d13e 6fc3
000001f0: b16d 2c42 2468 bac3 d5c5 43c2 c55d afc3
00000200: fca0 24c2 ae28 3cc3 3ee2 5b42 b0a9 b1c3
00000210: 99aa da41 fae0 b3c3 a2ab 38c1 0132 e8c3
00000220: b29c 0142 d25b 99c3 bd0c 7c42 f19c a5c3
00000230: ca61 18c2 2609 58c3 f42d c542 481a c5c3
00000240: 3daa b941 0cac 6bc3 5f67 a5c2 c4c9 d3c3
00000250: 8f80 1a40 6a62 9cc3 ac0b 1843 5de6 85c3
00000260: 1799 e540 5d14 2fc3 6908 9cc2 e753 9dc3
00000270: 4b4f 1e42 b729 86c3 0449 0143 05c5 90c3
00000280: f686 97c2 5809 c6c3 a74a 1f43 7945 98c3
00000290: 37a9 acc2 b249 acc3 f823 9bc2 ebd1 88c3
000002a0: c344 e642 b437 8cc3 3acf c042 51a5 d4c3
000002b0: 3a21 b5c2 c88f e0c3 2efb 1743 4a4b b6c3
000002c0: 0785 2a42 3bf2 7cc3 09f8 1243 8663 adc3
000002d0: 1c83 bf41 3a6b a7c3 6268 b342 4ef7 36c3
000002e0: 0cdb 4642 7d1f 97c3 e353 cc42 d453 75c3
000002f0: bb4d 75c2 ce46 80c3 33df 8a42 bb57 5ec3
00000300: 5c9c fb41 c722 bdc3 de10 ba42 a6a4 89c3
00000310: 2ccc 8cc1 9359 9bc3 615a 1842 5244 5fc3
123.85312 -192.59294 127.06168 -273.1438 -89.37918 -296.5543 124.95886 -403.21634
124.14502 -310.54996 77.843254 -324.3354 -5.6627884 -284.83276 172.83627 -328.57874
-86.54693 -197.13974 -36.116356 -325.74054 93.70557 -348.46146 117.16955 -334.58875
9.984727 -223.24176 -88.91681 -326.28317 -25.587948 -283.31494 42.174034 -202.76079
-38.537777 -300.28543 146.7539 -295.42624 7.7347836 -290.42148 59.51982 -205.93497
37.090538 -417.13007 70.13881 -194.63445 116.7737 -262.65463 76.342316 -235.9743
30.42199 -277.67596 172.71764 -373.78915 44.373894 -234.59514 -34.27747 -395.10416
144.55656 -322.2214 95.73046 -158.29744 39.703865 -359.61688 -6.4646254 -261.26514
84.02923 -228.36577 11.865363 -252.09091 -34.146732 -264.97952 -56.33896 -323.13782
55.180042 -184.1598 -91.55001 -275.5223 -68.847984 -301.75525 139.96077 -288.60168
-71.76587 -285.97424 44.405033 -334.89136 140.40482 -276.26184 6.0777974 -367.20972
-9.864732 -244.32703 76.54955 -291.85355 135.83861 -257.5812 -34.42001 -233.68138
128.71053 -334.5492 -83.97713 -253.42941 174.84497 -353.81042 58.86764 -236.9201
-53.39889 -275.9038 74.54564 -250.02057 45.172318 -438.87384 86.59778 -203.75972
110.88926 -195.54845 -46.970512 -339.35062 107.271576 -306.62305 27.497433 -208.22612
127.03447 -350.87332 -70.66885 -239.24538 43.10712 -372.8136 -48.943195 -350.73257
-41.15721 -188.1589 54.97094 -355.32568 27.3333 -359.75763 -11.541903 -464.39066
32.403023 -306.71735 63.01244 -331.2261 -38.095497 -216.03574 98.58975 -394.20532
23.208124 -235.67206 -82.7019 -423.5763 2.4140966 -312.76886 152.0456 -267.7997
7.1749377 -175.07954 -78.016426 -314.6555 39.577435 -268.3259 129.28522 -289.5392
-75.763596 -396.073 159.29161 -304.54276 -86.3305 -344.57574 -77.57025 -273.63998
115.1343 -280.43518 96.40474 -425.29153 -90.564896 -449.1233 151.98117 -364.5882
42.62991 -252.94621 146.96889 -346.77753 23.939018 -334.8377 89.70387 -182.96603
49.713913 -302.246 102.16384 -245.32745 -61.32591 -256.55316 69.435936 -222.3427
31.451347 -378.2717 93.03294 -275.28632 -17.599693 -310.6998 38.08826 -223.26688

variational_strategy._variational_distribution.variational_mean f4 [100]
00000000: eae9 d9c0 a139 0bc1 6ad7 0ac1 83b6 83c0
00000010: 438e fec0 1f96 ddc0 c207 06c1 5066 c7c0
00000020: 363e 08c1 5eea ffc0 5c06 d1c0 d366 e8c0
00000030: 65f8 12c1 715e e5c0 2070 ffc0 dbd5 e6c0
00000040: 28c7 10c1 78da ecc0 745b f0c0 a97f 17c1
00000050: e054 bac0 89d1 04c1 8885 04c1 71a7 10c1
00000060: 45ac e7c0 d6d2 b1c0 d41d 0bc1 a48c a3c0
00000070: d0ee bec0 d9b9 01c1 3348 e0c0 2a11 fcc0
00000080: 4464 d5c0 30d1 f4c0 e73d f5c0 c887 f0c0
00000090: dbfd f8c0 0bdc f7c0 68c1 eec0 003c a1c0
000000a0: bdb9 f3c0 9285 e8c0 b20a afc0 beb1 f7c0
000000b0: 65a9 bdc0 fda6 06c1 e80b f7c0 4ad2 eec0
000000c0: 3f38 a9c0 a94c 09c1 54ac 84c0 ec6f d7c0
000000d0: c98e 09c1 07e8 07c1 7783 acc0 056f fac0
000000e0: 3666 e2c0 081a d0c0 30dd cfc0 c47d d4c0
000000f0: 21c0 b0c0 b39e 19c1 b25a b7c0 885f b7c0
00000100: a532 bac0 eeb8 bbc0 f830 a0c0 c0b4 4ec0
00000110: 49f4 06c1 4b58 c0c0 ca75 d6c0 425d 87c0
00000120: d80a b3c0 1c0b 55c0 bba5 fcc0 2118 9ec0
00000130: 80a6 a3c0 812a b4c0 2983 cac0 69a6 cfc0
00000140: a266 8bc0 32f5 afc0 fc9b b3c0 f11f bdc0
00000150: ee0f c2c0 7607 88c0 a114 33c0 a430 bec0
00000160: ed34 e1c0 bc92 a7c0 e4b5 ecc0 5690 c4c0
00000170: c167 fac0 2596 0ac1 d8d8 f7c0 3e14 e4c0
00000180: 8bea 92c0 537c bfc0 2f3c f7c0 4bd6 8dc0
-6.809804 -8.70157 -8.677591 -4.1160293 -7.954866 -6.9245753 -8.376894 -6.2312393
-8.515188 -7.9973593 -6.5320263 -7.262552 -9.185643 -7.1677785 -7.982437 -7.2136054
-9.048622 -7.4016685 -7.5111637 -9.468667 -5.8228607 -8.301156 -8.2826 -9.040879
-7.239779 -5.556987 -8.694782 -5.110918 -5.966652 -8.107873 -7.0088134 -7.877095
-6.6684895 -7.6505356 -7.6638064 -7.516575 -7.780988 -7.7456107 -7.461109 -5.038574
-7.616423 -7.266305 -5.4700556 -7.740447 -5.926928 -8.415769 -7.7202034 -7.46317
-5.288116 -8.581216 -4.146036 -6.7324123 -8.59736 -8.494147 -5.391048 -7.826052
-7.074977 -6.5031776 -6.4957504 -6.6403522 -5.523453 -9.601245 -5.729821 -5.7304115
-5.818682 -5.8663244 -5.0059776 -3.229782 -8.43464 -6.010778 -6.7018785 -4.230134
-5.5950737 -3.328803 -7.895231 -4.9404454 -5.1140747 -5.6301885 -6.3285108 -6.4890637
-4.3562784 -5.498681 -5.612791 -5.910149 -6.0644445 -4.2509108 -2.798134 -5.9434376
-7.0377107 -5.236662 -7.3972034 -6.142619 -7.8251653 -8.661656 -7.74522 -7.127471
-4.5911307 -5.9839263 -7.7260966 -4.432409

variational_strategy._variational_distribution.chol_variational_covar f4 [100, 100]
00000000: 59d0 4c3f 0000 0000 0000 0000 0000 0000
00000010: 0000 0000 0000 0000 0000 0000 0000 0000
00000020: 0000 0000 0000 0000 0000 0000 0000 0000
00000030: 0000 0000 0000 0000 0000 0000 0000 0000
00000040: 0000 0000 0000 0000 0000 0000 0000 0000
00000050: 0000 0000 0000 0000 0000 0000 0000 0000
00000060: 0000 0000 0000 0000 0000 0000 0000 0000
00000070: 0000 0000 0000 0000 0000 0000 0000 0000
00000080: 0000 0000 0000 0000 0000 0000 0000 0000
00000090: 0000 0000 0000 0000 0000 0000 0000 0000
000000a0: 0000 0000 0000 0000 0000 0000 0000 0000
000000b0: 0000 0000 0000 0000 0000 0000 0000 0000
000000c0: 0000 0000 0000 0000 0000 0000 0000 0000
000000d0: 0000 0000 0000 0000 0000 0000 0000 0000
000000e0: 0000 0000 0000 0000 0000 0000 0000 0000
000000f0: 0000 0000 0000 0000 0000 0000 0000 0000
00000100: 0000 0000 0000 0000 0000 0000 0000 0000
00000110: 0000 0000 0000 0000 0000 0000 0000 0000
00000120: 0000 0000 0000 0000 0000 0000 0000 0000
00000130: 0000 0000 0000 0000 0000 0000 0000 0000
00000140: 0000 0000 0000 0000 0000 0000 0000 0000
00000150: 0000 0000 0000 0000 0000 0000 0000 0000
00000160: 0000 0000 0000 0000 0000 0000 0000 0000
00000170: 0000 0000 0000 0000 0000 0000 0000 0000
00000180: 0000 0000 0000 0000 0000 0000 0000 0000
00000190: f80a 94bb d4ac e63e 0000 0000 0000 0000
000001a0: 0000 0000 0000 0000 0000 0000 0000 0000
000001b0: 0000 0000 0000 0000 0000 0000 0000 0000
000001c0: 0000 0000 0000 0000 0000 0000 0000 0000
000001d0: 0000 0000 0000 0000 0000 0000 0000 0000
000001e0: 0000 0000 0000 0000 0000 0000 0000 0000
000001f0: 0000 0000 0000 0000 0000 0000 0000 0000
00000200: 0000 0000 0000 0000 0000 0000 0000 0000
00000210: 0000 0000 0000 0000 0000 0000 0000 0000
00000220: 0000 0000 0000 0000 0000 0000 0000 0000
00000230: 0000 0000 0000 0000 0000 0000 0000 0000
00000240: 0000 0000 0000 0000 0000 0000 0000 0000
00000250: 0000 0000 0000 0000 0000 0000 0000 0000
00000260: 0000 0000 0000 0000 0000 0000 0000 0000
00000270: 0000 0000 0000 0000 0000 0000 0000 0000
00000280: 0000 0000 0000 0000 0000 0000 0000 0000
00000290: 0000 0000 0000 0000 0000 0000 0000 0000
000002a0: 0000 0000 0000 0000 0000 0000 0000 0000
000002b0: 0000 0000 0000 0000 0000 0000 0000 0000
000002c0: 0000 0000 0000 0000 0000 0000 0000 0000
000002d0: 0000 0000 0000 0000 0000 0000 0000 0000
000002e0: 0000 0000 0000 0000 0000 0000 0000 0000
000002f0: 0000 0000 0000 0000 0000 0000 0000 0000
00000300: 0000 0000 0000 0000 0000 0000 0000 0000
00000310: 0000 0000 0000 0000 0000 0000 0000 0000
00000320: 703f 86bc 208e c23a bf04 323f 0000 0000
00000330: 0000 0000 0000 0000 0000 0000 0000 0000
00000340: 0000 0000 0000 0000 0000 0000 0000 0000
00000350: 0000 0000 0000 0000 0000 0000 0000 0000
00000360: 0000 0000 0000 0000 0000 0000 0000 0000
00000370: 0000 0000 0000 0000 0000 0000 0000 0000
00000380: 0000 0000 0000 0000 0000 0000 0000 0000
00000390: 0000 0000 0000 0000 0000 0000 0000 0000
000003a0: 0000 0000 0000 0000 0000 0000 0000 0000
000003b0: 0000 0000 0000 0000 0000 0000 0000 0000
000003c0: 0000 0000 0000 0000 0000 0000 0000 0000
000003d0: 0000 0000 0000 0000 0000 0000 0000 0000
000003e0: 0000 0000 0000 0000 0000 0000 0000 0000
000003f0: 0000 0000 0000 0000 0000 0000 0000 0000
0.80005413 0.0 0.0 0.0 0.0 0.0 0.0 0.0
0.0 0.0 0.0 0.0 0.0 0.0 0.0 0.0
0.0 0.0 0.0 0.0 0.0 0.0 0.0 0.0
0.0 0.0 0.0 0.0 0.0 0.0 0.0 0.0
0.0 0.0 0.0 0.0 0.0 0.0 0.0 0.0
0.0 0.0 0.0 0.0 0.0 0.0 0.0 0.0
0.0 0.0 0.0 0.0 0.0 0.0 0.0 0.0
0.0 0.0 0.0 0.0 0.0 0.0 0.0 0.0
0.0 0.0 0.0 0.0 0.0 0.0 0.0 0.0
0.0 0.0 0.0 0.0 0.0 0.0 0.0 0.0
0.0 0.0 0.0 0.0 0.0 0.0 0.0 0.0
0.0 0.0 0.0 0.0 0.0 0.0 0.0 0.0
0.0 0.0 0.0 0.0 -0.004517909 0.45053732 0.0 0.0
0.0 0.0 0.0 0.0 0.0 0.0 0.0 0.0
0.0 0.0 0.0 0.0 0.0 0.0 0.0 0.0
0.0 0.0 0.0 0.0 0.0 0.0 0.0 0.0
0.0 0.0 0.0 0.0 0.0 0.0 0.0 0.0
0.0 0.0 0.0 0.0 0.0 0.0 0.0 0.0
0.0 0.0 0.0 0.0 0.0 0.0 0.0 0.0
0.0 0.0 0.0 0.0 0.0 0.0 0.0 0.0
0.0 0.0 0.0 0.0 0.0 0.0 0.0 0.0
0.0 0.0 0.0 0.0 0.0 0.0 0.0 0.0
0.0 0.0 0.0 0.0 0.0 0.0 0.0 0.0
0.0 0.0 0.0 0.0 0.0 0.0 0.0 0.0
0.0 0.0 0.0 0.0 0.0 0.0 0.0 0.0
-0.016387671 0.0014843382 0.6953849 0.0 0.0 0.0 0.0 0.0
0.0 0.0 0.0 0.0 0.0 0.0 0.0 0.0
0.0 0.0 0.0 0.0 0.0 0.0 0.0 0.0
0.0 0.0 0.0 0.0 0.0 0.0 0.0 0.0
0.0 0.0 0.0 0.0 0.0 0.0 0.0 0.0
0.0 0.0 0.0 0.0 0.0 0.0 0.0 0.0
0.0 0.0 0.0 0.0 0.0 0.0 0.0 0.0

cov.base_kernel.raw_lengthscale f4 [1, 2]
00000000: 0354 6b41 00ed 6441
14.708011 14.307861
