slam/rbpf_slam/data/old_results/particle_gp_model/particle2.pth (torch, 44874 bytes, 4 tensors)

variational_strategy.inducing_points f4 [100, 2]
-218.59322 -362.56854 -84.20716 -355.0814 -109.95838 -439.59656 28.219296 -417.7693
-161.92229 -273.12866 44.169544 -302.3345 -101.1199 -220.16368 -126.579956 -304.33722
-44.73304 -390.00793 -49.84118 -375.52246 -141.37854 -359.83688 -185.19986 -339.26773
-69.490135 -379.30194 -85.97354 -330.59012 -188.14046 -335.56177 -110.15734 -255.52544
-88.61658 -240.80734 -91.41203 -347.64594 -98.45662 -338.895 -124.5846 -347.80356
-101.55297 -244.01215 -77.60062 -338.29663 24.07877 -416.24857 -89.97661 -219.06506
-120.64482 -436.01334 -173.79373 -351.76807 -213.44516 -380.68286 2.127039 -337.7022
49.25107 -376.53253 -64.646645 -302.61774 -104.72406 -296.01407 -117.566895 -295.25604
-80.8959 -330.7374 -81.35556 -331.5308 -178.859 -355.3163 -102.4852 -387.819
-33.557175 -360.05463 -105.797134 -399.4349 -1.1823832 -241.24562 -93.22254 -334.3142
-152.98752 -324.74103 -80.479324 -259.75723 -146.76741 -275.54044 -114.3191 -317.99994
-112.91628 -500.25067 -105.92293 -352.1957 -116.25594 -307.02087 -80.01255 -341.2227
-85.77986 -336.99518 -71.72203 -317.39548 -8.061046 -436.71213 -9.658846 -297.84225
-17.174156 -490.75333 -141.13803 -300.78177 -119.20189 -303.52274 -137.90704 -332.8365
-124.78964 -334.34995 23.446438 -270.64 -121.94222 -331.8738 -115.15693 -243.19452
-167.96039 -412.48184 -231.01265 -361.4334 -75.5976 -241.59676 -132.30864 -379.77737
-139.61421 -351.78046 -132.06035 -285.82758 -87.753914 -333.95297 -102.859505 -245.81969
-87.80067 -531.1158 -82.8816 -216.73482 -149.76186 -280.48892 -35.78273 -358.73428
-93.07803 -463.47842 89.88606 -379.77332 -92.104996 -285.57578 -93.00431 -376.45593
-97.22369 -344.72626 -174.27777 -546.60736 8.88402 -360.37094 -70.57866 -416.48672
-105.882645 -263.10678 -104.4219 -450.45227 -100.76492 -348.65475 -101.1449 -368.5742
-89.40695 -447.90875 -118.6508 -379.96994 -196.84135 -363.65076 -49.642063 -250.29886
-82.43407 -259.6426 -138.74344 -435.36957 -166.60136 -499.17883 -96.70615 -335.78824
-146.60081 -331.7079 -46.88828 -476.71085 -198.799 -465.17706 -101.07677 -318.689
-90.13959 -346.58313 -82.821884 -252.07613 -122.2813 -312.5629 -85.82852 -335.70572
00000000: dd97 5ac3 c648 b5c3 116a a8c2 6b8a b1c3
00000010: b1ea dbc2 5ccc dbc3 1ec1 e141 78e2 d0c3
00000020: 1bec 21c3 7890 88c3 9dad 3042 d12a 97c3
00000030: 643d cac2 e729 5cc3 f028 fdc2 2a2b 98c3
00000040: a2ee 32c2 0401 c3c3 5e5d 47c2 e0c2 bbc3
00000050: e860 0dc3 1feb b3c3 2a33 39c3 45a2 a9c3
00000060: f3fa 8ac2 a6a6 bdc3 74f2 abc2 894b a5c3
00000070: f523 3cc3 e8c7 a7c3 8f50 dcc2 8386 7fc3
00000080: b03b b1c2 aece 70c3 f6d2 b6c2 aed2 adc3
00000090: cae9 c4c2 8f72 a9c3 512b f9c2 dbe6 adc3
000000a0: 1f1b cbc2 1c03 74c3 8433 9bc2 f825 a9c3
000000b0: 52a1 c041 d11f d0c3 06f4 b3c2 a810 5bc3
000000c0: 264a f1c2 b501 dac3 32cb 2dc3 50e2 afc3
000000d0: f671 55c3 6857 bec3 6821 0840 e2d9 a8c3
000000e0: 1801 4542 2a44 bcc3 154b 81c2 124f 97c3
000000f0: b872 d1c2 cd01 94c3 4022 ebc2 c6a0 93c3
00000100: b3ca a1c2 635e a5c3 0cb6 a2c2 f1c3 a5c3
00000110: e7db 32c3 7da8 b1c3 6cf8 ccc2 d5e8 c1c3
00000120: 8c3a 06c2 fe06 b4c3 2298 d3c2 abb7 c7c3
00000130: 5558 97bf e13e 71c3 f171 bac2 3828 a7c3
00000140: cefc 18c3 da5e a2c3 6af5 a0c2 ede0 81c3
00000150: 75c4 12c3 2dc5 89c3 61a3 e4c2 feff 9ec3
00000160: 23d5 e1c2 1620 fac3 8ad8 d3c2 0d19 b0c3
00000170: 0b83 e8c2 ac82 99c3 6d06 a0c2 819c aac3
00000180: 4a8f abc2 627f a8c3 ae71 8fc2 9fb2 9ec3
00000190: 0bfa 00c1 275b dac3 a28a 1ac1 cfeb 94c3
000001a0: ac64 89c1 6d60 f5c3 5623 0dc3 1164 96c3
000001b0: 5e67 eec2 e9c2 97c3 34e8 09c3 126b a6c3
000001c0: 4c94 f9c2 cb2c a7c3 4e92 bb41 ec51 87c3
000001d0: 6be2 f3c2 d9ef a5c3 5950 e6c2 cc31 73c3
000001e0: dcf5 27c3 ad3d cec3 3d03 67c3 7ab7 b4c3
000001f0: f931 97c2 c598 71c3 034f 04c3 81e3 bdc3
00000200: 3d9d 0bc3 e6e3 afc3 730f 04c3 eee9 8ec3
00000210: 0182 afc2 fbf9 a6c3 11b8 cdc2 d7d1 75c3
00000220: f199 afc2 69c7 04c4 61c3 a5c2 1dbc 58c3
00000230: 09c3 15c3 953e 8cc3 8421 0fc2 fd5d b3c3
00000240: f427 bac2 3dbd e7c3 aac5 b342 fce2 bdc3
00000250: c235 b8c2 b3c9 8ec3 3502 bac2 5c3a bcc3
00000260: 8772 c2c2 f65c acc3 1c47 2ec3 dfa6 08c4
00000270: f224 0e41 7b2f b4c3 4628 8dc2 4d3e d0c3
00000280: eac3 d3c2 ab8d 83c3 03d8 d0c2 e439 e1c3
00000290: a487 c9c2 cf53 aec3 304a cac2 7f49 b8c3
000002a0: 5cd0 b2c2 52f4 dfc3 364d edc2 27fc bdc3
000002b0: 63d7 44c3 4cd3 b5c3 7991 46c2 824c 7ac3
000002c0: 3ede a4c2 41d2 81c3 52be 0ac3 4eaf d9c3
000002d0: f399 26c3 e496 f9c3 8c69 c1c2 e5e4 a7c3
000002e0: cf99 12c3 9cda a5c3 998d 3bc2 fd5a eec3
000002f0: 8bcc 46c3 aa96 e8c3 4e27 cac2 3158 9fc3
00000300: 7847 b4c2 a44a adc3 cea4 a5c2 7d13 7cc3
00000310: 0790 f4c2 0d48 9cc3 34a8 abc2 55da a7c3

variational_strategy._variational_distribution.variational_mean f4 [100]
0.051141564 -0.28889808 -0.13553603 -0.052929506 -0.0502382 -0.10260782 -0.2099824 -0.41612607
0.04957397 -0.112089545 0.016919568 -0.051453 0.050850954 -0.58849245 -0.19802321 -0.19808003
-0.07133231 -0.20341638 -0.42730966 -0.34266028 -0.18202195 -0.31734917 -0.41374686 0.05147247
-0.13956337 -0.03340942 -0.050814565 -0.05138102 0.034511667 -0.34623814 -0.087569825 -0.25889397
-0.5028523 -0.5253027 0.052421927 -0.051244423 -0.019548481 0.05132729 -0.051257476 -0.33372614
-0.30393237 -0.41564128 0.05103981 -0.37129834 -0.051201418 -0.35062137 -0.27529424 -0.12144588
-0.012768203 -0.11847626 0.050449513 -0.36271265 -0.051354233 0.050078914 -0.5718484 -0.3565549
-0.19043005 0.050834987 -0.23451369 -0.056116402 -0.09034757 -0.18246391 -0.049752038 -0.20644577
-0.05262926 -0.075037695 -0.59975326 -0.22455929 -0.050883573 0.050997563 0.05144464 0.010912929
0.05144739 0.04958222 -0.16386092 -0.18956968 -0.31759414 0.05108261 0.0350047 0.04298337
-0.057376955 0.050712314 -0.20645495 -0.31043914 0.05067398 0.035631176 0.015785739 0.050814293
-0.052449726 0.051509764 -0.051379055 -0.64868563 -0.5674387 -0.050685424 -0.056302465 -0.15380883
0.08952008 0.05107962 -0.466507 -0.4721862
00000000: d179 513d 73ea 93be f5c9 0abe 9ccc 58bd
00000010: 92c6 4dbd 0c24 d2bd a005 57be 7a0e d5be
00000020: 130e 4b3d 348f e5bd e89a 8a3c 62c0 52bd
00000030: 1749 503d 71a7 16bf 99c6 4abe 7ed5 4abe
00000040: ad16 92bd 624c 50be 55c8 dabe 2b71 afbe
00000050: f663 3abe 977b a2be a1d6 d3be ccd4 523d
00000060: b3e9 0ebe 51d8 08bd ef22 50bd e874 52bd
00000070: 1b5c 0d3d 2046 b1be cf57 b3bd c08d 84be
00000080: eeba 00bf 3d7a 06bf 60b8 563d ace5 51bd
00000090: 2324 a0bc 903c 523d 5cf3 51bd 27de aabe
000000a0: 069d 9bbe efce d4be 1f0f 513d d11a bebe
000000b0: 94b8 51bd a584 b3be 5ef3 8cbe 9eb8 f8bd
000000c0: ba31 51bc aea3 f2bd 26a4 4e3d 79b5 b9be
000000d0: d158 52bd 8c1f 4d3d a864 12bf 5d8e b6be
000000e0: 1800 43be 5938 503d 5b24 70be 50da 65bd
000000f0: 2608 b9bd d2d7 3abe cbc8 4bbd 8566 53be
00000100: c791 57bd 5dad 99bd 6e89 19bf dff2 65be
00000110: 4b6b 50bd d2e2 503d 9db7 523d 24cc 323c
00000120: 80ba 523d ba16 4b3d 28cb 27be 8e1e 42be
00000130: b39b a2be 003c 513d 1761 0f3d 550f 303d
00000140: 1904 6bbd b7b7 4f3d ed68 53be e1f1 9ebe
00000150: 858f 4f3d fff1 113d 1851 813c a622 503d
00000160: 86d5 56bd e7fb 523d d872 52bd 4310 26bf
00000170: aa43 11bf 859b 4fbd 6a9d 66bd 1080 1dbe
00000180: 4e56 b73d dd38 513d 01da eebe 64c2 f1be

variational_strategy._variational_distribution.chol_variational_covar f4 [100, 100]
0.9724532 0.0 0.0 0.0 0.0 0.0 0.0 0.0
0.0 0.0 0.0 0.0 0.0 0.0 0.0 0.0
0.0 0.0 0.0 0.0 0.0 0.0 0.0 0.0
0.0 0.0 0.0 0.0 0.0 0.0 0.0 0.0
0.0 0.0 0.0 0.0 0.0 0.0 0.0 0.0
0.0 0.0 0.0 0.0 0.0 0.0 0.0 0.0
0.0 0.0 0.0 0.0 0.0 0.0 0.0 0.0
0.0 0.0 0.0 0.0 0.0 0.0 0.0 0.0
0.0 0.0 0.0 0.0 0.0 0.0 0.0 0.0
0.0 0.0 0.0 0.0 0.0 0.0 0.0 0.0
0.0 0.0 0.0 0.0 0.0 0.0 0.0 0.0
0.0 0.0 0.0 0.0 0.0 0.0 0.0 0.0
0.0 0.0 0.0 0.0 0.0 0.98896414 0.0 0.0
0.0 0.0 0.0 0.0 0.0 0.0 0.0 0.0
0.0 0.0 0.0 0.0 0.0 0.0 0.0 0.0
0.0 0.0 0.0 0.0 0.0 0.0 0.0 0.0
0.0 0.0 0.0 0.0 0.0 0.0 0.0 0.0
0.0 0.0 0.0 0.0 0.0 0.0 0.0 0.0
0.0 0.0 0.0 0.0 0.0 0.0 0.0 0.0
0.0 0.0 0.0 0.0 0.0 0.0 0.0 0.0
0.0 0.0 0.0 0.0 0.0 0.0 0.0 0.0
0.0 0.0 0.0 0.0 0.0 0.0 0.0 0.0
0.0 0.0 0.0 0.0 0.0 0.0 0.0 0.0
0.0 0.0 0.0 0.0 0.0 0.0 0.0 0.0
0.0 0.0 0.0 0.0 0.0 0.0 0.0 0.0
0.0 0.0 0.93900293 0.0 0.0 0.0 0.0 0.0
0.0 0.0 0.0 0.0 0.0 0.0 0.0 0.0
0.0 0.0 0.0 0.0 0.0 0.0 0.0 0.0
0.0 0.0 0.0 0.0 0.0 0.0 0.0 0.0
0.0 0.0 0.0 0.0 0.0 0.0 0.0 0.0
0.0 0.0 0.0 0.0 0.0 0.0 0.0 0.0
0.0 0.0 0.0 0.0 0.0 0.0 0.0 0.0
00000000: b1f2 783f 0000 0000 0000 0000 0000 0000
00000010: 0000 0000 0000 0000 0000 0000 0000 0000
00000020: 0000 0000 0000 0000 0000 0000 0000 0000
00000030: 0000 0000 0000 0000 0000 0000 0000 0000
00000040: 0000 0000 0000 0000 0000 0000 0000 0000
00000050: 0000 0000 0000 0000 0000 0000 0000 0000
00000060: 0000 0000 0000 0000 0000 0000 0000 0000
00000070: 0000 0000 0000 0000 0000 0000 0000 0000
00000080: 0000 0000 0000 0000 0000 0000 0000 0000
00000090: 0000 0000 0000 0000 0000 0000 0000 0000
000000a0: 0000 0000 0000 0000 0000 0000 0000 0000
000000b0: 0000 0000 0000 0000 0000 0000 0000 0000
000000c0: 0000 0000 0000 0000 0000 0000 0000 0000
000000d0: 0000 0000 0000 0000 0000 0000 0000 0000
000000e0: 0000 0000 0000 0000 0000 0000 0000 0000
000000f0: 0000 0000 0000 0000 0000 0000 0000 0000
00000100: 0000 0000 0000 0000 0000 0000 0000 0000
00000110: 0000 0000 0000 0000 0000 0000 0000 0000
00000120: 0000 0000 0000 0000 0000 0000 0000 0000
00000130: 0000 0000 0000 0000 0000 0000 0000 0000
00000140: 0000 0000 0000 0000 0000 0000 0000 0000
00000150: 0000 0000 0000 0000 0000 0000 0000 0000
00000160: 0000 0000 0000 0000 0000 0000 0000 0000
00000170: 0000 0000 0000 0000 0000 0000 0000 0000
00000180: 0000 0000 0000 0000 0000 0000 0000 0000
00000190: 0000 0000 c12c 7d3f 0000 0000 0000 0000
000001a0: 0000 0000 0000 0000 0000 0000 0000 0000
000001b0: 0000 0000 0000 0000 0000 0000 0000 0000
000001c0: 0000 0000 0000 0000 0000 0000 0000 0000
000001d0: 0000 0000 0000 0000 0000 0000 0000 0000
000001e0: 0000 0000 0000 0000 0000 0000 0000 0000
000001f0: 0000 0000 0000 0000 0000 0000 0000 0000
00000200: 0000 0000 0000 0000 0000 0000 0000 0000
00000210: 0000 0000 0000 0000 0000 0000 0000 0000
00000220: 0000 0000 0000 0000 0000 0000 0000 0000
00000230: 0000 0000 0000 0000 0000 0000 0000 0000
00000240: 0000 0000 0000 0000 0000 0000 0000 0000
00000250: 0000 0000 0000 0000 0000 0000 0000 0000
00000260: 0000 0000 0000 0000 0000 0000 0000 0000
00000270: 0000 0000 0000 0000 0000 0000 0000 0000
00000280: 0000 0000 0000 0000 0000 0000 0000 0000
00000290: 0000 0000 0000 0000 0000 0000 0000 0000
000002a0: 0000 0000 0000 0000 0000 0000 0000 0000
000002b0: 0000 0000 0000 0000 0000 0000 0000 0000
000002c0: 0000 0000 0000 0000 0000 0000 0000 0000
000002d0: 0000 0000 0000 0000 0000 0000 0000 0000
000002e0: 0000 0000 0000 0000 0000 0000 0000 0000
000002f0: 0000 0000 0000 0000 0000 0000 0000 0000
00000300: 0000 0000 0000 0000 0000 0000 0000 0000
00000310: 0000 0000 0000 0000 0000 0000 0000 0000
00000320: 0000 0000 0000 0000 7f62 703f 0000 0000
00000330: 0000 0000 0000 0000 0000 0000 0000 0000
00000340: 0000 0000 0000 0000 0000 0000 0000 0000
00000350: 0000 0000 0000 0000 0000 0000 0000 0000
00000360: 0000 0000 0000 0000 0000 0000 0000 0000
00000370: 0000 0000 0000 0000 0000 0000 0000 0000
00000380: 0000 0000 0000 0000 0000 0000 0000 0000
00000390: 0000 0000 0000 0000 0000 0000 0000 0000
000003a0: 0000 0000 0000 0000 0000 0000 0000 0000
000003b0: 0000 0000 0000 0000 0000 0000 0000 0000
000003c0: 0000 0000 0000 0000 0000 0000 0000 0000
000003d0: 0000 0000 0000 0000 0000 0000 0000 0000
000003e0: 0000 0000 0000 0000 0000 0000 0000 0000
000003f0: 0000 0000 0000 0000 0000 0000 0000 0000

cov.base_kernel.raw_lengthscale f4 [1, 2]
0.8703707 0.59025556
00000000: 9dd0 5e3f fd1a 173f
