slam/rbpf_slam/data/old_results/particle_gp_model/particle4.pth (torch, 44880 bytes, 4 tensors)

variational_strategy.inducing_points f4 [100, 2]
0	0xc2c55beb	-98.67953
1	0xc3859893	-267.192
2	0xc2b9852f	-92.760124
3	0xc3a78936	-335.07196
4	0xc2ebadb9	-117.8393
5	0xc3b5c6a0	-363.55176
6	0xc2bb49cc	-93.644135
7	0xc3a430fd	-328.38272
8	0xc333c75e	-179.77878
9	0xc3bb45c0	-374.54492
10	0xc16282c7	-14.156928
11	0xc3937546	-294.9162
12	0xc33fa53e	-191.64548
13	0xc3e3fcb7	-455.97433
14	0xc29e7693	-79.23159
15	0xc3ad68f4	-346.81995
16	0xc2833c2f	-65.617546
17	0xc3ae93dc	-349.15515
18	0xc34c1580	-204.08398
19	0xc3ad73f4	-346.90588
20	0xc2a6520e	-83.16026
21	0xc395c399	-299.5281
22	0xc2af8f36	-87.77971
23	0xc3a07cee	-320.976
24	0xc307b5ca	-135.71011
25	0xc3a823ac	-336.2787
26	0xc25822fc	-54.034164
27	0xc38bec57	-279.8464
28	0xc2e36224	-113.69168
29	0xc3a15616	-322.67255
30	0xc3138c95	-147.54915
31	0xc3929ad1	-293.2095
32	0x41960161	18.750673
33	0xc38a2219	-276.2664
34	0xc31b3955	-155.22395
35	0xc3d61cb1	-428.22415
36	0xc2e619b2	-115.050186
37	0xc39eb9ff	-317.4531
38	0xc307218c	-135.13104
39	0xc3a6c86d	-333.56583
40	0xc2feba91	-127.36439
41	0xc3aa52b6	-340.64618
42	0xc28e5303	-71.16213
43	0xc3c8e23b	-401.76743
44	0xc2df5dfa	-111.68355
45	0xc3867564	-268.9171
46	0x4241b9c7	48.431423
47	0xc39d5051	-314.62747
48	0xc19fefbd	-19.99206
49	0xc3acbaa8	-345.45825
50	0xc11091c2	-9.035585
51	0xc39ecb35	-317.58755
52	0xc30d4a6e	-141.29074
53	0xc3be92e4	-381.14758
54	0xc301945d	-129.57954
55	0xc3be8bca	-381.0921
56	0xc34ff045	-207.93855
57	0xc3f396cc	-487.1781
58	0x4291b735	72.85783
59	0xc3a01ace	-320.2094
60	0xc34d59d7	-205.35094
61	0xc3abcc41	-343.59573
62	0xc2e41ba6	-114.054
63	0xc39bfa7a	-311.95685
64	0xc2a2b990	-81.36243
65	0xc3ba22c1	-372.2715
66	0xc3032b5a	-131.16934
67	0xc3bd36a2	-378.42682
68	0x428a8133	69.25234
69	0xc3ca7110	-404.8833
70	0xc2ac0d42	-86.025894
71	0xc3a3cb50	-327.58838
72	0xc33fd3fb	-191.82805
73	0xc40640b8	-537.0112
74	0xc3681fd2	-232.1243
75	0xc3b178a1	-354.9424
76	0x41d800a8	27.00032
77	0xc3d34fc2	-422.6231
78	0xc2bd528a	-94.66121
79	0xc3af7bfe	-350.9687
80	0xc2ab50c8	-85.657776
81	0xc368c83a	-232.78214
82	0xc32b8a79	-171.54091
83	0xc3abf203	-343.89072
84	0xc3010d78	-129.05261
85	0xc402a9a7	-522.6508
86	0xc245ee8f	-49.482967
87	0xc39f626d	-318.76895
88	0xc2eb468e	-117.6378
89	0xc38a06fd	-276.0546
90	0xc25b8898	-54.883392
91	0xc3bbbaba	-375.4588
92	0xc297f222	-75.972916
93	0xc3ac61e7	-344.76486
94	0xc1ba57c2	-23.29285
95	0xc392f4e6	-293.91327
96	0x4212139c	36.51915
97	0xc3c9419e	-402.51263
98	0xc30432bb	-132.19817
99	0xc3f7b05a	-495.37775
100	0xc2c8047b	-100.00875
101	0xc3774b85	-247.295
102	0xc2a1092d	-80.51792
103	0xc3a49df4	-329.234
104	0xc2cbff2d	-101.99839
105	0xc339aff7	-185.68736
106	0xc2f683fd	-123.25779
107	0xc3a14e66	-322.6125
108	0x3f844c82	1.0335848
109	0xc3c0c22a	-385.5169
110	0xc2d5a48b	-106.82137
111	0xc3db5806	-438.68768
112	0xc28d16e1	-70.544685
113	0xc3b28680	-357.05078
114	0xc31b777b	-155.46672
115	0xc3af9da5	-351.2316
116	0x3f201ccf	0.6254396
117	0xc3e0ce30	-449.61084
118	0xc30ee55b	-142.89592
119	0xc3c6c6f9	-397.55447
120	0xc2b8f0e7	-92.47051
121	0xc39acfad	-309.62247
122	0xc2e0d925	-112.42411
123	0xc3f80145	-496.00992
124	0xc32a7c96	-170.48666
125	0xc3eab96d	-469.44864
126	0xc2fdf601	-126.98048
127	0xc3b35ab6	-358.70868
128	0xc28e7255	-71.223305
129	0xc393c4d5	-295.53775
130	0xc28ee557	-71.44793
131	0xc3b74e3f	-366.6113
132	0xc2ff70b8	-127.72015
133	0xc3dc3b8f	-440.4653
134	0xc28eaf68	-71.34259
135	0xc3a634ff	-332.41403
136	0x4259e5b4	54.47432
137	0xc3612c84	-225.17389
138	0xc2182a92	-38.041573
139	0xc38480c3	-265.00595
140	0xc32e5e9c	-174.36957
141	0xc3a9f2ee	-339.8979
142	0xc3530ca5	-211.0494
143	0xc3be3e28	-380.4856
144	0xc30db3ec	-141.70282
145	0xc3ac9a8f	-345.2075
146	0xc2e8f131	-116.47108
147	0xc39339b9	-294.45096
148	0xc25576a9	-53.36588
149	0xc3a36b6d	-326.83926
150	0xc2ac7be8	-86.242004
151	0xc348bd2a	-200.73892
152	0xc2d2aa5a	-105.33272
153	0xc39faf53	-319.36972
154	0xc2dd8b5e	-110.7722
155	0xc3e8fac4	-465.9591
156	0xc34c518f	-204.31859
157	0xc3bff4dd	-383.913
158	0xc2c13660	-96.6062
159	0xc36c17f8	-236.09363
160	0xc3533d28	-211.23889
161	0xc3a4b3ea	-329.40558
162	0xc313f6d6	-147.9642
163	0xc37dedae	-253.92844
164	0xc2d319a3	-105.55007
165	0xc390654a	-288.79132
166	0xc29cb8d7	-78.361015
167	0xc3aaa1bd	-341.26358
168	0xc02c8cd0	-2.6960945
169	0xc399d262	-307.64362
170	0x424e9952	51.649727
171	0xc394d153	-297.63535
172	0xc29c25ae	-78.07359
173	0xc3a15548	-322.66626
174	0xc300d7ef	-128.84349
175	0xc3a0b16f	-321.3862
176	0x421fc5a7	39.94302
177	0xc3b588a8	-363.06763
178	0xc3806adc	-256.83484
179	0xc3b6d7b8	-365.6853
180	0xc2d49d2b	-106.30697
181	0xc3bf64e9	-382.78836
182	0xc2be302d	-95.09409
183	0xc3b687a1	-365.0596
184	0xc2ad64e4	-86.69705
185	0xc3abc658	-343.54956
186	0xc2bebac7	-95.3648
187	0xc3b9cf76	-371.6208
188	0xc3041808	-132.09387
189	0xc3a2544f	-324.65866
190	0xc2bb142e	-93.53941
191	0xc389b163	-275.38583
192	0xc306827d	-134.50972
193	0xc3c28fb5	-389.1227
194	0xc33877fd	-184.4687
195	0xc3a9afd8	-339.37378
196	0x42931492	73.54018
197	0xc3bd0e46	-378.1115
198	0xc2d846a9	-108.13801
199	0xc38a9d8f	-277.23093

variational_strategy._variational_distribution.variational_mean f4 [100]
0	0xbe8b1b17	-0.27169105
1	0xbefab472	-0.48965794
2	0xbe15cede	-0.14629695
3	0xbf01ffce	-0.5078095
4	0xbdeb0b8d	-0.114768125
5	0xbd50dea4	-0.050993577
6	0xbd526382	-0.05136443
7	0xbecb085f	-0.39654824
8	0xbe787744	-0.24264246
9	0x3d973962	0.07383992
10	0x3d252c17	0.04032525
11	0xbe4d88ec	-0.20071763
12	0xbdf101e8	-0.11767942
13	0xbed9024c	-0.42384565
14	0xbe51fb34	-0.20505983
15	0xbdb42b0f	-0.08797275
16	0xbdb4e922	-0.08833529
17	0xbe17c6ac	-0.14821881
18	0xbf1c9a42	-0.6117288
19	0xbe51d2f6	-0.20490631
20	0xbeee1463	-0.4649993
21	0xbe19abdb	-0.15006964
22	0xbbd817d0	-0.0065946355
23	0x3cc540e6	0.024078798
24	0xbe10112d	-0.14069052
25	0xbdc085f3	-0.09400549
26	0xbe81eb45	-0.2537481
27	0xbda9217d	-0.082583405
28	0xbd52249d	-0.05130445
29	0xbd52709d	-0.051376928
30	0xbedba572	-0.42899662
31	0x3cb0de62	0.021590415
32	0xbeb53207	-0.3538973
33	0xbd6abfde	-0.057311885
34	0x3d507b46	0.050898813
35	0xbe8983b6	-0.268583
36	0x3d4a5c10	0.049404204
37	0x3d524930	0.05133933
38	0x3d4f998e	0.05068355
39	0xbf15ae0e	-0.5846871
40	0x3d52adb5	0.05143519
41	0xbd611fae	-0.054961853
42	0xbefd127a	-0.4942816
43	0x3d51f90a	0.051262893
44	0xbd33b7e2	-0.043876536
45	0x3b7638e0	0.0037570521
46	0xbe6197a2	-0.220305
47	0xbd527169	-0.051377688
48	0x3cc23dc2	0.023711089
49	0xbe27c6e8	-0.1638447
50	0x3c296c5b	0.010340775
51	0xbedad36f	-0.42739436
52	0xbdb093b1	-0.0862192
53	0xbe2d2f6a	-0.16912618
54	0x3d515743	0.05110861
55	0xbe0d3d71	-0.1379297
56	0xbe1c0776	-0.15237221
57	0xbe2d9bb6	-0.1695393
58	0xbd4f50cf	-0.050614174
59	0xbd5168a3	-0.05112518
60	0xbe2ca0a3	-0.16858153
61	0xbeb9fd94	-0.36326277
62	0xbf13caf1	-0.5773154
63	0xbd8fe9de	-0.070270285
64	0x3d84d0a1	0.06485105
65	0xbe3de76c	-0.18545312
66	0xbed2acf3	-0.41147575
67	0xbed60694	-0.41801894
68	0x3d4d29df	0.05008876
69	0xbd4d3391	-0.050098006
70	0xbe81e1d9	-0.2536762
71	0xbea0341b	-0.31289753
72	0xbe2384fc	-0.15968698
73	0xbee0cad1	-0.43904737
74	0xbda3df76	-0.08001606
75	0xbd5257c6	-0.05135324
76	0x3daf90d9	0.085725494
77	0xbddc86ab	-0.107678734
78	0xbd512255	-0.051058132
79	0xbce593ec	-0.028024636
80	0xbd3c66c0	-0.045996428
81	0xbd91025f	-0.070805304
82	0xbecbd689	-0.39812115
83	0xbec2a8ee	-0.38019508
84	0xbd97c741	-0.074110515
85	0xbd6c5d5f	-0.057706233
86	0xbee0b988	-0.4389155
87	0xbd4aba14	-0.049493864
88	0xbd4f2311	-0.05057055
89	0x3d50c634	0.05097027
90	0xbd536c62	-0.051617034
91	0xbdc77146	-0.09738402
92	0xbe9f8946	-0.3115942
93	0x3d2a31e8	0.0415515
94	0xbea029ff	-0.3128204
95	0xbe7665b6	-0.24062237
96	0x3d527000	0.051376343
97	0xbdf7d0f7	-0.12100404
98	0xbd523f06	-0.051329635
99	0xbeb6fcc9	-0.35739735

variational_strategy._variational_distribution.chol_variational_covar f4 [100, 100]
0	0x3f6ac15c	0.91701293
1	0x00000000	0.0
2	0x00000000	0.0
3	0x00000000	0.0
4	0x00000000	0.0
5	0x00000000	0.0
6	0x00000000	0.0
7	0x00000000	0.0
8	0x00000000	0.0
9	0x00000000	0.0
10	0x00000000	0.0
11	0x00000000	0.0
12	0x00000000	0.0
13	0x00000000	0.0
14	0x00000000	0.0
15	0x00000000	0.0
16	0x00000000	0.0
17	0x00000000	0.0
18	0x00000000	0.0
19	0x00000000	0.0
20	0x00000000	0.0
21	0x00000000	0.0
22	0x00000000	0.0
23	0x00000000	0.0
24	0x00000000	0.0
25	0x00000000	0.0
26	0x00000000	0.0
27	0x00000000	0.0
28	0x00000000	0.0
29	0x00000000	0.0
30	0x00000000	0.0
31	0x00000000	0.0
32	0x00000000	0.0
33	0x00000000	0.0
34	0x00000000	0.0
35	0x00000000	0.0
36	0x00000000	0.0
37	0x00000000	0.0
38	0x00000000	0.0
39	0x00000000	0.0
40	0x00000000	0.0
41	0x00000000	0.0
42	0x00000000	0.0
43	0x00000000	0.0
44	0x00000000	0.0
45	0x00000000	0.0
46	0x00000000	0.0
47	0x00000000	0.0
48	0x00000000	0.0
49	0x00000000	0.0
50	0x00000000	0.0
51	0x00000000	0.0
52	0x00000000	0.0
53	0x00000000	0.0
54	0x00000000	0.0
55	0x00000000	0.0
56	0x00000000	0.0
57	0x00000000	0.0
58	0x00000000	0.0
59	0x00000000	0.0
60	0x00000000	0.0
61	0x00000000	0.0
62	0x00000000	0.0
63	0x00000000	0.0
64	0x00000000	0.0
65	0x00000000	0.0
66	0x00000000	0.0
67	0x00000000	0.0
68	0x00000000	0.0
69	0x00000000	0.0
70	0x00000000	0.0
71	0x00000000	0.0
72	0x00000000	0.0
73	0x00000000	0.0
74	0x00000000	0.0
75	0x00000000	0.0
76	0x00000000	0.0
77	0x00000000	0.0
78	0x00000000	0.0
79	0x00000000	0.0
80	0x00000000	0.0
81	0x00000000	0.0
82	0x00000000	0.0
83	0x00000000	0.0
84	0x00000000	0.0
85	0x00000000	0.0
86	0x00000000	0.0
87	0x00000000	0.0
88	0x00000000	0.0
89	0x00000000	0.0
90	0x00000000	0.0
91	0x00000000	0.0
92	0x00000000	0.0
93	0x00000000	0.0
94	0x00000000	0.0
95	0x00000000	0.0
96	0x00000000	0.0
97	0x00000000	0.0
98	0x00000000	0.0
99	0x00000000	0.0
100	0x00000000	0.0
101	0x3f725da9	0.94674164
102	0x00000000	0.0
103	0x00000000	0.0
104	0x00000000	0.0
105	0x00000000	0.0
106	0x00000000	0.0
107	0x00000000	0.0
108	0x00000000	0.0
109	0x00000000	0.0
110	0x00000000	0.0
111	0x00000000	0.0
112	0x00000000	0.0
113	0x00000000	0.0
114	0x00000000	0.0
115	0x00000000	0.0
116	0x00000000	0.0
117	0x00000000	0.0
118	0x00000000	0.0
119	0x00000000	0.0
120	0x00000000	0.0
121	0x00000000	0.0
122	0x00000000	0.0
123	0x00000000	0.0
124	0x00000000	0.0
125	0x00000000	0.0
126	0x00000000	0.0
127	0x00000000	0.0
128	0x00000000	0.0
129	0x00000000	0.0
130	0x00000000	0.0
131	0x00000000	0.0
132	0x00000000	0.0
133	0x00000000	0.0
134	0x00000000	0.0
135	0x00000000	0.0
136	0x00000000	0.0
137	0x00000000	0.0
138	0x00000000	0.0
139	0x00000000	0.0
140	0x00000000	0.0
141	0x00000000	0.0
142	0x00000000	0.0
143	0x00000000	0.0
144	0x00000000	0.0
145	0x00000000	0.0
146	0x00000000	0.0
147	0x00000000	0.0
148	0x00000000	0.0
149	0x00000000	0.0
150	0x00000000	0.0
151	0x00000000	0.0
152	0x00000000	0.0
153	0x00000000	0.0
154	0x00000000	0.0
155	0x00000000	0.0
156	0x00000000	0.0
157	0x00000000	0.0
158	0x00000000	0.0
159	0x00000000	0.0
160	0x00000000	0.0
161	0x00000000	0.0
162	0x00000000	0.0
163	0x00000000	0.0
164	0x00000000	0.0
165	0x00000000	0.0
166	0x00000000	0.0
167	0x00000000	0.0
168	0x00000000	0.0
169	0x00000000	0.0
170	0x00000000	0.0
171	0x00000000	0.0
172	0x00000000	0.0
173	0x00000000	0.0
174	0x00000000	0.0
175	0x00000000	0.0
176	0x00000000	0.0
177	0x00000000	0.0
178	0x00000000	0.0
179	0x00000000	0.0
180	0x00000000	0.0
181	0x00000000	0.0
182	0x00000000	0.0
183	0x00000000	0.0
184	0x00000000	0.0
185	0x00000000	0.0
186	0x00000000	0.0
187	0x00000000	0.0
188	0x00000000	0.0
189	0x00000000	0.0
190	0x00000000	0.0
191	0x00000000	0.0
192	0x00000000	0.0
193	0x00000000	0.0
194	0x00000000	0.0
195	0x00000000	0.0
196	0x00000000	0.0
197	0x00000000	0.0
198	0x00000000	0.0
199	0x00000000	0.0
200	0x00000000	0.0
201	0x394da3ab	0.00019611295
202	0x3f83db2c	1.0301261
203	0x00000000	0.0
204	0x00000000	0.0
205	0x00000000	0.0
206	0x00000000	0.0
207	0x00000000	0.0
208	0x00000000	0.0
209	0x00000000	0.0
210	0x00000000	0.0
211	0x00000000	0.0
212	0x00000000	0.0
213	0x00000000	0.0
214	0x00000000	0.0
215	0x00000000	0.0
216	0x00000000	0.0
217	0x00000000	0.0
218	0x00000000	0.0
219	0x00000000	0.0
220	0x00000000	0.0
221	0x00000000	0.0
222	0x00000000	0.0
223	0x00000000	0.0
224	0x00000000	0.0
225	0x00000000	0.0
226	0x00000000	0.0
227	0x00000000	0.0
228	0x00000000	0.0
229	0x00000000	0.0
230	0x00000000	0.0
231	0x00000000	0.0
232	0x00000000	0.0
233	0x00000000	0.0
234	0x00000000	0.0
235	0x00000000	0.0
236	0x00000000	0.0
237	0x00000000	0.0
238	0x00000000	0.0
239	0x00000000	0.0
240	0x00000000	0.0
241	0x00000000	0.0
242	0x00000000	0.0
243	0x00000000	0.0
244	0x00000000	0.0
245	0x00000000	0.0
246	0x00000000	0.0
247	0x00000000	0.0
248	0x00000000	0.0
249	0x00000000	0.0
250	0x00000000	0.0
251	0x00000000	0.0
252	0x00000000	0.0
253	0x00000000	0.0
254	0x00000000	0.0
255	0x00000000	0.0

cov.base_kernel.raw_lengthscale f4 [1, 2]
0	0x3f4687ae	0.7755078
1	0x3e2a3cbb	0.1662473
