slam/rbpf_slam/data/old_results/particle_gp_model/particle6.pth (torch, 44880 bytes, 4 tensors)

variational_strategy.inducing_points f4 [100, 2]
-180.42484 -333.24042 19.01581 -455.62772 -124.248276 -286.53265 -92.4859 -351.55295
-56.36164 -270.63306 -184.48067 -348.89246 -2.8615766 -410.60355 -70.64682 -290.95218
-36.461903 -399.21933 -197.40738 -346.2657 -34.467045 -431.29938 22.802181 -271.98065
-8.6341505 -434.17157 -91.90576 -341.4951 -83.7717 -394.4878 -114.67141 -302.27066
-4.4633107 -375.19174 -193.97086 -450.57983 47.49124 -364.7899 68.87394 -423.9398
-237.00804 -389.22852 -82.85757 -297.96344 -87.05425 -300.34262 -72.707214 -296.67862
124.24729 -286.65237 -117.287895 -306.9343 -27.730291 -409.93848 -31.185442 -401.42313
-81.65162 -464.9163 -113.51679 -468.30002 -15.273136 -399.85535 -138.77324 -351.56876
-75.63013 -251.26543 -66.37705 -372.59845 -106.46168 -408.96097 -70.67118 -271.0982
-46.106068 -352.03333 -52.37151 -318.88583 -47.050385 -387.48062 -156.84586 -500.0643
-91.8398 -462.7946 -67.17677 -325.5494 -114.60317 -278.42676 -97.83573 -356.86392
-84.24085 -392.51093 -198.46931 -339.54633 -49.20418 -235.99158 -11.626683 -345.87936
36.161556 -362.61874 -192.61562 -330.6091 -126.49758 -279.42557 -108.706314 -284.27963
-94.90485 -374.4731 -96.74673 -293.5863 -140.2332 -515.70374 14.681122 -471.95844
-94.71429 -437.7202 -108.475044 -313.06143 102.08255 -367.13196 -126.28965 -418.1693
-18.377932 -480.71094 -117.98387 -350.63568 -49.711468 -387.6062 -60.90208 -305.3469
-142.63234 -358.42786 -13.1943445 -195.33685 -80.472664 -384.36197 112.17591 -262.7219
-92.15561 -185.64894 -262.76917 -409.95758 -40.174408 -395.00534 -82.89686 -288.59912
-129.26764 -305.94525 13.379071 -318.25327 -128.53882 -316.8852 -147.07257 -330.78738
-77.04133 -319.78864 -186.8452 -353.01425 -144.91519 -362.97363 -139.4567 -502.83466
-90.122925 -428.20306 -156.95111 -372.94656 -124.360664 -349.72092 -14.9326105 -399.51477
-112.938034 -313.74948 -198.10405 -437.33334 -126.72927 -361.7374 -61.854797 -357.9009
27.598751 -306.58917 -113.302574 -386.63907 -82.429184 -336.2085 -92.50146 -261.60144
-141.46564 -375.07657 -17.263262 -397.56293 37.406002 -483.6885 -41.35887 -520.6154
-26.545208 -419.1415 -84.66428 -363.8949 -130.27899 -399.3426 8.762789 -319.09775
00000000: c26c 34c3 c69e a6c3 6120 9841 59d0 e3c3
00000010: 1e7f f8c2 2e44 8fc3 c8f8 b8c2 c7c6 afc3
00000020: 5272 61c2 0851 87c3 0d7b 38c3 3c72 aec3
00000030: 1224 37c0 414d cdc3 2c4b 8dc2 e179 91c3
00000040: fdd8 11c2 139c c7c3 4a68 45c3 0222 adc3
00000050: 41de 09c2 52a6 d7c3 de6a b641 86fd 87c3
00000060: 7b25 0ac1 f615 d9c3 c0cf b7c2 5fbf aac3
00000070: 1c8b a7c2 703e c5c3 c357 e5c2 a522 97c3
00000080: 71d3 8ec0 8b98 bbc3 8af8 41c3 384a e1c3
00000090: 08f7 3d42 1b65 b6c3 75bf 8942 4bf8 d3c3
000000a0: 0f02 6dc3 409d c2c3 13b7 a5c2 52fb 94c3
000000b0: c71b aec2 db2b 96c3 186a 91c2 dd56 94c3
000000c0: 9d7e f842 8153 8fc3 6793 eac2 9777 99c3
000000d0: a3d7 ddc1 20f8 ccc3 c97b f9c1 29b6 c8c3
000000e0: a14d a3c2 4975 e8c3 9908 e3c2 6726 eac3
000000f0: c45e 74c1 7ced c7c3 f3c5 0ac3 cdc8 afc3
00000100: a042 97c2 f343 7bc3 0dc1 84c2 9a4c bac3
00000110: 61ec d4c2 017b ccc3 a557 8dc2 928c 87c3
00000120: 9d6c 38c2 4404 b0c3 6d7c 51c2 6371 9fc3
00000130: 9833 3cc2 85bd c1c3 8ad8 1cc3 3b08 fac3
00000140: faad b7c2 b565 e7c3 825a 86c2 53c6 a2c3
00000150: d334 e5c2 a036 8bc3 e5ab c3c2 956e b2c3
00000160: 517b a8c2 6641 c4c3 2578 46c3 eec5 a9c3
00000170: 15d1 44c2 d8fd 6bc3 e506 3ac1 8ff0 acc3
00000180: 6fa5 1042 334f b5c3 999d 40c3 f74d a5c3
00000190: c3fe fcc2 79b6 8bc3 a269 d9c2 cb23 8ec3
000001a0: 48cf bdc2 8f3c bbc3 537e c1c2 0ccb 92c3
000001b0: b33b 0cc3 0aed 00c4 e0e5 6a41 aefa ebc3
000001c0: b76d bdc2 30dc dac3 39f3 d8c2 dd87 9cc3
000001d0: 442a cc42 e490 b7c3 4d94 fcc2 ac15 d1c3
000001e0: 0106 93c1 005b f0c3 bef7 ebc2 5e51 afc3
000001f0: 8bd8 46c2 98cd c1c3 bb9b 73c2 67ac 98c3
00000200: e1a1 0ec3 c436 b3c3 091c 53c1 3c56 43c3
00000210: 01f2 a0c2 552e c0c3 115a e042 675c 83c3
00000220: ac4f b8c2 21a6 39c3 7462 83c3 92fa ccc3
00000230: 98b2 20c2 af80 c5c3 31cb a5c2 b04c 90c3
00000240: 8444 01c3 fef8 98c3 ad10 5641 6b20 9fc3
00000250: f089 00c3 4e71 9ec3 9412 13c3 c964 a5c3
00000260: 2915 9ac2 f2e4 9fc3 5fd8 3ac3 d381 b0c3
00000270: 4aea 10c3 a07c b5c3 ea74 0bc3 d66a fbc3
00000280: f03e b4c2 fe19 d6c3 7cf3 1cc3 2979 bac3
00000290: a9b8 f8c2 47dc aec3 f9eb 6ec1 e4c1 c7c3
000002a0: 46e0 e1c2 efdf 9cc3 a31a 46c3 abaa dac3
000002b0: 6375 fdc2 63de b4c3 506b 77c2 51f3 b2c3
000002c0: 3eca dc41 6a4b 99c3 eb9a e2c2 cd51 c1c3
000002d0: bedb a4c2 b01a a8c3 bf00 b9c2 fccc 82c3
000002e0: 3477 0dc3 cd89 bbc3 291b 8ac1 0ec8 c6c3
000002f0: bf9f 1542 21d8 f1c3 7c6f 25c2 6327 02c4
00000300: 965c d4c1 1d92 d1c3 1d54 a9c2 8cf2 b5c3
00000310: 6c47 02c3 daab c7c3 6234 0c41 838c 9fc3

variational_strategy._variational_distribution.variational_mean f4 [100]
-0.22709282 0.05041353 -0.06966687 -0.20505726 0.051347364 -0.39211166 0.050603297 -0.26796973
-0.13453907 -0.33179593 0.051142406 -0.12787011 -0.13587378 -0.42460135 0.007971279 -0.26460677
-0.050446726 -0.43512818 -0.102078766 0.05048719 -0.1527846 0.048011173 -0.051366113 -0.13405833
-0.05054831 -0.2877895 0.006306637 -0.051265366 -0.09100341 -0.049464755 -0.13736193 -0.1582869
-0.13343179 -0.14799558 -0.12177093 -0.115258366 -0.1694942 0.058267277 -0.050457243 0.040034987
0.05091139 -0.29205543 -0.13985306 -0.14797562 -0.07828481 -0.41350973 -0.24242872 0.049770836
-0.1834323 0.0047755055 -0.40070087 0.04459273 -0.0593587 0.051057544 0.050196756 -0.061104164
0.051026113 -0.43338826 -0.051329292 -0.12719351 -0.051025506 -0.1645424 -0.05015274 -0.16841722
-0.24348877 0.051115677 -0.051294927 -0.051217638 -0.05069207 0.04712157 -0.25002 -0.2404747
-0.29683748 -0.36319214 -0.38613367 -0.19373426 -0.48398682 -0.19171439 -0.29510334 -0.051304635
0.05030766 -0.050510246 -0.3044525 -0.07652522 -0.4415058 -0.04854456 -0.2143529 0.0409472
0.051263254 -0.13236028 -0.6613875 -0.043198504 -0.2633408 -0.18077569 -0.051340688 -0.050906777
-0.027290244 -0.22596829 0.05134 -0.20856336
00000000: 058b 68be 6b7e 4e3d 81ad 8ebd 88fa 51be
00000010: 9d51 523d dcc2 c8be 6745 4f3d 5433 89be
00000020: 9cc4 09be 28e1 a9be b37a 513d 62f0 02be
00000030: 7f22 0bbe 5965 d9be f899 023c 8a7a 87be
00000040: 3aa1 4ebd 1fc9 debe ac0e d1bd a8cb 4e3d
00000050: 9173 1cbe 5da7 443d 4665 52bd 9646 09be
00000060: bf0b 4fbd 2559 93be e8a7 ce3b a2fb 51bd
00000070: ff5f babd 8e9b 4abd 9ba8 0cbe f615 22be
00000080: 58a2 08be 278c 17be 0a63 f9bd 940c ecbd
00000090: e38f 2dbe aba9 6e3d 41ac 4ebd bafb 233d
000000a0: 7688 503d 4a88 95be a435 0fbe ec86 17be
000000b0: c953 a0bd 8cb7 d3be 3c3f 78be 81dc 4b3d
000000c0: add5 3bbe d87b 9c3b aa28 cdbe dea6 363d
000000d0: 1c22 73bd b721 513d 1d9b 4d3d 5c48 7abd
000000e0: c200 513d 11e5 ddbe aa3e 52bd 043f 02be
000000f0: 1f00 51bd ce7d 28be f66c 4dbd 9075 2cbe
00000100: 1f55 79be ac5e 513d a11a 52bd 96c9 51bd
00000110: 7da2 4fbd 8c02 413d 9f02 80be 003f 76be
00000120: 15fb 97be 52f4 b9be 50b3 c5be 4662 46be
00000130: 1fcd f7be c750 44be c917 97be cf24 52bd
00000140: 680f 4e3d d5e3 4ebd 33e1 9bbe 41b9 9cbd
00000150: 0c0d e2be a9d6 46bd 547f 5bbe 40b8 273d
00000160: 6bf9 513d 7489 07be b150 29bf eaf0 30bd
00000170: 9bd4 86be 431d 39be 9d4a 52bd a083 50bd
00000180: ca8f dfbc 3b64 67be e449 523d a291 55be

variational_strategy._variational_distribution.chol_variational_covar f4 [100, 100]
0.95622504 0.0 0.0 0.0 0.0 0.0 0.0 0.0
0.0 0.0 0.0 0.0 0.0 0.0 0.0 0.0
0.0 0.0 0.0 0.0 0.0 0.0 0.0 0.0
0.0 0.0 0.0 0.0 0.0 0.0 0.0 0.0
0.0 0.0 0.0 0.0 0.0 0.0 0.0 0.0
0.0 0.0 0.0 0.0 0.0 0.0 0.0 0.0
0.0 0.0 0.0 0.0 0.0 0.0 0.0 0.0
0.0 0.0 0.0 0.0 0.0 0.0 0.0 0.0
0.0 0.0 0.0 0.0 0.0 0.0 0.0 0.0
0.0 0.0 0.0 0.0 0.0 0.0 0.0 0.0
0.0 0.0 0.0 0.0 0.0 0.0 0.0 0.0
0.0 0.0 0.0 0.0 0.0 0.0 0.0 0.0
0.0 0.0 0.0 0.0 0.0 1.0 0.0 0.0
0.0 0.0 0.0 0.0 0.0 0.0 0.0 0.0
0.0 0.0 0.0 0.0 0.0 0.0 0.0 0.0
0.0 0.0 0.0 0.0 0.0 0.0 0.0 0.0
0.0 0.0 0.0 0.0 0.0 0.0 0.0 0.0
0.0 0.0 0.0 0.0 0.0 0.0 0.0 0.0
0.0 0.0 0.0 0.0 0.0 0.0 0.0 0.0
0.0 0.0 0.0 0.0 0.0 0.0 0.0 0.0
0.0 0.0 0.0 0.0 0.0 0.0 0.0 0.0
0.0 0.0 0.0 0.0 0.0 0.0 0.0 0.0
0.0 0.0 0.0 0.0 0.0 0.0 0.0 0.0
0.0 0.0 0.0 0.0 0.0 0.0 0.0 0.0
0.0 0.0 0.0 0.0 0.0 0.0 0.0 0.0
0.0 0.0 1.0377884 0.0 0.0 0.0 0.0 0.0
0.0 0.0 0.0 0.0 0.0 0.0 0.0 0.0
0.0 0.0 0.0 0.0 0.0 0.0 0.0 0.0
0.0 0.0 0.0 0.0 0.0 0.0 0.0 0.0
0.0 0.0 0.0 0.0 0.0 0.0 0.0 0.0
0.0 0.0 0.0 0.0 0.0 0.0 0.0 0.0
0.0 0.0 0.0 0.0 0.0 0.0 0.0 0.0
00000000: 2acb 743f 0000 0000 0000 0000 0000 0000
00000010: 0000 0000 0000 0000 0000 0000 0000 0000
00000020: 0000 0000 0000 0000 0000 0000 0000 0000
00000030: 0000 0000 0000 0000 0000 0000 0000 0000
00000040: 0000 0000 0000 0000 0000 0000 0000 0000
00000050: 0000 0000 0000 0000 0000 0000 0000 0000
00000060: 0000 0000 0000 0000 0000 0000 0000 0000
00000070: 0000 0000 0000 0000 0000 0000 0000 0000
00000080: 0000 0000 0000 0000 0000 0000 0000 0000
00000090: 0000 0000 0000 0000 0000 0000 0000 0000
000000a0: 0000 0000 0000 0000 0000 0000 0000 0000
000000b0: 0000 0000 0000 0000 0000 0000 0000 0000
000000c0: 0000 0000 0000 0000 0000 0000 0000 0000
000000d0: 0000 0000 0000 0000 0000 0000 0000 0000
000000e0: 0000 0000 0000 0000 0000 0000 0000 0000
000000f0: 0000 0000 0000 0000 0000 0000 0000 0000
00000100: 0000 0000 0000 0000 0000 0000 0000 0000
00000110: 0000 0000 0000 0000 0000 0000 0000 0000
00000120: 0000 0000 0000 0000 0000 0000 0000 0000
00000130: 0000 0000 0000 0000 0000 0000 0000 0000
00000140: 0000 0000 0000 0000 0000 0000 0000 0000
00000150: 0000 0000 0000 0000 0000 0000 0000 0000
00000160: 0000 0000 0000 0000 0000 0000 0000 0000
00000170: 0000 0000 0000 0000 0000 0000 0000 0000
00000180: 0000 0000 0000 0000 0000 0000 0000 0000
00000190: 0000 0000 0000 803f 0000 0000 0000 0000
000001a0: 0000 0000 0000 0000 0000 0000 0000 0000
000001b0: 0000 0000 0000 0000 0000 0000 0000 0000
000001c0: 0000 0000 0000 0000 0000 0000 0000 0000
000001d0: 0000 0000 0000 0000 0000 0000 0000 0000
000001e0: 0000 0000 0000 0000 0000 0000 0000 0000
000001f0: 0000 0000 0000 0000 0000 0000 0000 0000
00000200: 0000 0000 0000 0000 0000 0000 0000 0000
00000210: 0000 0000 0000 0000 0000 0000 0000 0000
00000220: 0000 0000 0000 0000 0000 0000 0000 0000
00000230: 0000 0000 0000 0000 0000 0000 0000 0000
00000240: 0000 0000 0000 0000 0000 0000 0000 0000
00000250: 0000 0000 0000 0000 0000 0000 0000 0000
00000260: 0000 0000 0000 0000 0000 0000 0000 0000
00000270: 0000 0000 0000 0000 0000 0000 0000 0000
00000280: 0000 0000 0000 0000 0000 0000 0000 0000
00000290: 0000 0000 0000 0000 0000 0000 0000 0000
000002a0: 0000 0000 0000 0000 0000 0000 0000 0000
000002b0: 0000 0000 0000 0000 0000 0000 0000 0000
000002c0: 0000 0000 0000 0000 0000 0000 0000 0000
000002d0: 0000 0000 0000 0000 0000 0000 0000 0000
000002e0: 0000 0000 0000 0000 0000 0000 0000 0000
000002f0: 0000 0000 0000 0000 0000 0000 0000 0000
00000300: 0000 0000 0000 0000 0000 0000 0000 0000
00000310: 0000 0000 0000 0000 0000 0000 0000 0000
00000320: 0000 0000 0000 0000 40d6 843f 0000 0000
00000330: 0000 0000 0000 0000 0000 0000 0000 0000
00000340: 0000 0000 0000 0000 0000 0000 0000 0000
00000350: 0000 0000 0000 0000 0000 0000 0000 0000
00000360: 0000 0000 0000 0000 0000 0000 0000 0000
00000370: 0000 0000 0000 0000 0000 0000 0000 0000
00000380: 0000 0000 0000 0000 0000 0000 0000 0000
00000390: 0000 0000 0000 0000 0000 0000 0000 0000
000003a0: 0000 0000 0000 0000 0000 0000 0000 0000
000003b0: 0000 0000 0000 0000 0000 0000 0000 0000
000003c0: 0000 0000 0000 0000 0000 0000 0000 0000
000003d0: 0000 0000 0000 0000 0000 0000 0000 0000
000003e0: 0000 0000 0000 0000 0000 0000 0000 0000
000003f0: 0000 0000 0000 0000 0000 0000 0000 0000

cov.base_kernel.raw_lengthscale f4 [1, 2]
0.850721 0.6146506
00000000: dac8 593f be59 1d3f
