slam/rbpf_slam/data/old_results/particle_gp_model/particle9.pth (torch, 44883 bytes, 4 tensors)

variational_strategy.inducing_points f4 [100, 2]
-82.8193 -330.41153 -140.11192 -275.90918 -158.56508 -318.25366 -249.00742 -382.35223
-183.80489 -392.01746 -80.31836 -218.32625 -111.86495 -413.0878 -128.8075 -300.04153
-54.675575 -278.46396 -49.12094 -400.83286 -137.0116 -307.13205 -137.91664 -338.91467
-153.00058 -314.37897 -103.542076 -456.41385 -249.00742 -382.35223 -113.28127 -359.57922
-118.08949 -341.53253 -150.48915 -370.79364 -59.09484 -328.51517 -156.89684 -391.94278
-105.09961 -328.17197 -66.37944 -244.26302 -77.326584 -299.8854 -154.92267 -376.24606
-127.98765 -317.88477 -187.13507 -366.6633 -123.793846 -305.38983 -70.01676 -430.21378
-107.41589 -308.79437 -89.87381 -450.3222 -114.8076 -369.49768 -78.01728 -379.623
-24.508987 -375.68683 -81.93163 -388.20068 55.289234 -461.44113 -168.77301 -506.51334
-127.72018 -478.501 38.895767 -281.91364 -144.44882 -446.90115 -83.84483 -318.09058
-76.193275 -498.55905 -158.28098 -263.26617 -180.34027 -366.01965 -76.68219 -296.22104
-253.60472 -482.28833 -74.71368 -286.40326 -52.47829 -170.48965 -96.29659 -332.41843
-128.63019 -295.03882 -98.459335 -429.99078 95.36722 -384.01447 -48.780334 -320.58276
-135.44434 -320.27805 -115.3739 -434.45813 -89.3846 -379.03772 -79.85731 -299.20456
-71.937805 -272.7891 -122.385635 -305.45554 -63.789707 -352.19275 -50.000233 -410.7811
-84.017784 -311.31567 -233.21022 -367.64914 -170.64023 -409.6015 -213.77098 -501.26743
-84.780754 -307.50925 -78.816 -309.72202 -159.67851 -283.79788 -96.35307 -341.32236
-181.26799 -389.46054 -146.1883 -295.18863 -226.29459 -413.64026 5.975931 -454.13608
11.24605 -504.74554 -12.095154 -420.7098 -84.97182 -338.90152 -30.816664 -305.02142
-116.34918 -321.29047 -226.21991 -342.88705 20.702217 -341.39764 -94.77218 -334.40866
-193.9488 -510.21936 -90.805405 -407.34293 -67.07397 -554.4659 -56.944767 -362.47678
-88.993 -342.9745 -125.42781 -323.7731 -117.66795 -346.85376 -34.879894 -306.39673
-111.51894 -360.98062 -99.80067 -424.1067 -136.54643 -321.44418 -77.46129 -329.54663
-86.80834 -364.76022 -66.708176 -354.2923 -114.2 -357.2103 -88.07131 -283.62537
-86.85006 -275.67505 -117.99697 -303.67398 -114.68202 -320.29248 -27.670841 -349.88934
00000000: 7ba3 a5c2 ad34 a5c3 a71c 0cc3 60f4 89c3
00000010: a990 1ec3 7820 9fc3 e601 79c3 162d bfc3
00000020: 0dce 37c3 3c02 c4c3 00a3 a0c2 8553 5ac3
00000030: dbba dfc2 3d8b cec3 b8ce 00c3 5105 96c3
00000040: cab3 5ac2 633b 8bc3 d87b 44c2 9b6a c8c3
00000050: f802 09c3 e790 99c3 a9ea 09c3 1475 a9c3
00000060: 2600 19c3 8230 9dc3 8b15 cfc2 f934 e4c3
00000070: e601 79c3 162d bfc3 0390 e2c2 24ca b3c3
00000080: d22d ecc2 2ac4 aac3 397d 16c3 9665 b9c3
00000090: 1e61 6cc2 f141 a4c3 97e5 1cc3 adf8 c3c3
000000a0: 0033 d2c2 0316 a4c3 46c2 84c2 5543 74c3
000000b0: 36a7 9ac2 55f1 95c3 34ec 1ac3 7f1f bcc3
000000c0: adf9 ffc2 40f1 9ec3 9422 3bc3 e754 b7c3
000000d0: 7396 f7c2 e6b1 98c3 9508 8cc2 5d1b d7c3
000000e0: f0d4 d6c2 ae65 9ac3 64bf b3c2 3e29 e1c3
000000f0: 7e9d e5c2 b4bf b8c3 d908 9cc2 becf bdc3
00000100: 6812 c4c1 ead7 bbc3 ffdc a3c2 b019 c2c3
00000110: 2d28 5d42 77b8 e6c3 e4c5 28c3 b541 fdc3
00000120: bb70 ffc2 2140 efc3 4495 1b42 f2f4 8cc3
00000130: e672 10c3 5973 dfc3 8eb0 a7c2 980b 9fc3
00000140: f562 98c2 8f47 f9c3 ee47 1ec3 12a2 83c3
00000150: 1c57 34c3 8402 b7c3 485d 99c2 4b1c 94c3
00000160: cf9a 7dc3 e824 f1c3 676d 95c2 9e33 8fc3
00000170: c5e9 51c2 5a7d 2ac3 db97 c0c2 8f35 a6c3
00000180: 54a1 00c3 f884 93c3 2eeb c4c2 d2fe d6c3
00000190: 04bc be42 da01 c0c3 101f 43c2 984a a0c3
000001a0: c071 07c3 9723 a0c3 70bf e6c2 a43a d9c3
000001b0: eac4 b2c2 d484 bdc3 f1b6 9fc2 2f9a 95c3
000001c0: 28e0 8fc2 0165 88c3 72c5 f4c2 4fba 98c3
000001d0: a928 7fc2 ac18 b0c3 3d00 48c2 fb63 cdc3
000001e0: 1b09 a8c2 68a8 9bc3 d135 69c3 17d3 b7c3
000001f0: e6a3 2ac3 fecc ccc3 5fc5 55c3 3ba2 fac3
00000200: bf8f a9c2 2fc1 99c3 cba1 9dc2 6bdc 9ac3
00000210: b3ad 1fc3 21e6 8dc3 c6b4 c0c2 43a9 aac3
00000220: 9b44 35c3 f3ba c2c3 3430 12c3 2598 93c3
00000230: 6a4b 62c3 f4d1 cec3 d43a bf40 6b11 e3c3
00000240: d2ef 3341 6e5f fcc3 c085 41c1 db5a d2c3
00000250: 92f1 a9c2 6573 a9c3 8788 f6c1 be82 98c3
00000260: c8b2 e8c2 2ea5 a0c3 4c38 62c3 8b71 abc3
00000270: 249e a541 e6b2 aac3 5b8b bdc2 4f34 a7c3
00000280: e5f2 41c3 141c ffc3 5e9c b5c2 e5ab cbc3
00000290: df25 86c2 d19d 0ac4 71c7 63c2 073d b5c3
000002a0: 6afc b1c2 bc7c abc3 0adb fac2 f5e2 a1c3
000002b0: fe55 ebc2 486d adc3 0385 0bc2 c832 99c3
000002c0: b309 dfc2 857d b4c3 f199 c7c2 a80d d4c3
000002d0: e38b 08c3 dbb8 a0c3 2eec 9ac2 f8c5 a4c3
000002e0: df9d adc2 4f61 b6c3 966a 85c2 6a25 b1c3
000002f0: 6666 e4c2 eb9a b2c3 8324 b0c2 0cd0 8dc3
00000300: 3bb3 adc2 68d6 89c3 73fe ebc2 45d6 97c3
00000310: 325d e5c2 7025 a0c3 e25d ddc1 d6f1 aec3

variational_strategy._variational_distribution.variational_mean f4 [100]
-0.60379934 -0.55731714 -0.31622002 0.051261276 -0.47656468 -0.102504656 -0.1505732 -0.49460003
-0.123786405 -0.07262089 -0.28156814 -0.1477882 -0.12110237 0.05044527 -0.050261736 0.017865611
-0.35378274 -0.12978967 -0.2827338 -0.027524132 -0.5119732 -0.0551027 -0.2501126 -0.12405398
-0.6289816 -0.09557152 -0.55320936 -0.054363254 -0.27696377 -0.0054266714 0.0036805943 -0.23752269
-0.109525934 -0.19596337 -0.05101822 0.049736083 0.051134456 -0.058295902 -0.09928572 -0.41874707
0.051236186 -0.136872 -0.000389345 -0.07597145 -0.050501484 -0.051395714 -0.050012596 -0.27378085
-0.09976658 -0.23686858 -0.0503651 0.027292848 -0.19242816 0.031502146 -0.33239016 -0.14822812
-0.043720588 -0.514183 -0.0013728365 -0.050505444 -0.2537439 0.050503537 -0.04339937 -0.051278573
-0.15657191 0.04927695 0.05097938 -0.3517653 -0.526757 -0.06175099 -0.2645535 -0.05082091
-0.05097264 0.023140235 -0.41403207 -0.09479669 -0.44390094 0.057838965 0.051308095 -0.3857379
-0.050868873 -0.030359332 0.050597947 -0.31736222 -0.382779 -0.63988614 -0.2586451 -0.12962765
-0.18865936 -0.0439814 -0.020180956 -0.16298695 -0.25329307 -0.32905233 0.04973083 -0.059075087
-0.11806624 -0.5303968 0.17839593 0.05150495
00000000: 9892 1abf 56ac 0ebf 97e7 a1be 58f7 513d
00000010: 4900 f4be f6ed d1bd dc2f 1abe 373c fdbe
00000020: ba83 fdbd 43ba 94bd b329 90be ca55 17be
00000030: 8504 f8bd b39f 4e3d 40df 4dbd e75a 923c
00000040: 0323 b5be 95e7 04be 7cc2 90be 4a7a e1bc
00000050: ad10 03bf 5eb3 61bd c20e 80be 0310 febd
00000060: f004 21bf 00bb c3bd 219f 0dbf 01ac 5ebd
00000070: 32ce 8dbe 38d2 b1bb 2036 713b 2639 73be
00000080: 224f e0bd 9faa 48be 7bf8 50bd 10b8 4b3d
00000090: 5d72 513d afc7 6ebd 5056 cbbd 0466 d6be
000000a0: 09dd 513d 2c28 0cbe 0021 ccb9 eb96 9bbd
000000b0: a5da 4ebd 5084 52bd 02da 4cbd 012d 8cbe
000000c0: 6c52 ccbd ad8d 72be a34b 4ebd 4095 df3c
000000d0: e30b 45be 6508 013d 0b2f aabe 1dc9 17be
000000e0: 5c14 33bd 7fa1 03bf c0f0 b3ba ccde 4ebd
000000f0: b8ea 81be ccdc 4e3d 8ac3 31bd 7b09 52bd
00000100: 6354 20be a1d6 493d c1cf 503d 951a b4be
00000110: 8cd9 06bf 9bee 7cbd 8e73 87be 9629 50bd
00000120: b0c8 50bd 9790 bd3c 03fc d3be c424 c2bd
00000130: fc46 e3be 8de8 6c3d 7028 523d 707f c5be
00000140: e15b 50bd 22b4 f8bc cb3f 4f3d 4d7d a2be
00000150: 9cfb c3be 94cf 23bf 216d 84be 1cbd 04be
00000160: eb2f 41be d725 34bd 8852 a5bc 0de6 26be
00000170: a1af 81be 8c79 a8be 8eb2 4b3d b8f8 71bd
00000180: b6cc f1bd 16c8 07bf 6cad 363e dbf6 523d

variational_strategy._variational_distribution.chol_variational_covar f4 [100, 100]
0.95043623 0.0 0.0 0.0 0.0 0.0 0.0 0.0
0.0 0.0 0.0 0.0 0.0 0.0 0.0 0.0
0.0 0.0 0.0 0.0 0.0 0.0 0.0 0.0
0.0 0.0 0.0 0.0 0.0 0.0 0.0 0.0
0.0 0.0 0.0 0.0 0.0 0.0 0.0 0.0
0.0 0.0 0.0 0.0 0.0 0.0 0.0 0.0
0.0 0.0 0.0 0.0 0.0 0.0 0.0 0.0
0.0 0.0 0.0 0.0 0.0 0.0 0.0 0.0
0.0 0.0 0.0 0.0 0.0 0.0 0.0 0.0
0.0 0.0 0.0 0.0 0.0 0.0 0.0 0.0
0.0 0.0 0.0 0.0 0.0 0.0 0.0 0.0
0.0 0.0 0.0 0.0 0.0 0.0 0.0 0.0
0.0 0.0 0.0 0.0 7.693913e-32 1.0630513 0.0 0.0
0.0 0.0 0.0 0.0 0.0 0.0 0.0 0.0
0.0 0.0 0.0 0.0 0.0 0.0 0.0 0.0
0.0 0.0 0.0 0.0 0.0 0.0 0.0 0.0
0.0 0.0 0.0 0.0 0.0 0.0 0.0 0.0
0.0 0.0 0.0 0.0 0.0 0.0 0.0 0.0
0.0 0.0 0.0 0.0 0.0 0.0 0.0 0.0
0.0 0.0 0.0 0.0 0.0 0.0 0.0 0.0
0.0 0.0 0.0 0.0 0.0 0.0 0.0 0.0
0.0 0.0 0.0 0.0 0.0 0.0 0.0 0.0
0.0 0.0 0.0 0.0 0.0 0.0 0.0 0.0
0.0 0.0 0.0 0.0 0.0 0.0 0.0 0.0
0.0 0.0 0.0 0.0 0.0 0.0 0.0 0.0
-4.5090584e-27 0.00031190173 1.0527266 0.0 0.0 0.0 0.0 0.0
0.0 0.0 0.0 0.0 0.0 0.0 0.0 0.0
0.0 0.0 0.0 0.0 0.0 0.0 0.0 0.0
0.0 0.0 0.0 0.0 0.0 0.0 0.0 0.0
0.0 0.0 0.0 0.0 0.0 0.0 0.0 0.0
0.0 0.0 0.0 0.0 0.0 0.0 0.0 0.0
0.0 0.0 0.0 0.0 0.0 0.0 0.0 0.0
00000000: ca4f 733f 0000 0000 0000 0000 0000 0000
00000010: 0000 0000 0000 0000 0000 0000 0000 0000
00000020: 0000 0000 0000 0000 0000 0000 0000 0000
00000030: 0000 0000 0000 0000 0000 0000 0000 0000
00000040: 0000 0000 0000 0000 0000 0000 0000 0000
00000050: 0000 0000 0000 0000 0000 0000 0000 0000
00000060: 0000 0000 0000 0000 0000 0000 0000 0000
00000070: 0000 0000 0000 0000 0000 0000 0000 0000
00000080: 0000 0000 0000 0000 0000 0000 0000 0000
00000090: 0000 0000 0000 0000 0000 0000 0000 0000
000000a0: 0000 0000 0000 0000 0000 0000 0000 0000
000000b0: 0000 0000 0000 0000 0000 0000 0000 0000
000000c0: 0000 0000 0000 0000 0000 0000 0000 0000
000000d0: 0000 0000 0000 0000 0000 0000 0000 0000
000000e0: 0000 0000 0000 0000 0000 0000 0000 0000
000000f0: 0000 0000 0000 0000 0000 0000 0000 0000
00000100: 0000 0000 0000 0000 0000 0000 0000 0000
00000110: 0000 0000 0000 0000 0000 0000 0000 0000
00000120: 0000 0000 0000 0000 0000 0000 0000 0000
00000130: 0000 0000 0000 0000 0000 0000 0000 0000
00000140: 0000 0000 0000 0000 0000 0000 0000 0000
00000150: 0000 0000 0000 0000 0000 0000 0000 0000
00000160: 0000 0000 0000 0000 0000 0000 0000 0000
00000170: 0000 0000 0000 0000 0000 0000 0000 0000
00000180: 0000 0000 0000 0000 0000 0000 0000 0000
00000190: d3be c70b 1112 883f 0000 0000 0000 0000
000001a0: 0000 0000 0000 0000 0000 0000 0000 0000
000001b0: 0000 0000 0000 0000 0000 0000 0000 0000
000001c0: 0000 0000 0000 0000 0000 0000 0000 0000
000001d0: 0000 0000 0000 0000 0000 0000 0000 0000
000001e0: 0000 0000 0000 0000 0000 0000 0000 0000
000001f0: 0000 0000 0000 0000 0000 0000 0000 0000
00000200: 0000 0000 0000 0000 0000 0000 0000 0000
00000210: 0000 0000 0000 0000 0000 0000 0000 0000
00000220: 0000 0000 0000 0000 0000 0000 0000 0000
00000230: 0000 0000 0000 0000 0000 0000 0000 0000
00000240: 0000 0000 0000 0000 0000 0000 0000 0000
00000250: 0000 0000 0000 0000 0000 0000 0000 0000
00000260: 0000 0000 0000 0000 0000 0000 0000 0000
00000270: 0000 0000 0000 0000 0000 0000 0000 0000
00000280: 0000 0000 0000 0000 0000 0000 0000 0000
00000290: 0000 0000 0000 0000 0000 0000 0000 0000
000002a0: 0000 0000 0000 0000 0000 0000 0000 0000
000002b0: 0000 0000 0000 0000 0000 0000 0000 0000
000002c0: 0000 0000 0000 0000 0000 0000 0000 0000
000002d0: 0000 0000 0000 0000 0000 0000 0000 0000
000002e0: 0000 0000 0000 0000 0000 0000 0000 0000
000002f0: 0000 0000 0000 0000 0000 0000 0000 0000
00000300: 0000 0000 0000 0000 0000 0000 0000 0000
00000310: 0000 0000 0000 0000 0000 0000 0000 0000
00000320: 499f b293 be86 a339 bfbf 863f 0000 0000
00000330: 0000 0000 0000 0000 0000 0000 0000 0000
00000340: 0000 0000 0000 0000 0000 0000 0000 0000
00000350: 0000 0000 0000 0000 0000 0000 0000 0000
00000360: 0000 0000 0000 0000 0000 0000 0000 0000
00000370: 0000 0000 0000 0000 0000 0000 0000 0000
00000380: 0000 0000 0000 0000 0000 0000 0000 0000
00000390: 0000 0000 0000 0000 0000 0000 0000 0000
000003a0: 0000 0000 0000 0000 0000 0000 0000 0000
000003b0: 0000 0000 0000 0000 0000 0000 0000 0000
000003c0: 0000 0000 0000 0000 0000 0000 0000 0000
000003d0: 0000 0000 0000 0000 0000 0000 0000 0000
000003e0: 0000 0000 0000 0000 0000 0000 0000 0000
000003f0: 0000 0000 0000 0000 0000 0000 0000 0000

cov.base_kernel.raw_lengthscale f4 [1, 2]
0.8571173 0.90240556
00000000: 0a6c 5b3f 0d04 673f
