slam/rbpf_slam/data/old_results/particle_gp_model/particle5.pth (torch, 44880 bytes, 4 tensors)

variational_strategy.inducing_points f4 [100, 2]
00000000: 782b 23c3 5420 adc3 9106 1bc2 46c2 a9c3
00000010: b1c1 10c2 749e 8bc3 3f33 1ac3 b658 c4c3
00000020: 337e 84c2 3814 b1c3 08f4 86c2 0f92 b4c3
00000030: 2ce7 62c3 6ba8 b6c3 1d79 34c3 f0d6 bac3
00000040: 4c51 b0c2 d9ea 6ac3 1bde 8642 41ba 8ec3
00000050: 7bbf 03c3 f0f6 c2c3 2ed1 57c2 793f bdc3
00000060: 1140 17c3 db57 a2c3 596f 02c3 729e 83c3
00000070: 75ae fcc2 5a65 bec3 0d60 88c2 c9b9 a1c3
00000080: 24b4 38c2 e839 09c4 ea1c 57c3 2964 fcc3
00000090: 4f50 15c3 4f68 91c3 8f28 bec2 dd5f 79c3
000000a0: fd98 93c2 b64c a4c3 afee b2c2 d5a7 78c3
000000b0: 87d4 bfc2 b07f 97c3 b7cd b141 3298 99c3
000000c0: bca8 2ec3 fd3c acc3 66d9 2bc2 4df7 fdc3
000000d0: be62 e242 1e99 9dc3 c0a6 dbc2 cbab dbc3
000000e0: 8c63 43c3 3ea4 b8c3 4324 c2c2 c180 abc3
000000f0: e170 e1c2 54c7 c1c3 8b11 51c1 0c3b 99c3
00000100: f0ea 19c3 ab6e 89c3 4d8e 09c3 119c 9dc3
00000110: 39ad 04c3 d288 99c3 4703 64c2 9a50 84c3
00000120: 575f e2c2 b909 71c3 941a b2c2 ad8d a8c3
00000130: 3d31 06c3 13a7 acc3 c6c3 98c2 cfb6 6fc3
00000140: 80e3 02c3 b521 9dc3 6d8c b7c2 ea60 c2c3
00000150: af59 43c3 887a bec3 7bf5 d8c1 c081 7ac3
00000160: e4f4 3cc2 ef98 8ec3 62fd 5fc3 092a bfc3
00000170: b50c d3c2 757a 6ac3 fe67 d5c2 2f53 bac3
00000180: 739a 28c3 48f4 b5c3 c8ad 1dc2 61ef 9cc3
00000190: 43db eac2 0e96 b2c3 b051 4ac3 cf24 acc3
000001a0: f13a bcc2 f84a a5c3 9c24 1ec2 9fb9 d3c3
000001b0: 0aa9 1cc2 f99b 91c3 c8d2 fdc2 ca01 9ac3
000001c0: c48c 98c1 b077 9dc3 02a8 aec2 72a9 41c3
000001d0: 00f4 03c3 4740 a0c3 3d1b 2fc3 4a89 a4c3
000001e0: e99a f5c2 b6fe 99c3 6bc9 c1c2 d73b b1c3
000001f0: db93 3cc3 0202 c0c3 4da0 24c3 1f71 8ac3
00000200: 972b 23c3 8d43 cec3 f221 60c2 677f abc3
00000210: e134 aec2 1e32 42c3 1db8 bdc2 a111 b4c3
00000220: fc80 93c2 64df adc3 f3ae 0ac3 6aa5 b1c3
00000230: 5091 69c2 2cb9 c0c3 85e6 2ec3 29bb e0c3
00000240: ad1b 27c3 2a45 b5c3 d0e9 37c3 b75e b8c3
00000250: 712a cdc1 fab6 c8c3 f4a9 0ec3 343c e2c3
00000260: 7e06 adc2 51f2 b0c3 4682 cfc2 6b6c a2c3
00000270: 3cac 86c2 0359 bec3 6415 4bc2 4a3d c1c3
00000280: 6a13 b2c2 7d21 64c3 bbb7 56c2 ac63 8fc3
00000290: 8536 8942 a341 b7c3 33af 39c3 1d52 b0c3
000002a0: 2f4c 12c3 0d03 abc3 56ac 70c1 c129 95c3
000002b0: 9380 2bc2 4281 83c3 eab7 5ac3 6cec a7c3
000002c0: 4488 16c3 1108 9cc3 0e5a dec2 d0bb 9ec3
000002d0: f512 23c3 b890 bbc3 fc60 86c2 eef0 ccc3
000002e0: d084 d3c2 b4f3 b9c3 5c07 ffc2 f994 a6c3
000002f0: 3e63 90c2 3f2b c7c3 2f6d dac2 888c 04c4
00000300: 0316 94c2 5abc b8c3 1561 5dc2 cc9a a2c3
00000310: 8001 03c2 96a2 aac3 8c0f bd40 6804 9bc3
-163.1698 -346.25256 -38.756413 -339.51776 -36.18915 -279.2379 -154.20018 -392.69305
-66.24648 -354.15796 -67.47662 -361.14108 -226.90302 -365.31577 -180.4731 -373.6792
-88.15878 -234.91737 67.4338 -285.4551 -131.74797 -389.9292 -53.954277 -378.49588
-151.25026 -324.68637 -130.43495 -263.23785 -126.34074 -380.7918 -68.1876 -323.45145
-46.17592 -548.9048 -215.11295 -504.7825 -149.3137 -290.8149 -95.079216 -249.37447
-73.798805 -328.5993 -89.46618 -248.6556 -95.91509 -302.99756 22.225447 -307.18903
-174.65912 -344.47647 -42.962303 -507.93204 113.192856 -315.19623 -109.82568 -439.34213
-195.38885 -369.28314 -97.07082 -343.0059 -112.72047 -387.55725 -13.066783 -306.4613
-153.91772 -274.8646 -137.55586 -315.21927 -132.67665 -307.0689 -57.0032 -264.6297
-113.18621 -241.03798 -89.05191 -337.10684 -134.19234 -345.30527 -76.38237 -239.7141
-130.88867 -314.26334 -91.77427 -388.75714 -195.35033 -380.95728 -27.119864 -250.50684
-47.23915 -285.1948 -223.98978 -382.3284 -105.52482 -234.47835 -106.70311 -372.64987
-168.60332 -363.90845 -39.41971 -313.87015 -117.428246 -357.1723 -202.31909 -344.28757
-94.11512 -330.5857 -39.53575 -423.45016 -39.165077 -291.21854 -126.91168 -308.01398
-19.068733 -314.93506 -87.32814 -193.6619 -131.95312 -320.50217 -175.1064 -329.07257
-122.80256 -307.98993 -96.893394 -354.4675 -188.57756 -384.0157 -164.62617 -276.88376
-163.17027 -412.52774 -56.03315 -342.99533 -87.10328 -194.19577 -94.8596 -360.13773
-73.75192 -347.74524 -138.6834 -355.2923 -58.391907 -385.44666 -174.90047 -449.4622
-167.10811 -362.54034 -183.91333 -368.73996 -25.645723 -401.4295 -142.66388 -452.47034
-86.51268 -353.8931 -103.75444 -324.84702 -67.336395 -380.6954 -50.77089 -386.47882
-89.03792 -228.13081 -53.679424 -286.7787 68.60648 -366.5128 -185.68437 -352.6415
-146.29759 -342.02383 -15.042074 -298.3262 -42.87556 -263.00983 -218.71841 -335.84705
-150.53229 -312.06302 -111.17589 -317.4673 -163.07405 -375.1306 -67.18942 -409.88226
-105.7594 -371.90393 -127.51437 -333.16385 -72.19383 -398.33786 -109.21325 -530.1958
-74.04299 -369.4715 -55.344807 -325.20935 -32.751465 -341.2702 5.908148 -310.03442

variational_strategy._variational_distribution.variational_mean f4 [100]
00000000: 7799 0abe c877 02bf fcc9 66bd 7c42 e6be
00000010: f1df 25be 6b65 1cbe 61c5 8fbd bac9 82bd
00000020: 99f1 20be c195 e3bd 05ae 1b3d 6947 513d
00000030: 0c10 26bd 50fa 4e3d a1b8 d4be 351e 73be
00000040: 2f95 503d 2d65 4fbd 312f 08be 2858 4ebd
00000050: 8cf4 f9be afc5 94bd 5180 15bf 8fec 483d
00000060: d2a7 8dbe f0af 0bbe 7450 4d3d a854 a9bd
00000070: 4e68 52bd 9bd8 cdbe 42cd 07bf 5891 29be
00000080: 4f30 97be 6b58 28bf 8169 4ebe b216 623d
00000090: 61cb 50bd 667c 9bbe 71f9 513d ad62 523d
000000a0: b666 5abe de84 4f3d 2fc5 4c3d db51 523d
000000b0: ccaf 6ebd c9ba 55bd baac 4c3d bf8a d6bc
000000c0: 5d90 373d 401a 94bd 4aaf 3c3d 96ec ddbe
000000d0: d479 3ebe 0762 51bd 91cb 52bd ba65 1ebf
000000e0: 34e0 3c3d 0982 c8bd e0f7 a4be b26f 1bbe
000000f0: 31e0 b3be d613 f4be 5d31 4ebd c15e 4d3d
00000100: b7b6 89be e015 2b3b 2a18 00bd 0718 aebe
00000110: 37dd 0abe 6e72 21be 5026 44bd 6b5c 4dbd
00000120: d4e3 2d3d 8cf1 f0be d82d 76bd e8be 50bd
00000130: e60b 3bbd b73e 8bbe 40a1 a0be 06ae 34be
00000140: e1df 35be 1cbb 83be 6029 51bd a82e 05be
00000150: bb71 9fbe c7cc 13be 73c8 abbd 9aca 61be
00000160: 2259 73be ebdd afbe fde3 b9bd 7b49 89be
00000170: 5374 5ebd dc3e 91be cc10 05bd fb6c 523d
00000180: 0271 97bd ab3f d5be 30e5 993b aa4c 0a3d
-0.13535105 -0.5096402 -0.05634497 -0.449726 -0.16198708 -0.15273063 -0.07020069 -0.063861325
-0.15717162 -0.11112548 0.038007755 0.051093493 -0.040542647 0.050531685 -0.4154711 -0.23741992
0.050923523 -0.050633598 -0.13299252 -0.05037704 -0.48819387 -0.07264268 -0.5839892 0.049053725
-0.276671 -0.13641334 0.050125554 -0.082681 -0.051369004 -0.4020432 -0.53047574 -0.1655935
-0.29529044 -0.65759915 -0.20157434 0.055197425 -0.050975207 -0.30368346 0.051263276 0.051363636
-0.21328244 0.05066382 0.049992736 0.051347595 -0.05827312 -0.052180085 0.049969412 -0.026189206
0.04481541 -0.07231569 0.046065606 -0.43344563 -0.18601161 -0.051118877 -0.051463667 -0.6187397
0.046112254 -0.09790427 -0.32220364 -0.15179327 -0.35131982 -0.47671384 -0.050340045 0.050139192
-0.26897213 0.0026105568 -0.031273045 -0.34002706 -0.1356095 -0.15766308 -0.0478881 -0.050136965
0.042453602 -0.47059286 -0.060102314 -0.050963312 -0.045665644 -0.27196285 -0.31373024 -0.1764451
-0.17761184 -0.2572869 -0.05106485 -0.13006079 -0.31141457 -0.14433585 -0.08387842 -0.22049943
-0.2376447 -0.34348997 -0.090766884 -0.26813874 -0.054310154 -0.2836827 -0.032486722 0.051373463
-0.073946014 -0.41650137 0.0046965107 0.03376452

variational_strategy._variational_distribution.chol_variational_covar f4 [100, 100]
00000000: 7c71 853f 0000 0000 0000 0000 0000 0000
00000010: 0000 0000 0000 0000 0000 0000 0000 0000
00000020: 0000 0000 0000 0000 0000 0000 0000 0000
00000030: 0000 0000 0000 0000 0000 0000 0000 0000
00000040: 0000 0000 0000 0000 0000 0000 0000 0000
00000050: 0000 0000 0000 0000 0000 0000 0000 0000
00000060: 0000 0000 0000 0000 0000 0000 0000 0000
00000070: 0000 0000 0000 0000 0000 0000 0000 0000
00000080: 0000 0000 0000 0000 0000 0000 0000 0000
00000090: 0000 0000 0000 0000 0000 0000 0000 0000
000000a0: 0000 0000 0000 0000 0000 0000 0000 0000
000000b0: 0000 0000 0000 0000 0000 0000 0000 0000
000000c0: 0000 0000 0000 0000 0000 0000 0000 0000
000000d0: 0000 0000 0000 0000 0000 0000 0000 0000
000000e0: 0000 0000 0000 0000 0000 0000 0000 0000
000000f0: 0000 0000 0000 0000 0000 0000 0000 0000
00000100: 0000 0000 0000 0000 0000 0000 0000 0000
00000110: 0000 0000 0000 0000 0000 0000 0000 0000
00000120: 0000 0000 0000 0000 0000 0000 0000 0000
00000130: 0000 0000 0000 0000 0000 0000 0000 0000
00000140: 0000 0000 0000 0000 0000 0000 0000 0000
00000150: 0000 0000 0000 0000 0000 0000 0000 0000
00000160: 0000 0000 0000 0000 0000 0000 0000 0000
00000170: 0000 0000 0000 0000 0000 0000 0000 0000
00000180: 0000 0000 0000 0000 0000 0000 0000 0000
00000190: 0000 0000 b2ce 693f 0000 0000 0000 0000
000001a0: 0000 0000 0000 0000 0000 0000 0000 0000
000001b0: 0000 0000 0000 0000 0000 0000 0000 0000
000001c0: 0000 0000 0000 0000 0000 0000 0000 0000
000001d0: 0000 0000 0000 0000 0000 0000 0000 0000
000001e0: 0000 0000 0000 0000 0000 0000 0000 0000
000001f0: 0000 0000 0000 0000 0000 0000 0000 0000
00000200: 0000 0000 0000 0000 0000 0000 0000 0000
00000210: 0000 0000 0000 0000 0000 0000 0000 0000
00000220: 0000 0000 0000 0000 0000 0000 0000 0000
00000230: 0000 0000 0000 0000 0000 0000 0000 0000
00000240: 0000 0000 0000 0000 0000 0000 0000 0000
00000250: 0000 0000 0000 0000 0000 0000 0000 0000
00000260: 0000 0000 0000 0000 0000 0000 0000 0000
00000270: 0000 0000 0000 0000 0000 0000 0000 0000
00000280: 0000 0000 0000 0000 0000 0000 0000 0000
00000290: 0000 0000 0000 0000 0000 0000 0000 0000
000002a0: 0000 0000 0000 0000 0000 0000 0000 0000
000002b0: 0000 0000 0000 0000 0000 0000 0000 0000
000002c0: 0000 0000 0000 0000 0000 0000 0000 0000
000002d0: 0000 0000 0000 0000 0000 0000 0000 0000
000002e0: 0000 0000 0000 0000 0000 0000 0000 0000
000002f0: 0000 0000 0000 0000 0000 0000 0000 0000
00000300: 0000 0000 0000 0000 0000 0000 0000 0000
00000310: 0000 0000 0000 0000 0000 0000 0000 0000
00000320: 0000 0000 ef8b 359c 6a04 803f 0000 0000
00000330: 0000 0000 0000 0000 0000 0000 0000 0000
00000340: 0000 0000 0000 0000 0000 0000 0000 0000
00000350: 0000 0000 0000 0000 0000 0000 0000 0000
00000360: 0000 0000 0000 0000 0000 0000 0000 0000
00000370: 0000 0000 0000 0000 0000 0000 0000 0000
00000380: 0000 0000 0000 0000 0000 0000 0000 0000
00000390: 0000 0000 0000 0000 0000 0000 0000 0000
000003a0: 0000 0000 0000 0000 0000 0000 0000 0000
000003b0: 0000 0000 0000 0000 0000 0000 0000 0000
000003c0: 0000 0000 0000 0000 0000 0000 0000 0000
000003d0: 0000 0000 0000 0000 0000 0000 0000 0000
000003e0: 0000 0000 0000 0000 0000 0000 0000 0000
000003f0: 0000 0000 0000 0000 0000 0000 0000 0000
1.0425258 0.0 0.0 0.0 0.0 0.0 0.0 0.0
0.0 0.0 0.0 0.0 0.0 0.0 0.0 0.0
0.0 0.0 0.0 0.0 0.0 0.0 0.0 0.0
0.0 0.0 0.0 0.0 0.0 0.0 0.0 0.0
0.0 0.0 0.0 0.0 0.0 0.0 0.0 0.0
0.0 0.0 0.0 0.0 0.0 0.0 0.0 0.0
0.0 0.0 0.0 0.0 0.0 0.0 0.0 0.0
0.0 0.0 0.0 0.0 0.0 0.0 0.0 0.0
0.0 0.0 0.0 0.0 0.0 0.0 0.0 0.0
0.0 0.0 0.0 0.0 0.0 0.0 0.0 0.0
0.0 0.0 0.0 0.0 0.0 0.0 0.0 0.0
0.0 0.0 0.0 0.0 0.0 0.0 0.0 0.0
0.0 0.0 0.0 0.0 0.0 0.91331017 0.0 0.0
0.0 0.0 0.0 0.0 0.0 0.0 0.0 0.0
0.0 0.0 0.0 0.0 0.0 0.0 0.0 0.0
0.0 0.0 0.0 0.0 0.0 0.0 0.0 0.0
0.0 0.0 0.0 0.0 0.0 0.0 0.0 0.0
0.0 0.0 0.0 0.0 0.0 0.0 0.0 0.0
0.0 0.0 0.0 0.0 0.0 0.0 0.0 0.0
0.0 0.0 0.0 0.0 0.0 0.0 0.0 0.0
0.0 0.0 0.0 0.0 0.0 0.0 0.0 0.0
0.0 0.0 0.0 0.0 0.0 0.0 0.0 0.0
0.0 0.0 0.0 0.0 0.0 0.0 0.0 0.0
0.0 0.0 0.0 0.0 0.0 0.0 0.0 0.0
0.0 0.0 0.0 0.0 0.0 0.0 0.0 0.0
0.0 -6.0068736e-22 1.0001347 0.0 0.0 0.0 0.0 0.0
0.0 0.0 0.0 0.0 0.0 0.0 0.0 0.0
0.0 0.0 0.0 0.0 0.0 0.0 0.0 0.0
0.0 0.0 0.0 0.0 0.0 0.0 0.0 0.0
0.0 0.0 0.0 0.0 0.0 0.0 0.0 0.0
0.0 0.0 0.0 0.0 0.0 0.0 0.0 0.0
0.0 0.0 0.0 0.0 0.0 0.0 0.0 0.0

cov.base_kernel.raw_lengthscale f4 [1, 2]
00000000: c813 563f 260e 663f
0.83623934 0.8986534
