slam/rbpf_slam/data/old_results/particle_gp_model/particle0.pth (torch, 44874 bytes, 4 tensors)

variational_strategy.inducing_points f4 [100, 2]
000000 a7 b1 de c2 6f f2 9f c3 54 f7 03 c2 4b a1 64 c3
       -111.34698 -319.894 -32.99153 -228.63005
000010 2f b7 cb c2 32 af a7 c3 46 22 aa c2 55 26 bb c3
       -101.85778 -335.3687 -85.06694 -374.29947
000020 cc 89 e0 c2 75 17 b7 c3 c7 53 19 c3 3f 41 aa c3
       -112.269135 -366.18326 -153.32726 -340.50974
000030 15 29 67 c2 7e 41 a3 c3 30 8e dc c2 26 da c8 c3
       -57.79012 -326.51166 -110.27771 -401.70428
000040 a0 0d 07 c3 53 2f 82 c3 06 ae 8a c2 73 61 74 c3
       -135.05322 -260.36972 -69.33989 -244.38066
000050 57 8f 3e c2 d0 87 81 c3 dc a4 bd c2 35 df 97 c3
       -47.63998 -259.06104 -94.82199 -303.7438
000060 87 f5 cc c2 d2 8b 8c c3 83 59 e8 c2 5d 9f da c3
       -102.479546 -281.09235 -116.17483 -437.24503
000070 c0 66 f9 c2 43 a7 c3 c3 70 55 cd c1 15 cd e6 c3
       -124.70068 -391.30673 -25.666718 -461.6022
000080 30 af a4 c2 b2 9d c4 c3 28 83 52 c2 5f c1 8c c3
       -82.34216 -393.232 -52.628082 -281.5107
000090 14 25 42 bf 57 44 c8 c3 60 03 35 c3 4a f1 d7 c3
       -0.75837827 -400.5339 -181.01318 -431.88507
0000a0 2c 90 b0 c2 70 5f a6 c3 8d 51 bb c2 5d 19 54 c3
       -88.281586 -332.7456 -93.65928 -212.09908
0000b0 9e fd 20 c2 72 ef 8d c3 b5 9f 48 c3 24 67 aa c3
       -40.247673 -283.87067 -200.62386 -340.8058
0000c0 bf c1 50 c3 5d 32 dc c3 c5 e2 30 c2 6a a5 8a c3
       -208.75682 -440.39346 -44.221455 -277.2923
0000d0 ca 54 e2 c2 38 3f 96 c3 ba 38 02 c3 41 43 a7 c3
       -113.1656 -300.4939 -130.22159 -334.52542
0000e0 e9 18 b7 c2 ad b2 a2 c3 5a b6 b4 c2 69 19 cd c3
       -91.54865 -325.3959 -90.356155 -410.19852
0000f0 16 f4 4e c3 e0 47 d8 c3 72 08 04 c3 58 a9 81 c3
       -206.95346 -432.56152 -132.03299 -259.323
000100 2d 7a 18 c3 4a b3 93 c3 50 88 d6 c2 bd 8a 96 c3
       -152.47725 -295.4007 -107.266235 -301.0839
000110 27 8d 76 c2 3e ae b3 c3 46 36 69 41 01 f1 8b c3
       -61.637844 -359.36127 14.57575 -279.88284
000120 63 98 8d 3f d6 89 4f c3 42 35 e7 c2 fc 6f 8a c3
       1.106213 -207.53842 -115.60402 -276.87488
000130 78 ff 09 c3 02 c9 bf c3 5f 2a 81 c2 c0 6a 96 c3
       -137.99792 -383.57037 -64.582756 -300.83398
000140 41 39 cd c2 1a d8 b1 c3 09 47 89 c2 bc 89 8f c3
       -102.611824 -355.6883 -68.63874 -287.07605
000150 5b 6f a4 c2 9d 1a a5 c3 6c 65 03 c3 64 7b c9 c3
       -82.21749 -330.20792 -131.39618 -402.964
000160 5c d9 f3 c2 09 b1 a1 c3 51 45 db c2 55 11 b6 c3
       -121.92453 -323.3831 -109.63538 -364.1354
000170 32 f4 dc c2 48 91 9d c3 87 8e a8 c2 98 69 8a c3
       -110.476944 -315.135 -84.27837 -276.82495
000180 1b 20 b5 c2 08 1a 9a c3 3f 61 c9 41 43 69 92 c3
       -90.562706 -308.20337 25.172483 -292.82236
000190 3c 18 a0 41 57 69 ef c3 99 30 b6 c2 d5 5c 89 c3
       20.011833 -478.82297 -91.09492 -274.72525
0001a0 57 3a 9c c2 3c 32 9e c3 d4 55 c5 c2 7f dd a2 c3
       -78.113945 -316.39246 -98.66763 -325.73044
0001b0 06 37 ab c2 8d 22 ae c3 2d a1 11 c2 38 d2 7a c3
       -85.60747 -348.26993 -36.4074 -250.82117
0001c0 ab 19 00 c3 d8 d6 9c c3 0e db c3 c2 35 40 b9 c3
       -128.10027 -313.67847 -97.92784 -370.50162
0001d0 d5 99 da c2 38 17 be c3 70 bd 0a 42 7d d0 eb c3
       -109.30045 -380.1814 34.684998 -471.6288
0001e0 6a 94 da c1 f4 1a a5 c3 38 8a db c2 43 81 ec c3
       -27.322468 -330.21057 -109.76996 -473.00986
0001f0 8e a9 04 c3 10 35 b8 c3 b2 ca 40 42 bc 57 85 c3
       -132.66232 -368.41455 48.197945 -266.68542
000200 b1 79 de c2 53 96 98 c3 76 f7 b9 c2 a2 1b 80 c3
       -111.23768 -305.1744 -92.98332 -256.21588
000210 f6 69 55 c3 77 84 f5 c3 8b 7a a0 c2 f1 05 da c3
       -213.41391 -491.03488 -80.23934 -436.04642
000220 64 2d 07 c3 c7 22 96 c3 66 9a 5a c3 2e 19 d6 c3
       -135.1773 -300.2717 -218.60312 -428.19672
000230 23 04 cf c2 75 4e 06 c4 e9 c3 8d c2 83 fd ba c3
       -103.50808 -537.2259 -70.88264 -373.98056
000240 b8 81 0d c3 6d 06 98 c3 47 91 ed c2 cc 9b ca c3
       -141.50671 -304.0502 -118.783745 -405.21716
000250 79 c1 0f c3 f6 35 b5 c3 23 78 03 c3 2b aa e0 c3
       -143.75575 -362.42157 -131.46928 -449.32944
000260 8e f8 ef c2 2b 72 a8 c3 e4 6a 19 c3 93 ad a7 c3
       -119.98546 -336.89194 -153.41754 -335.35605
000270 f4 65 2c c3 ae 23 d0 c3 93 e2 02 c3 eb 48 a2 c3
       -172.39825 -416.27875 -130.88506 -324.56967
000280 61 c9 56 c2 39 21 c5 c3 2b 20 18 c3 3d a1 d9 c3
       -53.69666 -394.25955 -152.12566 -435.25967
000290 26 78 5a c3 1e 88 a6 c3 a5 d2 46 c3 5a f2 b0 c3
       -218.46933 -333.06342 -198.82283 -353.89337
0002a0 00 5d ff c2 32 6a c0 c3 2b 68 f3 c2 5f 6b 9a c3
       -127.68164 -384.82965 -121.70345 -308.83884
0002b0 8e 4f c8 c2 41 b6 a0 c3 34 a6 08 c3 7c 43 a4 c3
       -100.15538 -321.42386 -136.64923 -328.52722
0002c0 0e a2 ce c2 77 10 06 c4 ff d3 d7 c2 10 cc de c3
       -103.31651 -536.25726 -107.914055 -445.59424
0002d0 92 3d 11 c3 b3 98 83 c3 ef a9 07 c3 ee 37 a1 c3
       -145.24051 -263.19296 -135.6638 -322.43695
0002e0 6b b2 04 c3 16 c2 9c c3 12 0c 45 c3 cc b0 0c c4
       -132.69695 -313.5163 -197.04715 -562.76245
0002f0 55 d7 c5 c2 a1 81 d2 c3 b3 bb 0b c3 f8 e8 ac c3
       -98.92057 -421.01273 -139.7332 -345.82007
000300 3f 76 1e c3 e9 27 a0 c3 5d 82 03 c3 93 4a a2 c3
       -158.4619 -320.3118 -131.50923 -324.5826
000310 c8 b8 84 42 1a 39 a1 c3 6b 82 1b c2 fa 19 a3 c3
       66.3609 -322.4461 -38.87736 -326.20294

variational_strategy._variational_distribution.variational_mean f4 [100]
000000 76 35 18 bf f6 1c 68 be ec 10 7b be 37 65 14 be
       -0.59456575 -0.22667298 -0.24518174 -0.14491735
000010 05 d2 4d bd cc 1c 00 bf e1 72 82 bd cf 94 4e bd
       -0.05024912 -0.5004394 -0.06369568 -0.050434884
000020 3b 0b b7 bd 92 16 25 be 58 e3 cd bd 68 9b 05 be
       -0.08937689 -0.16121891 -0.10053128 -0.13047564
000030 4a 7e d5 be 7b a7 52 bd bb 1c 58 3d 30 70 52 3d
       -0.41697913 -0.051429253 0.052761775 0.05137652
000040 83 b2 20 bd a2 ff e0 bd 67 a7 a0 be 1f 5b 17 be
       -0.039232742 -0.10986258 -0.31377718 -0.14780854
000050 9f 3a ed be c8 61 16 bd dc 39 4d bd 64 88 4e 3d
       -0.46333787 -0.036714345 -0.050104007 0.05042304
000060 9c 21 52 bd 20 ad a0 3a a8 bd 8c be c1 c2 8c be
       -0.051301584 0.0012258627 -0.27488446 -0.27492335
000070 2e 3a 8b 3c c2 a4 52 bd 94 67 4e 3d 58 1f 3f bd
       0.016995516 -0.051426657 0.05039175 -0.04666075
000080 b9 55 b3 bd 23 48 fa 3c 39 16 e2 be 74 2a 50 3d
       -0.08756585 0.030551976 -0.4415758 0.050821736
000090 6c ba 61 bd 7f 6c 34 be 21 f6 06 bd 33 a6 0e bf
       -0.055109426 -0.17619513 -0.03294957 -0.5572235
0000a0 03 0c 6b be 3c 0a 37 bd 6a 26 e5 be 8a a7 51 3d
       -0.22953801 -0.044687495 -0.4475587 0.05118517
0000b0 25 82 63 be 03 f7 4f 3d 22 51 9a be 49 bf dd be
       -0.22217615 0.050772678 -0.30140024 -0.43310001
0000c0 48 c7 17 be 4c 3b 3c bd 63 8c 50 3d 48 a3 49 be
       -0.14822114 -0.045954987 0.050915133 -0.19691193
0000d0 97 07 a9 bc b9 5a eb be 28 d8 da be 9c 01 4c bd
       -0.020633502 -0.45967653 -0.4274304 -0.049806222
0000e0 5d 9f cf be e2 08 8f be 67 e2 89 bd 64 b1 e5 be
       -0.40551272 -0.27936465 -0.06732636 -0.448619
0000f0 46 71 c4 be b2 38 a1 3c d1 2c 86 be 18 ab 38 bd
       -0.3836767 0.019680355 -0.26206067 -0.045085043
000100 0b 0e ca be a3 9a bb be 9b 16 52 bd 1f 92 53 3d
       -0.3946384 -0.36641416 -0.05129109 0.051653024
000110 8d 3e e6 3c ed 95 4a 3d c5 38 4f be ce 39 2b be
       0.028105998 0.049459387 -0.202365 -0.1672127
000120 46 43 76 be b8 1e 45 be 91 af e5 bd 34 06 0c be
       -0.240491 -0.1925 -0.11215127 -0.13674241
000130 76 80 50 be ba c0 4d be 60 3c 0a be 74 1f f7 be
       -0.20361504 -0.2009305 -0.13499594 -0.48266184
000140 a2 a6 4f bd 6b 87 aa be e2 f9 49 bd b0 53 5e bd
       -0.050696023 -0.3330644 -0.049310572 -0.05427903
000150 20 a3 92 be 66 ad 4a be a0 fd f8 be e6 70 03 bf
       -0.2864008 -0.19792709 -0.48631 -0.51344144
000160 b1 58 51 be cf c4 25 bd 6f cf 7c be 1e 8b 13 bf
       -0.2044399 -0.040470894 -0.24688505 -0.5763415
000170 44 17 46 be 4e 17 4e bd e8 dc a8 be c6 7f 7c be
       -0.19344813 -0.050315194 -0.32981038 -0.24658117
000180 5c 61 51 bd 87 92 87 be ff 72 4f 3d 27 41 4e 3d
       -0.05111824 -0.2647898 0.05064678 0.050355103

variational_strategy._variational_distribution.chol_variational_covar f4 [100, 100]
000000 0f ff 72 3f 00 00 00 00 00 00 00 00 00 00 00 00
       0.9492044 0.0 0.0 0.0
000010 00 00 00 00 00 00 00 00 00 00 00 00 00 00 00 00
       0.0 0.0 0.0 0.0
000020 00 00 00 00 00 00 00 00 00 00 00 00 00 00 00 00
       0.0 0.0 0.0 0.0
000030 00 00 00 00 00 00 00 00 00 00 00 00 00 00 00 00
       0.0 0.0 0.0 0.0
000040 00 00 00 00 00 00 00 00 00 00 00 00 00 00 00 00
       0.0 0.0 0.0 0.0
000050 00 00 00 00 00 00 00 00 00 00 00 00 00 00 00 00
       0.0 0.0 0.0 0.0
000060 00 00 00 00 00 00 00 00 00 00 00 00 00 00 00 00
       0.0 0.0 0.0 0.0
000070 00 00 00 00 00 00 00 00 00 00 00 00 00 00 00 00
       0.0 0.0 0.0 0.0
000080 00 00 00 00 00 00 00 00 00 00 00 00 00 00 00 00
       0.0 0.0 0.0 0.0
000090 00 00 00 00 00 00 00 00 00 00 00 00 00 00 00 00
       0.0 0.0 0.0 0.0
0000a0 00 00 00 00 00 00 00 00 00 00 00 00 00 00 00 00
       0.0 0.0 0.0 0.0
0000b0 00 00 00 00 00 00 00 00 00 00 00 00 00 00 00 00
       0.0 0.0 0.0 0.0
0000c0 00 00 00 00 00 00 00 00 00 00 00 00 00 00 00 00
       0.0 0.0 0.0 0.0
0000d0 00 00 00 00 00 00 00 00 00 00 00 00 00 00 00 00
       0.0 0.0 0.0 0.0
0000e0 00 00 00 00 00 00 00 00 00 00 00 00 00 00 00 00
       0.0 0.0 0.0 0.0
0000f0 00 00 00 00 00 00 00 00 00 00 00 00 00 00 00 00
       0.0 0.0 0.0 0.0
000100 00 00 00 00 00 00 00 00 00 00 00 00 00 00 00 00
       0.0 0.0 0.0 0.0
000110 00 00 00 00 00 00 00 00 00 00 00 00 00 00 00 00
       0.0 0.0 0.0 0.0
000120 00 00 00 00 00 00 00 00 00 00 00 00 00 00 00 00
       0.0 0.0 0.0 0.0
000130 00 00 00 00 00 00 00 00 00 00 00 00 00 00 00 00
       0.0 0.0 0.0 0.0
000140 00 00 00 00 00 00 00 00 00 00 00 00 00 00 00 00
       0.0 0.0 0.0 0.0
000150 00 00 00 00 00 00 00 00 00 00 00 00 00 00 00 00
       0.0 0.0 0.0 0.0
000160 00 00 00 00 00 00 00 00 00 00 00 00 00 00 00 00
       0.0 0.0 0.0 0.0
000170 00 00 00 00 00 00 00 00 00 00 00 00 00 00 00 00
       0.0 0.0 0.0 0.0
000180 00 00 00 00 00 00 00 00 00 00 00 00 00 00 00 00
       0.0 0.0 0.0 0.0
000190 00 00 00 00 2e ba 77 3f 00 00 00 00 00 00 00 00
       0.0 0.9676846 0.0 0.0
0001a0 00 00 00 00 00 00 00 00 00 00 00 00 00 00 00 00
       0.0 0.0 0.0 0.0
0001b0 00 00 00 00 00 00 00 00 00 00 00 00 00 00 00 00
       0.0 0.0 0.0 0.0
0001c0 00 00 00 00 00 00 00 00 00 00 00 00 00 00 00 00
       0.0 0.0 0.0 0.0
0001d0 00 00 00 00 00 00 00 00 00 00 00 00 00 00 00 00
       0.0 0.0 0.0 0.0
0001e0 00 00 00 00 00 00 00 00 00 00 00 00 00 00 00 00
       0.0 0.0 0.0 0.0
0001f0 00 00 00 00 00 00 00 00 00 00 00 00 00 00 00 00
       0.0 0.0 0.0 0.0
000200 00 00 00 00 00 00 00 00 00 00 00 00 00 00 00 00
       0.0 0.0 0.0 0.0
000210 00 00 00 00 00 00 00 00 00 00 00 00 00 00 00 00
       0.0 0.0 0.0 0.0
000220 00 00 00 00 00 00 00 00 00 00 00 00 00 00 00 00
       0.0 0.0 0.0 0.0
000230 00 00 00 00 00 00 00 00 00 00 00 00 00 00 00 00
       0.0 0.0 0.0 0.0
000240 00 00 00 00 00 00 00 00 00 00 00 00 00 00 00 00
       0.0 0.0 0.0 0.0
000250 00 00 00 00 00 00 00 00 00 00 00 00 00 00 00 00
       0.0 0.0 0.0 0.0
000260 00 00 00 00 00 00 00 00 00 00 00 00 00 00 00 00
       0.0 0.0 0.0 0.0
000270 00 00 00 00 00 00 00 00 00 00 00 00 00 00 00 00
       0.0 0.0 0.0 0.0
000280 00 00 00 00 00 00 00 00 00 00 00 00 00 00 00 00
       0.0 0.0 0.0 0.0
000290 00 00 00 00 00 00 00 00 00 00 00 00 00 00 00 00
       0.0 0.0 0.0 0.0
0002a0 00 00 00 00 00 00 00 00 00 00 00 00 00 00 00 00
       0.0 0.0 0.0 0.0
0002b0 00 00 00 00 00 00 00 00 00 00 00 00 00 00 00 00
       0.0 0.0 0.0 0.0
0002c0 00 00 00 00 00 00 00 00 00 00 00 00 00 00 00 00
       0.0 0.0 0.0 0.0
0002d0 00 00 00 00 00 00 00 00 00 00 00 00 00 00 00 00
       0.0 0.0 0.0 0.0
0002e0 00 00 00 00 00 00 00 00 00 00 00 00 00 00 00 00
       0.0 0.0 0.0 0.0
0002f0 00 00 00 00 00 00 00 00 00 00 00 00 00 00 00 00
       0.0 0.0 0.0 0.0
000300 00 00 00 00 00 00 00 00 00 00 00 00 00 00 00 00
       0.0 0.0 0.0 0.0
000310 00 00 00 00 00 00 00 00 00 00 00 00 00 00 00 00
       0.0 0.0 0.0 0.0
000320 2b be 90 bc 00 00 00 00 87 69 78 3f 00 00 00 00
       -0.017668804 0.0 0.9703602 0.0
000330 00 00 00 00 00 00 00 00 00 00 00 00 00 00 00 00
       0.0 0.0 0.0 0.0
000340 00 00 00 00 00 00 00 00 00 00 00 00 00 00 00 00
       0.0 0.0 0.0 0.0
000350 00 00 00 00 00 00 00 00 00 00 00 00 00 00 00 00
       0.0 0.0 0.0 0.0
000360 00 00 00 00 00 00 00 00 00 00 00 00 00 00 00 00
       0.0 0.0 0.0 0.0
000370 00 00 00 00 00 00 00 00 00 00 00 00 00 00 00 00
       0.0 0.0 0.0 0.0
000380 00 00 00 00 00 00 00 00 00 00 00 00 00 00 00 00
       0.0 0.0 0.0 0.0
000390 00 00 00 00 00 00 00 00 00 00 00 00 00 00 00 00
       0.0 0.0 0.0 0.0
0003a0 00 00 00 00 00 00 00 00 00 00 00 00 00 00 00 00
       0.0 0.0 0.0 0.0
0003b0 00 00 00 00 00 00 00 00 00 00 00 00 00 00 00 00
       0.0 0.0 0.0 0.0
0003c0 00 00 00 00 00 00 00 00 00 00 00 00 00 00 00 00
       0.0 0.0 0.0 0.0
0003d0 00 00 00 00 00 00 00 00 00 00 00 00 00 00 00 00
       0.0 0.0 0.0 0.0
0003e0 00 00 00 00 00 00 00 00 00 00 00 00 00 00 00 00
       0.0 0.0 0.0 0.0
0003f0 00 00 00 00 00 00 00 00 00 00 00 00 00 00 00 00
       0.0 0.0 0.0 0.0

cov.base_kernel.raw_lengthscale f4 [1, 2]
000000 47 79 10 3f 70 ef 5e 3f
       0.56435055 0.870841
