slam/rbpf_slam/data/old_results/works_w_more_particles/svgp_particle9.pth (torch, 367369 bytes, 4 tensors)

variational_strategy.inducing_points f4 [300, 2]
00000000: cd4d 8d43 16db 78c3 eee6 9343 afe9 5cc3
00000010: 4476 a943 e524 02c3 a887 4d43 6e24 bec2
00000020: 7528 ae43 dde6 68c3 86ac 6943 aed9 6dc3
00000030: 34d6 7c43 7912 93c3 3e60 5543 0701 46c3
00000040: 8b2d 8043 37cb 4bc3 a969 8a43 1349 1dc3
00000050: e210 cb43 2942 60c3 d9b1 9c43 f3ec 96c3
00000060: 1619 8743 419d 91c3 7542 8943 8492 a5c3
00000070: a5ac 8743 81ae 68c3 cc31 8243 baaa 33c3
00000080: 1e91 cf43 e10a 0ec3 db68 8843 fdc5 abc2
00000090: 0a55 ad43 1753 7ec3 f3fa d443 f948 14c3
000000a0: 4e49 8643 2ad5 85c3 f803 9b43 e3a2 1ac3
000000b0: ef2d 9d43 4f34 67c3 1a50 6943 80e2 63c3
000000c0: c356 9843 a2bd f9c2 3a08 c543 f8d5 e1c2
000000d0: ce4a bd43 248a edc2 05e5 e343 cbb8 41c3
000000e0: f3c3 e143 48a5 16c3 4b10 4b43 0de9 f5c2
000000f0: cd2c 8943 f6e4 0fc3 628d 8343 cd0e 88c3
00000100: 304d ce43 66fb 98c3 0a90 7b43 43a9 87c3
00000110: 3a66 ba43 d2ca 27c3 a64a 6943 84f2 13c3
00000120: 2183 b943 11ec 42c3 c1a6 8f43 e7fa acc3
00000130: 077a 6b43 8c7b bfc2 f96e 8243 17aa 10c3
00000140: 8c54 cb43 13e0 0bc3 e14c 6743 8553 5fc3
00000150: 0b36 d043 7cf1 0bc3 76a5 7a43 8941 3ac3
00000160: cf64 7b43 b68a 89c3 4bbf 8443 47c5 3fc3
00000170: dcfc 8443 9f01 9bc3 5a5e 8443 e13f 2fc3
00000180: 7273 6b43 48cb abc2 44e7 9643 f122 96c2
00000190: 1f8e 6c43 541a 28c3 1845 8543 cca5 60c3
000001a0: 20be aa43 0eb5 00c3 2da2 e443 39a4 3fc3
000001b0: 77bc 9643 66a4 8fc3 6246 8043 5fcf c4c2
000001c0: 2926 ab43 599a 3ec3 a40b c043 439d 27c3
000001d0: 4d8f e943 08e8 6ac3 071a d443 7f22 0ac3
000001e0: 55a8 8943 0bfc 5bc3 bad1 8543 36ca 39c3
000001f0: 086a a043 bdc6 30c3 b8e3 9943 46d1 b1c3
00000200: 6a17 a543 8ca8 26c3 8bb1 6843 3165 ffc2
00000210: 87df 8d43 fbad 83c3 e300 d943 acd1 28c3
00000220: eb73 8243 313b 8ac3 f969 ba43 cf82 44c3
00000230: 170b 9043 bca2 8ec2 85db bb43 db35 15c3
00000240: 6f08 c243 78eb 59c3 9baf 9443 5413 3ec3
00000250: 38cd 9843 9353 08c3 b564 b143 22d6 30c3
00000260: 8799 a443 45ee 68c3 8a49 a843 e70b a5c3
00000270: 98a3 8a43 551d 06c3 1f88 5843 be0e a6c2
00000280: 48dd 7843 6bd0 f1c2 d18c 7843 2485 25c3
00000290: 0f34 d343 64a6 7fc3 68be a643 c39c 99c3
000002a0: d894 c743 7a61 16c3 4e47 8d43 6e3a 09c3
000002b0: f6ff 4843 026f c0c2 1913 8043 678a 42c3
000002c0: 0c0e 5a43 6f61 2cc3 f6e2 d843 0373 21c3
000002d0: a62d cb43 2606 96c3 8f9d a643 ac0a 2ec3
000002e0: 57ee 9243 28ce 4dc3 c56e 7243 a7ca 3ac3
000002f0: 9ca3 5243 ac6c d9c2 bd5c 7d43 e7a8 40c3
00000300: 4f9b 9b43 32d9 25c3 823c 5e43 5335 0dc3
00000310: 9fe9 b543 000f fcc2 d0a8 4843 8b67 d9c2
00000320: 93b1 b843 96a4 8fc3 b13c a543 df0c 22c3
00000330: 125b 7143 7846 08c3 5602 a743 f20e 35c3
00000340: 52ee 5043 186e 33c3 568a a743 7479 f2c2
00000350: 1bfe 6c43 5948 20c3 b760 9143 b875 05c3
00000360: ea9a 9743 4d17 17c3 64dc 8d43 a6a1 70c3
00000370: 67e6 b343 11e0 17c3 459d 9a43 78c1 52c3
00000380: b678 b743 838f 33c3 2cb6 9343 8b64 81c3
00000390: 3a22 5443 29d9 96c2 b74e a143 1801 e7c2
000003a0: b1c3 8543 771a 65c3 4a75 a243 2a1c cbc2
000003b0: c894 9743 113d 45c3 f22f c243 14ea 0fc3
000003c0: 1b07 a043 1459 9bc3 55fc 8843 df0a 6cc3
000003d0: c0c4 9b43 2829 2bc3 bb53 9d43 1c16 1dc3
000003e0: 68d5 ad43 f607 d9c2 567a 6543 e565 1ec2
000003f0: 2669 dc43 7f49 44c3 7b5b 9743 fbe6 3fc3
282.60782 -248.8558 295.80414 -220.91283 338.92395 -130.14412 205.5299 -95.07115
348.31607 -232.90181 233.67392 -237.85031 252.83673 -294.14432 213.37595 -198.00401
256.3558 -203.79381 276.82547 -157.28545 406.1319 -224.25844 313.38943 -301.85117
270.19598 -291.22855 274.5192 -331.14465 271.3488 -232.68166 260.38904 -179.6669
415.13373 -142.0425 272.81918 -85.886696 346.66437 -254.32457 425.96054 -148.28505
268.5727 -267.66534 310.031 -154.63628 314.35886 -231.20433 233.3129 -227.88477
304.67783 -124.87038 394.06427 -112.91791 378.5844 -118.769806 455.7892 -193.72185
451.53085 -150.64563 203.06364 -122.95518 274.35 -143.89438 263.10455 -272.11563
412.60303 -305.96405 251.56265 -271.32236 372.79865 -167.79227 233.2916 -147.94733
371.02444 -194.92213 287.30276 -345.96017 235.47667 -95.7413 260.86697 -144.66441
406.66052 -139.87529 231.30031 -223.32625 416.4222 -139.9433 250.64633 -186.256
251.39378 -275.08368 265.49448 -191.77061 265.97546 -310.01266 264.73712 -175.24953
235.45096 -85.89703 301.80676 -75.068245 236.55516 -168.10284 266.5398 -224.64764
341.48535 -128.70724 457.267 -191.6415 301.47238 -287.28436 256.54987 -98.40502
342.29813 -190.60292 384.09094 -167.6143 467.11954 -234.90637 424.20334 -138.13475
275.3151 -219.98454 267.6385 -185.78989 320.82837 -176.77632 307.77905 -355.63495
330.18292 -166.65839 232.69353 -127.69764 283.7463 -263.35922 434.00693 -168.81903
260.9056 -276.46243 372.8279 -196.51097 288.08664 -71.31784 375.715 -149.21037
388.0659 -217.9198 297.37192 -190.0755 305.60327 -136.32646 354.78677 -176.83646
329.19943 -232.93074 336.57452 -330.093 277.27808 -134.11458 216.53172 -83.02879
248.86438 -120.90707 248.55006 -165.52008 422.4067 -255.64996 333.48755 -307.2247
399.16284 -150.38077 282.55707 -137.22824 200.99985 -96.21681 256.1492 -194.54063
218.05487 -172.3806 433.77313 -161.44926 406.35663 -300.04803 333.23093 -174.04169
293.86203 -205.8053 242.4327 -186.79161 210.6391 -108.71225 253.36226 -192.65977
311.21335 -165.84842 222.23636 -141.2083 363.82516 -126.0293 200.65942 -108.70223
369.3873 -287.28583 330.47415 -162.05028 241.35574 -136.27527 334.01825 -181.05838
208.93094 -179.43005 335.08075 -121.23721 236.9926 -160.28261 290.75558 -133.45984
303.21027 -151.09102 283.7218 -240.63144 359.80002 -151.87526 309.22867 -210.75574
366.94305 -179.5606 295.42322 -258.7855 212.1337 -75.42414 322.61496 -115.50214
267.52884 -229.10338 324.91632 -101.55501 303.16235 -197.23854 388.37457 -143.91437
320.0555 -310.69592 273.97134 -236.04247 311.5371 -171.16077 314.65414 -157.08636
347.66724 -108.51555 229.47787 -39.599506 440.82147 -196.2871 302.7147 -191.90227

variational_strategy._variational_distribution.variational_mean f4 [300]
00000000: 234c 48c1 57f7 f5c0 6e44 37c1 20f9 2dc1
00000010: 27d3 29c1 69cd 11c1 b13e d9c0 364a fec0
00000020: 7876 88c0 d325 00c1 01b4 29c1 b681 0fc1
00000030: a818 65c0 3bcc b2c0 7742 aebf 5f87 f4bf
00000040: c8d4 11c1 7e0a 0ac1 2de7 52c0 68da 66c0
00000050: 553e 2cc0 59d1 48c0 1c2c d6bf 1ce0 1dbf
00000060: ec2c c0bf a23c bdc0 e95b 50c0 411f 15c1
00000070: c7ef 62c0 a366 a1c0 19ba c6bf d30c 99bf
00000080: 8b6c 01c1 d392 6abf e5c3 c5c0 bc2e 4dc0
00000090: ccd2 51c0 7ad0 a4c0 0e0a c5bf 5ee3 0bbe
000000a0: d83a 91bf 9071 b9be ffba 6cbf b46f c8be
000000b0: 99f8 423f 84f4 5cbf afcc 8fbf 65cc e7be
000000c0: a1ec 37c0 8c38 97c0 345b 28bf a0bb 71bd
000000d0: a263 72bf 6ecc 80bf da46 c5bf 1cce 6ebf
000000e0: 2e5f 1dc0 7963 e5bf 8bc6 f6c0 0b3f 61be
000000f0: 7337 d73d c5da 0ebf b5e6 d8bf 97a7 bdc0
00000100: cc2e 38bf 0d15 a6be 9334 0cbf a598 71bf
00000110: 621c 10be 5c89 23bf 077d 2dbf 22a6 9d3e
00000120: e45d 0cbf c53f 9cbf fc70 803e c79a 3abe
00000130: 8e04 9a3e 9cc0 a0c0 61b6 f6be 5d12 07c0
00000140: d333 77bf 1291 1c3f 9383 7bc0 e25f 27c0
00000150: c411 b8be 2eba 4d3d bcf8 ffbf 39b1 5c3d
00000160: db40 3cc0 1d92 083f 49e2 39c0 fd36 333e
00000170: 24f4 54be eebe 8ebd ed86 273f 486d 19be
00000180: 39e4 e23d af01 3dbe 25c7 a9be 2249 e63d
00000190: d9b7 5cc0 ef62 91be 8082 1dbd bfc2 ec3c
000001a0: ad31 06c0 f6c3 fbbf 371d 15be 2ab7 fa3c
000001b0: 444b 5abe 010f 8bbd a7e6 1ebf 5d9c 7fbe
000001c0: 44fd b4bd 93d3 92bf b8e9 0ec0 62ac 3cbf
000001d0: 7116 25be d978 0ec0 31f4 4abd 8265 2f3e
000001e0: 80ee 193f d78d 0cbe 39a1 0abd 6a19 723c
000001f0: db44 cebf 30c0 43c0 d1a6 93bf d1e4 a5bc
00000200: efcb 3dbe d92d 2abe fced 6a3c 54c8 35c0
00000210: 7ce2 0abb e041 293c 3c01 29bf 6d66 96be
00000220: f439 aabd 29fa 41bf 56a3 ffbe 372a c13d
00000230: d371 4bbe a99f ca3d 985d bd3e c0f4 dbbb
00000240: 77b9 6f3c 425d 3b3e e429 c2bd de5e 36bd
00000250: aa56 58be 8e87 90bd 3408 a7bd 3944 8bbf
00000260: a084 363b e274 59c0 26aa f6be e75b 3cbf
00000270: 3f5f 4abe 53ee 313d 58d8 acbc aa4d 73bd
00000280: fa97 42be bcba c2be 1530 e13d 68ca 243c
00000290: 4010 0cbe 0e51 86bf d0ca 10be a420 50be
000002a0: 50e7 07c0 e4df 4bbe 1208 0bbf 90c3 10bf
000002b0: dbf8 79bd cdbf e0be 9a23 ccbd 8540 3abf
000002c0: 881c 08c0 9e40 babf 4d39 c7bd 3d47 62be
000002d0: cf9a 85be abf6 edbd 4bd7 06bf 85f6 c43c
000002e0: 2a99 81be 625e 913d 353e 52be cdab 2abc
000002f0: 2f36 08bc c09f 633f 1426 3cbd 2407 54c0
00000300: 12dc fe3d a191 fb3d 8cab f6be 141a 82bf
00000310: 0a35 60bf 17d9 bbbe 9732 1b3d 02c2 483d
00000320: ad84 1dbd 65bf e6bd 5c10 93bc a61d e03e
00000330: 677f 69bd 23be 5ebe a72c 45be 94c0 d6bb
00000340: 841d 57bd fad1 543b b3a9 fabe fdf8 fcbd
00000350: 2a41 b6bf 648c bbbe 3c09 163d be4e dc3b
00000360: 002a 2b3d fdff d53d 82bb 26bd c451 44be
00000370: 741c f33a c968 b43e ad22 ef3c cc5e 92bf
00000380: c28e 903e c657 f6bf 89ef bfbf 5003 09be
00000390: bdb8 23be 9291 b03b 5a5a c0be e56d 6ebd
000003a0: 825a 7dbc caf8 d4bd 6872 76bd b4e0 99c0
000003b0: e726 a5be 4ac2 08bd 77d6 2fbe 8013 2cba
000003c0: 7892 a23b 4a15 793c a2fd 8e3b 8037 4dbe
000003d0: e7f3 80be df0f d73c 58ee 563b 5a06 b73d
000003e0: 53e4 a0be cd0c 743d db5f c53e 1182 e53d
000003f0: 12a1 c1b9 aacc e63d d7cb 03bf e40c 693c
-12.518588 -7.686443 -11.454206 -10.873322 -10.614051 -9.112649 -6.7889028 -7.946559
-4.2644615 -8.009234 -10.606446 -8.969168 -3.57963 -5.5874305 -1.3614033 -1.9103812
-9.114449 -8.627562 -3.2953598 -3.6070805 -2.6913044 -3.1377776 -1.6732211 -0.6167009
-1.5013709 -5.9136515 -3.2556098 -9.32013 -3.5458848 -5.043779 -1.5525542 -1.1957039
-8.089 -0.91630286 -6.180163 -3.2059774 -3.278491 -5.150449 -1.5393693 -0.13660952
-1.1346083 -0.36219454 -0.92472833 -0.39147723 0.7616058 -0.863106 -1.123434 -0.45273128
-2.8738177 -4.7256527 -0.65764165 -0.059016824 -0.9468328 -1.0062387 -1.5412247 -0.9328325
-2.4589343 -1.7920982 -7.711736 -0.21996705 0.10508623 -0.55802566 -1.6945406 -5.9267077
-0.71946406 -0.32437935 -0.5476772 -0.9437354 -0.14073327 -0.6388147 -0.677689 0.30790812
-0.54830766 -1.2206961 0.250862 -0.18223105 0.300816 -5.023512 -0.4818602 -2.1104958
-0.9656345 0.6115886 -3.9299057 -2.6152272 -0.35951054 0.050226383 -1.9997783 0.05387995
-2.9414585 0.5334795 -2.9044363 0.17501445 -0.20796257 -0.06970011 0.65440255 -0.14983094
0.11078686 -0.18457673 -0.33159748 0.11244418 -3.4487212 -0.28395793 -0.038454533 0.028901456
-2.096782 -1.9669178 -0.14561926 0.030604918 -0.21317774 -0.06789971 -0.620707 -0.24961992
-0.08837369 -1.1470817 -2.233015 -0.73700535 -0.16121842 -2.226126 -0.049549285 0.17128566
0.6012955 -0.13725983 -0.03384516 0.014776567 -1.6114763 -3.0586052 -1.1535283 -0.02025071
-0.18534826 -0.16619052 0.014338966 -2.840352 -0.0021192124 0.010330647 -0.6601751 -0.2937502
-0.08311835 -0.7577234 -0.49929303 0.0943188 -0.19867639 0.09893734 0.3698547 -0.006712526
0.014631621 0.18297294 -0.09480646 -0.044524066 -0.2112681 -0.07057105 -0.081558615 -1.0880195
0.0027850047 -3.397759 -0.48176688 -0.7357773 -0.19762896 0.043440174 -0.021099254 -0.059400238
-0.19003287 -0.38033092 0.10995499 0.010058023 -0.13678074 -1.0493486 -0.14139867 -0.20324951
-2.1234932 -0.19909626 -0.5430919 -0.56548405 -0.061028343 -0.43896332 -0.09967728 -0.727547
-2.1267414 -1.455097 -0.09727726 -0.22097488 -0.26094672 -0.11619314 -0.5267226 0.02404333
-0.25312167 0.0709808 -0.20531543 -0.010416937 -0.0083137 0.88915634 -0.04593475 -3.3129358
0.12444319 0.12283636 -0.48177755 -1.0164208 -0.8758093 -0.36689064 0.037890043 0.049013145
-0.038456608 -0.11266974 -0.017952137 0.4377262 -0.057006266 -0.21752219 -0.19255315 -0.006553719
-0.052518383 0.0032473789 -0.48957595 -0.12352178 -1.4238636 -0.36630547 0.0366299 0.006723254
0.0417881 0.104492165 -0.040706165 -0.19171816 0.0018547908 0.35236195 0.02919134 -1.143518
0.28233916 -1.9245536 -1.4994975 -0.1338017 -0.15988441 0.005388447 -0.37568933 -0.058210272
-0.015463473 -0.10399015 -0.0601677 -4.8086796 -0.32256243 -0.033388413 -0.17171656 -0.0006564185
0.004961308 0.01520283 0.0043637315 -0.20040703 -0.25186083 0.026252685 0.0032795873 0.08936758
-0.31424198 0.05958252 0.38549694 0.11206449 -0.00036931835 0.11269505 -0.5148291 0.014224265

variational_strategy._variational_distribution.chol_variational_covar f4 [300, 300]
00000000: fdbb a33e 0000 0000 0000 0000 0000 0000
00000010: 0000 0000 0000 0000 0000 0000 0000 0000
00000020: 0000 0000 0000 0000 0000 0000 0000 0000
00000030: 0000 0000 0000 0000 0000 0000 0000 0000
00000040: 0000 0000 0000 0000 0000 0000 0000 0000
00000050: 0000 0000 0000 0000 0000 0000 0000 0000
00000060: 0000 0000 0000 0000 0000 0000 0000 0000
00000070: 0000 0000 0000 0000 0000 0000 0000 0000
00000080: 0000 0000 0000 0000 0000 0000 0000 0000
00000090: 0000 0000 0000 0000 0000 0000 0000 0000
000000a0: 0000 0000 0000 0000 0000 0000 0000 0000
000000b0: 0000 0000 0000 0000 0000 0000 0000 0000
000000c0: 0000 0000 0000 0000 0000 0000 0000 0000
000000d0: 0000 0000 0000 0000 0000 0000 0000 0000
000000e0: 0000 0000 0000 0000 0000 0000 0000 0000
000000f0: 0000 0000 0000 0000 0000 0000 0000 0000
00000100: 0000 0000 0000 0000 0000 0000 0000 0000
00000110: 0000 0000 0000 0000 0000 0000 0000 0000
00000120: 0000 0000 0000 0000 0000 0000 0000 0000
00000130: 0000 0000 0000 0000 0000 0000 0000 0000
00000140: 0000 0000 0000 0000 0000 0000 0000 0000
00000150: 0000 0000 0000 0000 0000 0000 0000 0000
00000160: 0000 0000 0000 0000 0000 0000 0000 0000
00000170: 0000 0000 0000 0000 0000 0000 0000 0000
00000180: 0000 0000 0000 0000 0000 0000 0000 0000
00000190: 0000 0000 0000 0000 0000 0000 0000 0000
000001a0: 0000 0000 0000 0000 0000 0000 0000 0000
000001b0: 0000 0000 0000 0000 0000 0000 0000 0000
000001c0: 0000 0000 0000 0000 0000 0000 0000 0000
000001d0: 0000 0000 0000 0000 0000 0000 0000 0000
000001e0: 0000 0000 0000 0000 0000 0000 0000 0000
000001f0: 0000 0000 0000 0000 0000 0000 0000 0000
00000200: 0000 0000 0000 0000 0000 0000 0000 0000
00000210: 0000 0000 0000 0000 0000 0000 0000 0000
00000220: 0000 0000 0000 0000 0000 0000 0000 0000
00000230: 0000 0000 0000 0000 0000 0000 0000 0000
00000240: 0000 0000 0000 0000 0000 0000 0000 0000
00000250: 0000 0000 0000 0000 0000 0000 0000 0000
00000260: 0000 0000 0000 0000 0000 0000 0000 0000
00000270: 0000 0000 0000 0000 0000 0000 0000 0000
00000280: 0000 0000 0000 0000 0000 0000 0000 0000
00000290: 0000 0000 0000 0000 0000 0000 0000 0000
000002a0: 0000 0000 0000 0000 0000 0000 0000 0000
000002b0: 0000 0000 0000 0000 0000 0000 0000 0000
000002c0: 0000 0000 0000 0000 0000 0000 0000 0000
000002d0: 0000 0000 0000 0000 0000 0000 0000 0000
000002e0: 0000 0000 0000 0000 0000 0000 0000 0000
000002f0: 0000 0000 0000 0000 0000 0000 0000 0000
00000300: 0000 0000 0000 0000 0000 0000 0000 0000
00000310: 0000 0000 0000 0000 0000 0000 0000 0000
00000320: 0000 0000 0000 0000 0000 0000 0000 0000
00000330: 0000 0000 0000 0000 0000 0000 0000 0000
00000340: 0000 0000 0000 0000 0000 0000 0000 0000
00000350: 0000 0000 0000 0000 0000 0000 0000 0000
00000360: 0000 0000 0000 0000 0000 0000 0000 0000
00000370: 0000 0000 0000 0000 0000 0000 0000 0000
00000380: 0000 0000 0000 0000 0000 0000 0000 0000
00000390: 0000 0000 0000 0000 0000 0000 0000 0000
000003a0: 0000 0000 0000 0000 0000 0000 0000 0000
000003b0: 0000 0000 0000 0000 0000 0000 0000 0000
000003c0: 0000 0000 0000 0000 0000 0000 0000 0000
000003d0: 0000 0000 0000 0000 0000 0000 0000 0000
000003e0: 0000 0000 0000 0000 0000 0000 0000 0000
000003f0: 0000 0000 0000 0000 0000 0000 0000 0000
0.3197936 0.0 0.0 0.0 0.0 0.0 0.0 0.0
0.0 0.0 0.0 0.0 0.0 0.0 0.0 0.0
0.0 0.0 0.0 0.0 0.0 0.0 0.0 0.0
0.0 0.0 0.0 0.0 0.0 0.0 0.0 0.0
0.0 0.0 0.0 0.0 0.0 0.0 0.0 0.0
0.0 0.0 0.0 0.0 0.0 0.0 0.0 0.0
0.0 0.0 0.0 0.0 0.0 0.0 0.0 0.0
0.0 0.0 0.0 0.0 0.0 0.0 0.0 0.0
0.0 0.0 0.0 0.0 0.0 0.0 0.0 0.0
0.0 0.0 0.0 0.0 0.0 0.0 0.0 0.0
0.0 0.0 0.0 0.0 0.0 0.0 0.0 0.0
0.0 0.0 0.0 0.0 0.0 0.0 0.0 0.0
0.0 0.0 0.0 0.0 0.0 0.0 0.0 0.0
0.0 0.0 0.0 0.0 0.0 0.0 0.0 0.0
0.0 0.0 0.0 0.0 0.0 0.0 0.0 0.0
0.0 0.0 0.0 0.0 0.0 0.0 0.0 0.0
0.0 0.0 0.0 0.0 0.0 0.0 0.0 0.0
0.0 0.0 0.0 0.0 0.0 0.0 0.0 0.0
0.0 0.0 0.0 0.0 0.0 0.0 0.0 0.0
0.0 0.0 0.0 0.0 0.0 0.0 0.0 0.0
0.0 0.0 0.0 0.0 0.0 0.0 0.0 0.0
0.0 0.0 0.0 0.0 0.0 0.0 0.0 0.0
0.0 0.0 0.0 0.0 0.0 0.0 0.0 0.0
0.0 0.0 0.0 0.0 0.0 0.0 0.0 0.0
0.0 0.0 0.0 0.0 0.0 0.0 0.0 0.0
0.0 0.0 0.0 0.0 0.0 0.0 0.0 0.0
0.0 0.0 0.0 0.0 0.0 0.0 0.0 0.0
0.0 0.0 0.0 0.0 0.0 0.0 0.0 0.0
0.0 0.0 0.0 0.0 0.0 0.0 0.0 0.0
0.0 0.0 0.0 0.0 0.0 0.0 0.0 0.0
0.0 0.0 0.0 0.0 0.0 0.0 0.0 0.0
0.0 0.0 0.0 0.0 0.0 0.0 0.0 0.0

cov.base_kernel.raw_lengthscale f4 [1, 2]
00000000: de4c 0142 3120 fe41
32.325066 31.765718
