slam/rbpf_slam/data/old_results/works_w_more_particles/svgp_particle2.pth (torch, 367369 bytes, 4 tensors)

variational_strategy.inducing_points f4 [300, 2]
000000 e6 0f 92 43 10 ae 2c c3 4e 77 a8 43 9f 5d dc c2
       292.1242 -172.67993 336.93207 -110.18285
000010 1f 23 69 43 b7 c4 77 c3 e0 f3 87 43 d6 b5 d9 c2
       233.13719 -247.76842 271.90527 -108.85515
000020 51 f9 75 43 63 c7 f1 c2 3a 6d aa 43 11 f5 3c c3
       245.97389 -120.88943 340.85333 -188.95729
000030 19 60 93 43 4e da 8d c2 89 ee a4 43 3b 96 64 c3
       294.75076 -70.92638 329.86356 -228.58684
000040 60 ec 85 43 b5 af 2e c3 30 31 92 43 95 5e 99 c3
       267.84668 -174.68636 292.38428 -306.73892
000050 9e b6 92 43 f0 66 86 c3 5a b5 91 43 09 eb a6 c3
       293.4267 -268.8042 291.4168 -333.8362
000060 aa 09 bc 43 13 0c f3 c2 6f 0f 97 43 d3 cd aa c2
       376.0755 -121.52358 302.12057 -85.402
000070 13 1a 86 43 c8 dd 9c c3 79 eb 9f 43 62 92 9c c3
       268.2037 -313.73267 319.83963 -313.14362
000080 28 00 56 43 01 2c 0b c3 e0 8e 82 43 61 a9 86 c3
       214.00061 -139.17189 261.1162 -269.32327
000090 71 c7 82 43 6a 0d 7e c3 7f a7 85 43 d8 9f 61 c3
       261.55814 -254.0524 267.30856 -225.62439
0000a0 2a 6e 99 43 b1 ef 50 c3 c6 d3 8a 43 37 eb e5 c2
       306.86066 -208.9363 277.65448 -114.959404
0000b0 fd 09 a5 43 06 ee e3 c2 7d 11 48 43 9b 39 22 c3
       330.07803 -113.96489 200.06831 -162.22502
0000c0 56 9a da 43 a8 9a 68 c3 b8 e3 56 43 6c 19 60 c3
       437.20575 -232.60413 214.88953 -224.0993
0000d0 35 29 9f 43 b0 a8 08 c3 14 3f 5f 43 18 b1 54 c3
       318.32193 -136.65894 223.2464 -212.69177
0000e0 2d 17 85 43 fd f5 65 c3 c5 ad c6 43 37 8d 05 c3
       266.18106 -229.96089 397.35757 -133.55162
0000f0 61 8b 87 43 51 4f 50 c3 64 2d bc 43 c7 56 04 c3
       271.0889 -208.30983 376.3546 -132.33897
000100 63 17 ac 43 56 79 64 c3 3d a6 b9 43 f4 61 07 c3
       344.1827 -228.47397 371.29874 -135.38263
000110 4b db 5b 43 54 fa 8e c2 d5 a9 86 43 2d d6 1a c3
       219.85661 -71.48892 269.3268 -154.83662
000120 b1 d2 91 43 dc 96 96 c3 ac a9 6d 43 53 55 be c2
       291.64603 -301.1786 237.66278 -95.16665
000130 ae eb 3d 43 fc 51 15 c3 0a 95 66 43 31 79 4b c2
       189.92062 -149.32025 230.58218 -50.86835
000140 3f e4 8c 43 fc f5 06 c3 cb a1 c9 43 c9 0b 78 c3
       281.78317 -134.96088 403.264 -248.04604
000150 a7 19 d7 43 d8 24 8c c3 a7 a3 81 43 2b 98 4f c3
       430.2004 -280.28784 259.27853 -207.5944
000160 db fb 62 43 c2 3d c6 c2 1a 5e 41 43 79 d0 b3 c2
       226.98381 -99.12062 193.36758 -89.90717
000170 ed 9f aa 43 d7 9d fd c2 8a 6a 4d 43 db cb f4 c2
       341.24942 -126.80828 205.41617 -122.398155
000180 fc f3 a8 43 5b 41 ab c3 10 fa b0 43 3a f7 75 c3
       337.90613 -342.5106 353.9536 -245.96573
000190 a3 c6 ca 43 03 27 81 c3 bc 8a 91 43 e2 aa 82 c3
       405.55185 -258.30478 291.08386 -261.33502
0001a0 09 cf a5 43 3a 3f 5b c3 11 09 a4 43 61 e3 4d c3
       331.61746 -219.24698 328.07083 -205.8882
0001b0 83 af 61 43 96 3d 99 c2 0b a1 65 43 9d 76 66 c3
       225.6856 -76.620285 229.62907 -230.46333
0001c0 3e 0d cc 43 1b 63 07 c3 1a e4 a2 43 64 da e2 c2
       408.10345 -135.38713 325.78204 -113.426544
0001d0 a6 16 62 43 bb e0 89 c2 9f 6f bc 43 3c 0a 81 c3
       226.08847 -68.93893 376.87204 -258.07996
0001e0 96 c0 64 43 5c 55 1d c3 19 da 73 43 ee 20 19 c3
       228.75229 -157.33344 243.85194 -153.12863
0001f0 32 1c 84 43 d5 47 cc c2 02 24 95 43 b5 11 3a c3
       264.22028 -102.1403 298.2813 -186.06917
000200 51 f1 96 43 6f f9 0b c3 8d 77 71 43 a9 e6 10 c3
       301.88528 -139.97435 241.467 -144.90102
000210 a1 0d 80 43 22 6c 27 c3 02 85 58 43 36 31 88 c2
       256.10648 -167.4224 216.51956 -68.096115
000220 b3 49 9d 43 2e af 4a c3 3e 48 64 43 c8 c2 bc c2
       314.57578 -202.6843 228.2822 -94.38043
000230 f9 10 49 43 c2 ad 06 c3 05 7b 42 43 b1 79 26 c3
       201.0663 -134.67874 194.48055 -166.47536
000240 78 5a 79 43 de 64 87 c3 9d 36 6d 43 24 f5 10 c3
       249.3534 -270.78802 237.21333 -144.95758
000250 05 bd a0 43 c9 e0 0b c3 15 4c a4 43 29 44 1f c3
       321.4767 -139.87807 328.5944 -159.26625
000260 1e 18 82 43 3a 43 0b c3 04 7a a7 43 16 4c b3 c3
       260.18842 -139.2626 334.95325 -358.59442
000270 db 9e a7 43 f1 60 5d c3 91 75 8e 43 21 60 17 c3
       335.24106 -221.37868 284.9185 -151.3755
000280 83 27 96 43 2c 19 41 c3 78 d6 81 43 e9 24 8c c3
       300.3087 -193.09833 259.67554 -280.28836
000290 1e 7b 87 43 90 b0 08 c3 00 44 88 43 72 e7 26 c3
       270.96185 -136.6897 272.53125 -166.90408
0002a0 cf 0e 01 44 e2 9e 2e c3 2d 78 ab 43 46 74 3a c3
       516.2314 -174.62064 342.93887 -186.4542
0002b0 75 25 96 43 e1 41 36 c3 ab 35 27 43 a3 38 21 c3
       300.29263 -182.25734 167.20964 -161.22124
0002c0 29 48 73 43 83 cb ee c2 9f d0 82 43 42 11 5b c3
       243.28188 -119.397484 261.62985 -219.06741
0002d0 f5 87 88 43 a0 67 91 c3 32 87 ac 43 4e bf cf c2
       273.06216 -290.80957 345.0562 -103.87364
0002e0 0d 31 97 43 f3 4f 9d c2 27 a8 8a 43 5b 85 13 c3
       302.3832 -78.65615 277.3137 -147.52092
0002f0 87 b4 ad 43 6d d4 c9 c2 88 01 97 43 1b c5 b1 c3
       347.41037 -100.914894 302.01196 -355.5399
000300 80 1d c4 43 74 9c 71 c3 f2 0a 7f 43 6c 82 56 c3
       392.23047 -241.61115 255.04276 -214.50946
000310 51 50 90 43 47 55 41 c3 0e 24 cb 43 b2 2a 14 c3
       288.62747 -193.33311 406.28168 -148.16678
000320 b9 f9 a1 43 fa 5e 19 c3 70 f1 a8 43 12 32 67 c3
       323.95096 -153.371 337.88623 -231.19559
000330 5e 24 7f 43 4a c8 21 c3 22 5a 37 43 25 58 0e c3
       255.14206 -161.78238 183.35208 -142.34431
000340 39 ca 86 43 98 c9 75 c3 13 eb 94 43 26 df 83 c3
       269.57986 -245.78748 297.83652 -263.74335
000350 c5 54 8a 43 59 a3 29 c3 c4 f9 cd 43 48 32 95 c3
       276.66226 -169.63808 411.9513 -298.39282
000360 4e d7 a7 43 52 8f 4c c3 74 76 a8 43 65 fd 4c c3
       335.68207 -204.55984 336.9254 -204.98982
000370 72 88 83 43 6b 20 ca c2 fa bc 88 43 46 7e a9 c2
       263.06598 -101.06332 273.47638 -84.74663
000380 d6 1b b0 43 77 7e 73 c3 49 b5 93 43 d4 c3 26 c3
       352.21747 -243.494 295.4163 -166.76495
000390 a9 e3 97 43 64 5c d7 c2 7c 9c b5 43 9b 7a ac c3
       303.7786 -107.68045 363.22253 -344.95786
0003a0 ea c3 b3 43 0f de 26 c3 15 6f a1 43 2f d5 25 c3
       359.53058 -166.86742 322.86783 -165.83275
0003b0 93 a8 a2 43 25 53 69 c3 9f 4e 73 43 6c ac 2f c3
       325.317 -233.32478 243.30711 -175.67352
0003c0 b8 68 6c 43 0c 57 da c2 d5 56 c3 43 24 81 69 c3
       236.40906 -109.17001 390.67838 -233.50446
0003d0 a5 ef 76 43 5e 8b 36 c3 28 ec e5 43 a0 32 05 c3
       246.93611 -182.5444 459.84497 -133.19775
0003e0 f6 38 b0 43 21 db 69 c3 40 6e 90 43 28 f6 88 c3
       352.445 -233.85597 288.86133 -273.9231
0003f0 fd 94 a3 43 ea 54 0f c3 2a 58 78 43 0c 11 52 c3
       327.16397 -143.3317 248.34439 -210.06659

variational_strategy._variational_distribution.variational_mean f4 [300]
000000 c3 a2 44 c1 8f b7 2c c1 6b c7 35 c1 28 d8 0c c1
       -12.289737 -10.794814 -11.361186 -8.8027725
000010 be 66 ca c0 86 2a 19 c1 21 24 b9 c0 d1 e7 0b c1
       -6.325042 -9.572882 -5.7856603 -8.744096
000020 79 58 ac c0 4f 50 24 c1 da 71 aa c0 80 97 f2 c0
       -5.3858 -10.269607 -5.326398 -7.5809937
000030 97 84 fd c0 38 53 a0 bf 59 63 35 c0 6d d3 da c0
       -7.9224353 -1.2525396 -2.8341887 -6.838309
000040 9f b6 ee c0 2c da 12 c0 ac c6 64 bf cb 6e 4e c0
       -7.4597926 -2.2945662 -0.8936565 -3.2255123
000050 fc d4 9b bf bb fa e6 be 2c 28 fa be f1 72 cd c0
       -1.2174373 -0.45113167 -0.48858774 -6.420281
000060 e7 0f 0b c1 90 79 9e c0 27 18 31 c0 a7 26 0c c0
       -8.691382 -4.952339 -2.7670991 -2.1898592
000070 43 71 78 3d 4e 30 e5 c0 c7 af 66 be b9 72 d7 3d
       0.06065489 -7.1621466 -0.22527991 0.105199285
000080 0c 05 bf c0 a1 b1 ec bf c3 74 05 c1 8a e3 35 bf
       -5.969366 -1.8491708 -8.341006 -0.7105032
000090 22 c6 c2 bf 73 65 20 bf bc 87 6d c0 05 62 39 c0
       -1.5216715 -0.626548 -3.7114096 -2.8966076
0000a0 b7 f4 30 bf e0 bd fd c0 dc 09 c7 c0 5b 32 75 be
       -0.69123405 -7.929428 -6.2199535 -0.2394499
0000b0 9f d2 9a bf 78 bb 96 c0 9b 3c 14 3f da 67 46 bf
       -1.2095526 -4.7103844 0.57904977 -0.77502215
0000c0 b8 86 b2 c0 ab d3 67 c0 0f 8b e6 be ed 63 b2 3d
       -5.578945 -3.6222942 -0.45027968 0.087104656
0000d0 42 36 cd 3c 94 b4 e6 3d 25 9b cb be 7e f1 49 3e
       0.025050286 0.11264911 -0.39766803 0.19721028
0000e0 9f bc 83 c0 b3 46 67 bf c3 79 c0 be ad 02 fb bf
       -4.116775 -0.90342253 -0.37592897 -1.9610192
0000f0 69 2d b4 bf f1 26 cf bb 95 88 f2 be d9 db 6c be
       -1.4076358 -0.006321781 -0.4736983 -0.2313074
000100 e8 96 c0 be fd c6 98 be d9 33 13 be 82 aa b6 bf
       -0.37615132 -0.29839316 -0.14375247 -1.4270785
000110 cd 7f b9 3d 2d 54 28 3e 4f ea 03 3f c5 9a 13 c0
       0.09057579 0.1643836 0.515294 -2.3063214
000120 e5 49 9e bf 75 9e 0c 3e 3b 50 94 bf e6 0f f0 bf
       -1.2366301 0.13732322 -1.1586984 -1.8754852
000130 52 72 b6 bd 24 d0 23 c0 32 3d 27 3c 24 81 ff be
       -0.089085236 -2.559579 0.010207461 -0.49903214
000140 8c c8 84 3e 44 88 36 bf b5 54 75 bd dd c9 17 3c
       0.25934255 -0.71301675 -0.059895236 0.009264437
000150 b3 60 ce c0 86 ac 02 c0 a9 ae 05 bf 45 1a 62 c0
       -6.449304 -2.04178 -0.52219635 -3.5328534
000160 76 e7 1d be bd 93 69 3d fa 37 d7 bd b7 1d c1 bf
       -0.15420327 0.05702566 -0.105087236 -1.5087193
000170 ba 0e 9e 3e 38 2d d0 3d 2e 4c 51 bf aa 29 1a c0
       0.3087061 0.10164875 -0.81756866 -2.408793
000180 9e f5 dd bf d9 0c 67 bd a8 52 dd bd 99 cb 17 c0
       -1.7340581 -0.056408737 -0.10806781 -2.3718016
000190 4c b3 d0 bd 18 d6 66 3e a5 4c a5 bb ee 20 0e c0
       -0.10190448 0.22542608 -0.005044537 -2.2207599
0001a0 25 3b 17 3e 02 99 c8 bf bc f7 1d bd c5 00 6e c0
       0.14768656 -1.5671694 -0.038566336 -3.718797
0001b0 7e f0 8e bf 28 c2 4a bf 39 13 cf be 18 02 93 bf
       -1.1167142 -0.7920251 -0.40444353 -1.1485014
0001c0 9b 95 86 3e 09 a3 d3 be b6 63 37 bd a0 ea 40 c0
       0.26286015 -0.41335323 -0.044772826 -3.0143204
0001d0 f6 bf 22 c0 91 42 13 bf ca 31 68 bf 80 7b ac be
       -2.5429664 -0.5752345 -0.9070097 -0.33687973
0001e0 73 12 dc bc 8a fa 31 c0 5c 53 1f 3d a0 1c ad c0
       -0.026864266 -2.7809167 0.038897857 -5.4097443
0001f0 3f 11 13 3f 74 5d 0d 3c 1e 7c c5 bc e1 66 31 3e
       0.5744819 0.008628238 -0.024107035 0.17324401
000200 aa 06 5f 3f d3 c4 b1 be 8f cd 1d c0 09 03 d8 bc
       0.87119544 -0.34720477 -2.4656713 -0.026368635
000210 7f f6 46 be 74 19 94 bf ea d7 ab be 40 dd c7 bd
       -0.19429968 -1.1570268 -0.33563167 -0.09758997
000220 ca 49 a0 bc 9a 4b 03 bf 46 73 a7 3d 05 58 23 3e
       -0.019566435 -0.51287234 0.081762835 0.15951546
000230 a6 30 4a be 24 52 37 c0 09 ee 6c be 39 c3 0d 3e
       -0.1974512 -2.8643885 -0.23137678 0.13844003
000240 65 05 a7 bf 4c 2e fa be d4 83 ba c0 a0 7f ad bc
       -1.3048521 -0.48863447 -5.8285923 -0.02117902
000250 59 08 99 3d 34 e5 f9 be c4 d2 1f 3f 52 7d a6 bd
       0.07472295 -0.4880768 0.6243098 -0.08129372
000260 2e 38 85 3b e6 91 96 c0 3b 88 10 be ab 6b 28 be
       0.004065535 -4.70531 -0.14114468 -0.16447322
000270 93 34 aa c0 1a 4a d4 bc 00 73 a6 bf 5d 96 6c 3f
       -5.3189178 -0.02591424 -1.3003845 0.92416936
000280 77 c6 bb 3d c8 1a 02 be 55 00 82 bc 94 cb 21 3e
       0.091687135 -0.12705529 -0.015869299 0.15800315
000290 d0 f4 d8 bd c4 36 0d 3c 64 9f 8e be c6 3b 4a 3d
       -0.10593569 0.008619014 -0.2785598 0.04937341
0002a0 f4 73 2d be b2 a5 14 3f 98 77 1f bc 8d 5f 94 3c
       -0.16938764 0.5806533 -0.009733103 0.018111968
0002b0 ac d7 02 bc bb 18 62 bd 3d 0b 14 be 08 bd f1 bb
       -0.0079859905 -0.055199366 -0.14457412 -0.0073772706
0002c0 34 1c 2e bd 70 f4 b7 bd 38 93 17 3e 97 e1 a1 c0
       -0.042507365 -0.0898217 0.14802253 -5.058788
0002d0 68 be 3d bb 29 ca 53 bd a8 ab 17 3f 5b 3d 5e bd
       -0.0028952602 -0.051706467 0.592463 -0.054257732
0002e0 01 23 8f bf 9c c6 af be 19 15 23 bd 53 12 34 bf
       -1.1182557 -0.34331214 -0.039815042 -0.7034046
0002f0 eb c1 02 bc 94 4f 16 be de 70 e2 bc a1 5d 13 bb
       -0.007980804 -0.14678794 -0.02764171 -0.0022486227
000300 33 c1 d1 bc 3f 7d dc 3c 0a 8e 28 3d e6 c4 1d be
       -0.02560482 0.02691519 0.041151084 -0.15407142
000310 9b de 7f 3a fa 9b 38 bf 40 ec 30 3f 45 93 f3 bd
       0.0009760649 -0.72113 0.6911049 -0.11893324
000320 e5 25 22 be c2 84 c5 bf 70 83 c9 bf 1c 18 0b c0
       -0.15834768 -1.543114 -1.5743237 -2.1733465
000330 6e 53 42 3b 6c d3 3d be a8 03 5c bd 34 e9 82 bd
       0.0029651779 -0.18537682 -0.053714424 -0.06392136
000340 73 57 0f 3d 13 bc ca 3c 87 58 11 be 96 2f 71 bb
       0.034995507 0.024747884 -0.14193927 -0.0036802045
000350 97 4b 8a be ce 68 f8 bb 4f 15 29 c0 24 64 69 be
       -0.27010795 -0.007580853 -2.6419256 -0.22792107
000360 bc 88 96 bc a5 c0 98 3d 41 2c 3a bc 07 e7 2c c0
       -0.018375747 0.07458619 -0.01136309 -2.7016008
000370 b9 ee 1e 3d 20 9d ed be c0 e2 a0 bf 08 46 c1 bf
       0.038801882 -0.4640894 -1.2569199 -1.5099497
000380 d7 47 4b 3e 6d 49 25 bd 20 b8 04 bc 0f b7 1e c0
       0.19851623 -0.040353227 -0.008100539 -2.479923
000390 08 ff 9e bc 82 35 d6 3b 3c 69 7d bc fb 8b 64 bd
       -0.019408718 0.0065371403 -0.015466984 -0.05579756
0003a0 b1 16 0c bd 73 67 92 bd 59 5e 58 bd a8 a8 82 bd
       -0.034201328 -0.071486376 -0.052824352 -0.06379825
0003b0 eb 28 06 be c7 c8 bc bb 6d e3 12 bd 58 dc ad bc
       -0.13101546 -0.005761239 -0.03586142 -0.021223232
0003c0 fa d6 2d 3c 11 8a 6b bd 9e 31 63 3c 8a 11 92 be
       0.010610336 -0.057504717 0.01386681 -0.28529006
0003d0 1c 0e aa 3c 85 36 88 3b 6d 83 11 bd 08 24 3b bc
       0.020758681 0.00415689 -0.035525728 -0.011422165
0003e0 69 26 ae bd 5a c1 89 bd b8 85 e4 bc 90 8f cf bd
       -0.0850342 -0.06726332 -0.027895793 -0.10134804
0003f0 32 76 16 3e 64 0e 55 3e 37 21 96 3b 1d 27 3f b8
       0.14693525 0.20806271 0.0045815962 -4.5574376e-05

variational_strategy._variational_distribution.chol_variational_covar f4 [300, 300]
000000 80 ba 9c 3e 00 00 00 00 00 00 00 00 00 00 00 00
       0.30611038 0.0 0.0 0.0
000010 00 00 00 00 00 00 00 00 00 00 00 00 00 00 00 00
       0.0 0.0 0.0 0.0
000020 00 00 00 00 00 00 00 00 00 00 00 00 00 00 00 00
       0.0 0.0 0.0 0.0
000030 00 00 00 00 00 00 00 00 00 00 00 00 00 00 00 00
       0.0 0.0 0.0 0.0
000040 00 00 00 00 00 00 00 00 00 00 00 00 00 00 00 00
       0.0 0.0 0.0 0.0
000050 00 00 00 00 00 00 00 00 00 00 00 00 00 00 00 00
       0.0 0.0 0.0 0.0
000060 00 00 00 00 00 00 00 00 00 00 00 00 00 00 00 00
       0.0 0.0 0.0 0.0
000070 00 00 00 00 00 00 00 00 00 00 00 00 00 00 00 00
       0.0 0.0 0.0 0.0
000080 00 00 00 00 00 00 00 00 00 00 00 00 00 00 00 00
       0.0 0.0 0.0 0.0
000090 00 00 00 00 00 00 00 00 00 00 00 00 00 00 00 00
       0.0 0.0 0.0 0.0
0000a0 00 00 00 00 00 00 00 00 00 00 00 00 00 00 00 00
       0.0 0.0 0.0 0.0
0000b0 00 00 00 00 00 00 00 00 00 00 00 00 00 00 00 00
       0.0 0.0 0.0 0.0
0000c0 00 00 00 00 00 00 00 00 00 00 00 00 00 00 00 00
       0.0 0.0 0.0 0.0
0000d0 00 00 00 00 00 00 00 00 00 00 00 00 00 00 00 00
       0.0 0.0 0.0 0.0
0000e0 00 00 00 00 00 00 00 00 00 00 00 00 00 00 00 00
       0.0 0.0 0.0 0.0
0000f0 00 00 00 00 00 00 00 00 00 00 00 00 00 00 00 00
       0.0 0.0 0.0 0.0
000100 00 00 00 00 00 00 00 00 00 00 00 00 00 00 00 00
       0.0 0.0 0.0 0.0
000110 00 00 00 00 00 00 00 00 00 00 00 00 00 00 00 00
       0.0 0.0 0.0 0.0
000120 00 00 00 00 00 00 00 00 00 00 00 00 00 00 00 00
       0.0 0.0 0.0 0.0
000130 00 00 00 00 00 00 00 00 00 00 00 00 00 00 00 00
       0.0 0.0 0.0 0.0
000140 00 00 00 00 00 00 00 00 00 00 00 00 00 00 00 00
       0.0 0.0 0.0 0.0
000150 00 00 00 00 00 00 00 00 00 00 00 00 00 00 00 00
       0.0 0.0 0.0 0.0
000160 00 00 00 00 00 00 00 00 00 00 00 00 00 00 00 00
       0.0 0.0 0.0 0.0
000170 00 00 00 00 00 00 00 00 00 00 00 00 00 00 00 00
       0.0 0.0 0.0 0.0
000180 00 00 00 00 00 00 00 00 00 00 00 00 00 00 00 00
       0.0 0.0 0.0 0.0
000190 00 00 00 00 00 00 00 00 00 00 00 00 00 00 00 00
       0.0 0.0 0.0 0.0
0001a0 00 00 00 00 00 00 00 00 00 00 00 00 00 00 00 00
       0.0 0.0 0.0 0.0
0001b0 00 00 00 00 00 00 00 00 00 00 00 00 00 00 00 00
       0.0 0.0 0.0 0.0
0001c0 00 00 00 00 00 00 00 00 00 00 00 00 00 00 00 00
       0.0 0.0 0.0 0.0
0001d0 00 00 00 00 00 00 00 00 00 00 00 00 00 00 00 00
       0.0 0.0 0.0 0.0
0001e0 00 00 00 00 00 00 00 00 00 00 00 00 00 00 00 00
       0.0 0.0 0.0 0.0
0001f0 00 00 00 00 00 00 00 00 00 00 00 00 00 00 00 00
       0.0 0.0 0.0 0.0
000200 00 00 00 00 00 00 00 00 00 00 00 00 00 00 00 00
       0.0 0.0 0.0 0.0
000210 00 00 00 00 00 00 00 00 00 00 00 00 00 00 00 00
       0.0 0.0 0.0 0.0
000220 00 00 00 00 00 00 00 00 00 00 00 00 00 00 00 00
       0.0 0.0 0.0 0.0
000230 00 00 00 00 00 00 00 00 00 00 00 00 00 00 00 00
       0.0 0.0 0.0 0.0
000240 00 00 00 00 00 00 00 00 00 00 00 00 00 00 00 00
       0.0 0.0 0.0 0.0
000250 00 00 00 00 00 00 00 00 00 00 00 00 00 00 00 00
       0.0 0.0 0.0 0.0
000260 00 00 00 00 00 00 00 00 00 00 00 00 00 00 00 00
       0.0 0.0 0.0 0.0
000270 00 00 00 00 00 00 00 00 00 00 00 00 00 00 00 00
       0.0 0.0 0.0 0.0
000280 00 00 00 00 00 00 00 00 00 00 00 00 00 00 00 00
       0.0 0.0 0.0 0.0
000290 00 00 00 00 00 00 00 00 00 00 00 00 00 00 00 00
       0.0 0.0 0.0 0.0
0002a0 00 00 00 00 00 00 00 00 00 00 00 00 00 00 00 00
       0.0 0.0 0.0 0.0
0002b0 00 00 00 00 00 00 00 00 00 00 00 00 00 00 00 00
       0.0 0.0 0.0 0.0
0002c0 00 00 00 00 00 00 00 00 00 00 00 00 00 00 00 00
       0.0 0.0 0.0 0.0
0002d0 00 00 00 00 00 00 00 00 00 00 00 00 00 00 00 00
       0.0 0.0 0.0 0.0
0002e0 00 00 00 00 00 00 00 00 00 00 00 00 00 00 00 00
       0.0 0.0 0.0 0.0
0002f0 00 00 00 00 00 00 00 00 00 00 00 00 00 00 00 00
       0.0 0.0 0.0 0.0
000300 00 00 00 00 00 00 00 00 00 00 00 00 00 00 00 00
       0.0 0.0 0.0 0.0
000310 00 00 00 00 00 00 00 00 00 00 00 00 00 00 00 00
       0.0 0.0 0.0 0.0
000320 00 00 00 00 00 00 00 00 00 00 00 00 00 00 00 00
       0.0 0.0 0.0 0.0
000330 00 00 00 00 00 00 00 00 00 00 00 00 00 00 00 00
       0.0 0.0 0.0 0.0
000340 00 00 00 00 00 00 00 00 00 00 00 00 00 00 00 00
       0.0 0.0 0.0 0.0
000350 00 00 00 00 00 00 00 00 00 00 00 00 00 00 00 00
       0.0 0.0 0.0 0.0
000360 00 00 00 00 00 00 00 00 00 00 00 00 00 00 00 00
       0.0 0.0 0.0 0.0
000370 00 00 00 00 00 00 00 00 00 00 00 00 00 00 00 00
       0.0 0.0 0.0 0.0
000380 00 00 00 00 00 00 00 00 00 00 00 00 00 00 00 00
       0.0 0.0 0.0 0.0
000390 00 00 00 00 00 00 00 00 00 00 00 00 00 00 00 00
       0.0 0.0 0.0 0.0
0003a0 00 00 00 00 00 00 00 00 00 00 00 00 00 00 00 00
       0.0 0.0 0.0 0.0
0003b0 00 00 00 00 00 00 00 00 00 00 00 00 00 00 00 00
       0.0 0.0 0.0 0.0
0003c0 00 00 00 00 00 00 00 00 00 00 00 00 00 00 00 00
       0.0 0.0 0.0 0.0
0003d0 00 00 00 00 00 00 00 00 00 00 00 00 00 00 00 00
       0.0 0.0 0.0 0.0
0003e0 00 00 00 00 00 00 00 00 00 00 00 00 00 00 00 00
       0.0 0.0 0.0 0.0
0003f0 00 00 00 00 00 00 00 00 00 00 00 00 00 00 00 00
       0.0 0.0 0.0 0.0

cov.base_kernel.raw_lengthscale f4 [1, 2]
000000 a3 5c 02 42 a1 6e 05 42
       32.590466 33.358036
