slam/rbpf_slam/data/old_results/works_w_more_particles/svgp_particle8.pth (torch, 367369 bytes, 4 tensors)

variational_strategy.inducing_points f4 [300, 2]
259.28705 -261.47903 345.47516 -110.48099 466.01654 -226.10376 242.5779 -213.93782
272.53717 -265.25473 311.05118 -234.4701 299.54056 -175.98225 414.98206 -130.73863
251.66931 -225.56331 241.1244 -262.24545 246.35207 -132.9918 295.4627 -137.8514
367.59598 -161.53603 279.5629 -310.47406 252.39565 -231.65376 240.56439 -116.24354
284.06998 -272.29153 295.09952 -142.1306 329.19205 -215.03807 437.52567 -255.89018
234.4478 -205.73305 436.2986 -174.93585 390.10547 -169.37523 355.951 -253.30748
365.8967 -110.45897 218.5846 -175.73459 283.96512 -274.66058 301.73102 -321.32422
364.80698 -176.64302 350.61 -109.26813 300.1043 -112.92574 352.52887 -103.24475
403.54346 -133.3693 380.42792 -277.54105 308.24918 -204.73788 317.5318 -111.636604
346.94403 -104.295334 192.55618 -141.94066 210.1511 -108.03566 392.26 -118.97389
228.82796 -90.63586 290.4012 -216.29198 235.02145 -92.090675 278.58963 -169.67235
265.59482 -92.589455 293.0539 -255.76047 304.76773 -189.83675 343.2878 -233.25587
354.3059 -109.346924 340.27533 -106.0736 345.51022 -195.95348 454.62482 -174.46082
233.0173 -224.40193 297.94568 -110.93575 241.40736 -188.94873 260.7548 -189.70314
482.09995 -166.29247 266.54227 -214.55469 269.66394 -208.87004 285.0507 -86.67029
276.15082 -152.07704 261.20837 -221.43703 221.69818 -80.465836 309.64935 -200.6153
296.05075 -155.89392 446.45493 -212.40288 321.7831 -327.97266 352.67944 -172.12978
293.14706 -215.54602 273.81714 -266.53183 319.31522 -199.9753 232.69528 -82.74861
298.80054 -150.07278 331.5621 -129.58455 253.2774 -200.97609 406.13553 -250.97269
267.84354 -73.935326 219.58191 -109.08121 267.9411 -143.02405 304.3174 -113.82048
357.72333 -167.78535 298.2091 -309.56747 375.7769 -120.77084 306.99307 -256.09595
240.12814 -237.23782 247.42426 -238.4401 356.16104 -115.30511 231.20229 -234.2224
370.14844 -299.5274 335.74844 -288.04694 233.58684 -87.27643 385.1861 -277.24725
367.71667 -279.71997 304.37402 -127.815216 224.71077 -86.24504 236.4529 -248.88432
253.71683 -187.19017 385.41736 -116.7587 281.92902 -133.8689 161.81387 -121.81265
227.32446 -98.29825 216.58217 -80.092834 238.04968 -191.35742 213.10886 -213.40735
236.81642 -117.81308 277.01526 -249.45984 347.7881 -353.24268 308.50885 -289.59058
288.98862 -166.88408 354.67346 -242.42564 302.3613 -222.22958 216.08028 -182.91226
317.5092 -294.17706 263.81076 -226.54411 303.899 -112.472145 312.93887 -93.13061
133.4957 -109.8102 363.94165 -107.346504 317.9729 -107.37351 162.24362 -103.836334
272.32452 -151.57498 237.99709 -198.42036 252.70926 -217.49876 233.40237 -236.33589
407.5533 -282.408 225.8066 -126.540184 200.46666 -170.1273 233.30069 -239.88835
00000000: bea4 8143 51bd 82c3 d2bc ac43 44f6 dcc2
00000010: 1e02 e943 901a 62c3 f193 7243 15f0 55c3
00000020: c244 8843 9ba0 84c3 8d86 9b43 5878 6ac3
00000030: 31c5 9543 75fb 2fc3 b47d cf43 17bd 02c3
00000040: 58ab 7b43 3590 61c3 d91f 7143 6b1f 83c3
00000050: 215a 7643 e7fd 04c3 3abb 9343 f5d9 09c3
00000060: 49cc b743 3989 21c3 0dc8 8b43 ae3c 9bc3
00000070: 4965 7c43 5da7 67c3 7c90 7043 b17c e8c2
00000080: f508 8e43 5125 88c3 bd8c 9343 6f21 0ec3
00000090: 9598 a443 bf09 57c3 49c3 da43 e3e3 7fc3
000000a0: a372 6a43 a9bb 4dc3 3926 da43 94ef 2ec3
000000b0: 800d c343 0f60 29c3 baf9 b143 b74e 7dc3
000000c0: c7f2 b643 feea dcc2 a895 5a43 0ebc 2fc3
000000d0: 89fb 8d43 8e54 89c3 92dd 9643 80a9 a0c3
000000e0: 4b67 b643 9da4 30c3 144e af43 4889 dac2
000000f0: 5a0d 9643 fbd9 e1c2 b243 b043 507d cec2
00000100: 90c5 c943 8a5e 05c3 c636 be43 41c5 8ac3
00000110: e51f 9a43 e6bc 4cc3 12c4 9e43 f145 dfc2
00000120: d678 ad43 3697 d0c2 628e 4043 cff0 0dc3
00000130: ae26 5243 4212 d8c2 4821 c443 a2f2 edc2
00000140: f5d3 6443 8f45 b5c2 5b33 9143 bf4a 58c3
00000150: 7e05 6b43 6d2e b8c2 794b 8b43 1fac 29c3
00000160: 23cc 8443 cd2d b9c2 e686 9243 aec2 7fc3
00000170: 4562 9843 35d6 3dc3 d7a4 ab43 8141 69c3
00000180: 2827 b143 a0b1 dac2 3e23 aa43 af25 d4c2
00000190: 4fc1 ac43 17f4 43c3 fa4f e343 f875 2ec3
000001a0: 6e04 6943 e566 60c3 0cf9 9443 1bdf ddc2
000001b0: 4968 7143 e0f2 3cc3 9d60 8243 01b4 3dc3
000001c0: cb0c f143 df4a 26c3 6945 8543 008e 56c3
000001d0: fcd4 8643 bbde 50c3 7d86 8e43 3057 adc2
000001e0: 4e13 8a43 b913 18c3 ac9a 8243 e16f 5dc3
000001f0: bcb2 5d43 82ee a0c2 1ed3 9a43 849d 48c3
00000200: 7f06 9443 d8e4 1bc3 3b3a df43 2367 54c3
00000210: 3de4 a043 80fc a3c3 f856 b043 3921 2cc3
00000220: d392 9243 c88b 57c3 98e8 8843 1344 85c3
00000230: 59a8 9f43 adf9 47c3 feb1 6843 4a7f a5c2
00000240: 7866 9543 a212 16c3 f3c7 a543 a595 01c3
00000250: 0447 7d43 e1f9 48c3 5911 cb43 02f9 7ac3
00000260: f9eb 8543 e3de 93c2 f894 5b43 9429 dac2
00000270: 76f8 8543 2806 0fc3 a128 9843 16a4 e3c2
00000280: 96dc b243 0dc9 27c3 c41a 9543 a3c8 9ac3
00000290: 71e3 bb43 ac8a f1c2 1d7f 9943 480c 80c3
000002a0: ce20 7043 e23c 6dc3 9c6c 7743 aa70 6ec3
000002b0: 9d14 b243 379c e6c2 c933 6743 ef38 6ac3
000002c0: 0013 b943 82c3 95c3 cddf a743 0206 90c3
000002d0: 3b96 6943 888d aec2 d297 c043 a69f 8ac3
000002e0: bcdb b743 28dc 8bc3 e02f 9843 64a1 ffc2
000002f0: f5b5 6043 767d acc2 f173 6c43 63e2 78c3
00000300: 82b7 7d43 af30 3bc3 6cb5 c043 7484 e9c2
00000310: eaf6 8c43 70de 05c3 5ad0 2143 14a0 f3c2
00000320: 1053 6343 b498 c4c2 0995 5843 882f a0c2
00000330: b80c 6e43 805b 3fc3 de1b 5543 4868 55c3
00000340: 01d1 6c43 4ca0 ebc2 f481 8a43 b875 79c3
00000350: e0e4 ad43 109f b0c3 2241 9a43 98cb 90c3
00000360: 8b7e 9043 53e2 26c3 3456 b143 f76c 72c3
00000370: 3f2e 9743 c63a 5ec3 8d14 5843 8ae9 36c3
00000380: 2dc1 9e43 aa16 93c3 c7e7 8343 4b8b 62c3
00000390: 12f3 9743 bdf1 e0c2 2d78 9c43 df42 bac2
000003a0: e67e 0543 d39e dbc2 88f8 b543 69b1 d6c2
000003b0: 88fc 9e43 3dbf d6c2 5e3e 2243 34ac cfc2
000003c0: 8a29 8843 3293 17c3 41ff 6d43 9d6b 46c3
000003d0: 92b5 7c43 af7f 59c3 0267 6943 fd55 6cc3
000003e0: d3c6 cb43 3934 8dc3 7dce 6143 9314 fdc2
000003f0: 7777 4843 9720 2ac3 fa4c 6943 6be3 6fc3

variational_strategy._variational_distribution.variational_mean f4 [300]
-11.495891 -11.352077 -11.165848 -10.458994 -7.174692 -9.537493 -8.901163 -9.60665
-1.3540881 -5.5281715 -9.933618 -4.59361 -8.402367 -8.462597 -2.3842778 -5.077146
-0.60151 0.54474515 -5.4544535 -8.1586 -7.0425987 -8.41924 -2.8250139 -8.847857
-2.1347983 -5.621221 -0.42844886 -6.0702567 -2.7636013 1.2116318 -4.918429 -1.2393252
-0.61829555 -7.04865 -1.6591854 -0.6412584 -0.8579921 -7.885945 -4.457409 -1.1380018
-5.203245 -0.7686955 -0.8542815 -2.4233527 -4.547982 -0.7417199 -1.9202148 -2.2992737
-0.33016565 -0.37053216 -2.8908312 -4.4834023 -1.9969983 -0.84282297 -0.6459145 -1.0923811
-6.195038 -0.16258734 -0.2454817 -2.645939 -0.23647308 -0.09397161 -4.819032 -0.08532
-0.27328533 -1.7615131 -5.177704 -0.84779817 -0.046272136 -0.5929435 -0.11008074 -0.98496264
-0.9980929 -1.4377688 -0.19065848 -2.9268656 -2.297651 1.1269026 -1.3376737 -0.13185792
-0.2827521 0.87437344 -0.54926836 -1.3838313 0.05019915 0.17659214 -0.52271426 -0.2928959
-4.574746 -1.8252771 0.9314104 -2.2823 -0.6303319 0.26111665 1.3763378 0.47316015
-0.153727 -0.112311676 0.032020386 -5.989579 -0.06593114 -1.0653785 0.21634069 -2.227631
0.24870323 -0.19717474 -5.058096 -1.0894713 0.13723081 -0.78409433 -0.10731502 -0.7814317
-0.26309693 0.083834745 -0.60291517 -1.7336425 -3.3613222 -0.12053686 0.0008597495 -2.8503497
-0.12458698 -0.105983585 -0.065561175 -0.0546129 -3.6517632 -1.5213166 -3.7025495 -0.27846366
0.07157309 0.24463345 -0.26357874 -0.49339467 0.002777871 0.0366672 -0.056073625 -0.0909431
-1.9724146 -1.9993612 -0.23717114 -0.5859407 -0.40474784 -0.7515458 -3.79199 0.19895433
-0.034574457 -0.42249304 0.0055488506 -0.21103388 -0.06100394 -0.21202299 -0.18701768 -0.7974086
-1.2121351 -1.049343 -0.065917 -0.087594755 -0.0058231964 -0.24931255 -2.4686394 0.12327949
0.07216261 0.23120019 -0.85800534 -1.1098554 0.11582006 0.5605926 0.29787078 -0.16652885
-0.3723974 -2.9895463 0.045531023 -0.09466972 -0.22304414 0.025237532 -0.33362615 -1.5213186
0.24575587 -1.609884 -0.5408335 -0.12569126 -2.5774248 -0.4213841 -0.3211329 -0.241483
0.046314817 -0.23422085 -0.23499878 0.015163866 0.09883145 -0.0117805265 -0.005256097 -0.5423475
-0.35764867 -0.10271987 -0.54014295 0.004158112 0.5475332 -0.12545139 0.008150296 -0.12124057
-0.004744979 -1.095027 0.0062297317 -0.042664617 -1.3803357 0.058035515 -0.6951442 -1.6722754
0.037301075 0.14206299 -2.5870588 -0.17656323 -0.019922417 -0.5531555 -0.19063582 -0.25017214
-0.7656828 -1.351812 -0.031377375 0.015848609 0.018750228 0.1329035 -0.2290545 -0.27247164
-0.93116534 0.07321182 -0.016066317 0.023879258 0.06684957 -0.02716135 -0.03354088 -1.6562252
-0.0025022149 -0.1953132 0.03965398 -0.32487148 -0.5221773 -0.05308889 0.014078165 -0.028713757
-0.03358114 -0.19314897 -0.22928369 1.7220517 0.01392952 -0.12425571 0.3245815 0.012537592
-0.16274776 -0.11569677 -0.10237917 0.14146204 -0.4118618 -0.013237979 -0.028209826 -3.2194943
00000000: 2bef 37c1 1ba2 35c1 50a7 32c1 0a58 27c1
00000010: 1497 e5c0 9299 18c1 2a6b 0ec1 d7b4 19c1
00000020: c252 adbf c8e6 b0c0 19f0 1ec1 dafe 92c0
00000030: 1870 06c1 cc66 07c1 0298 18c0 fb77 a2c0
00000040: 8ffc 19bf 6b74 0b3f e28a aec0 a089 02c1
00000050: f85c e1c0 35b5 06c1 07cd 34c0 d390 0dc1
00000060: 89a0 08c0 0be1 b3c0 a65d dbbe 8b3f c2c0
00000070: d8de 30c0 c016 9b3f c563 9dc0 35a2 9ebf
00000080: 9e48 1ebf 8a8e e1c0 3060 d4bf 8329 24bf
00000090: 5fa5 5bbf a959 fcc0 18a3 8ec0 0baa 91bf
000000a0: fc80 a6c0 3ac9 44bf 31b2 5abf 3618 1bc0
000000b0: 1289 91c0 5be1 3dbf 99c9 f5bf 4d27 13c0
000000c0: 790b a9be 64b6 bdbe 6103 39c0 0878 8fc0
000000d0: a49d ffbf 3fc3 57bf a75a 25bf 25d3 8bbf
000000e0: c03d c6c0 4c7d 26be 8e5f 7bbe 1157 29c0
000000f0: 0026 72be 3074 c0bd 8335 9ac0 41bc aebd
00000100: 0eec 8bbe 4379 e1bf c0af a5c0 4d09 59bf
00000110: da87 3dbd 25cb 17bf 0372 e1bd 8326 7cbf
00000120: 0483 7fbf cf08 b8bf fa3b 43be c451 3bc0
00000130: b70c 13c0 583e 903f e438 abbf c305 07be
00000140: e2c4 90be f0d6 5f3f da9c 0cbf 6221 b1bf
00000150: a09d 4d3d 92d4 343e 9ad0 05bf 74f6 95be
00000160: 5264 92c0 aea2 e9bf e970 6e3f 3411 12c0
00000170: 6e5d 21bf 15b1 853e d62b b03f 0c42 f23e
00000180: 9c6a 1dbe aa03 e6bd cf27 033d a2aa bfc0
00000190: e806 87bd 535e 88bf 6a88 5d3e 8291 0ec0
000001a0: 0fac 7e3e 2de8 49be ecdb a1c0 cc73 8bbf
000001b0: 3c86 0c3e 68ba 48bf fac7 dbbd e80b 48bf
000001c0: a4b4 86be 8db1 ab3d a658 1abf ffe7 ddbf
000001d0: e71f 57c0 07dc f6bd d060 613a 216c 36c0
000001e0: 7527 ffbd ec0d d9bd f044 86bd c7b1 5fbd
000001f0: 7db6 69c0 81ba c2bf 92f6 6cc0 ca92 8ebe
00000200: ea94 923d 3181 7a3e cbf3 86be 3a9e fcbe
00000210: f10c 363b 5930 163d 75ad 65bd 6040 babd
00000220: 1578 fcbf 11eb ffbf fedc 72be 3600 16bf
00000230: 1c3b cfbe 4e65 40bf f7af 72c0 afba 4b3e
00000240: f29d 0dbd 0251 d8be 22d3 b53b 4419 58be
00000250: 44df 79bd 8e1c 59be 9081 3fbe f822 4cbf
00000260: 3e27 9bbf df50 86bf 7eff 86bd e164 b3bd
00000270: 83d0 bebb ca4b 7fbe 30fe 1dc0 f579 fc3d
00000280: fec9 933d bebf 6c3e 3da6 5bbf be0f 8ebf
00000290: 1133 ed3d ff82 0f3f 8582 983e 8a86 2abe
000002a0: dfaa bebe ba54 3fc0 bd7e 3a3d 33e2 c1bd
000002b0: af65 64be f1be ce3c 0cd1 aabe 91ba c2bf
000002c0: 6da7 7b3e ae10 cebf 1074 0abf 36b5 00be
000002d0: 87f4 24c0 a8bf d7be 886b a4be 5247 77be
000002e0: 9bb4 3d3d 97d7 6fbe 85a3 70be dd71 783c
000002f0: 2568 ca3d 1c03 41bc 563b acbb 49d7 0abf
00000300: ba1d b7be cc5e d2bd cf46 0abf c640 883b
00000310: 232b 0c3f 5476 00be d288 053c fa4c f8bd
00000320: c57b 9bbb d829 8cbf c722 cc3b 18c1 2ebd
00000330: d7ae b0bf a6b6 6d3d f8f4 31bf 1f0d d6bf
00000340: 03c9 183d f678 113e 5f92 25c0 fecc 34be
00000350: 5634 a3bc 999b 0dbf 0936 43be 9016 80be
00000360: ca03 44bf 2d08 adbf 9085 00bd f1d4 813c
00000370: 149a 993c db17 083e 438d 6abe 6781 8bbe
00000380: da60 6ebf 14f0 953d 829d 83bc 6f9e c33c
00000390: 6de8 883d 7b81 debc 2962 09bd 30ff d3bf
000003a0: 33fc 23bb 2f00 48be 366c 223d 8e55 a6be
000003b0: 69ad 05bf bc73 59bd 1ba8 663c 1d39 ebbc
000003c0: 618c 09bd d8c8 45be 58c9 6abe 316c dc3f
000003d0: a438 643c c779 febd 8c2f a63e 796a 4d3c
000003e0: 59a7 26be 6ef2 ecbd 2cac d1bd 6ddb 103e
000003f0: 8ddf d2be 1ce4 58bc 4b18 e7bc 320c 4ec0

variational_strategy._variational_distribution.chol_variational_covar f4 [300, 300]
0.3931795 0.0 0.0 0.0 0.0 0.0 0.0 0.0
0.0 0.0 0.0 0.0 0.0 0.0 0.0 0.0
0.0 0.0 0.0 0.0 0.0 0.0 0.0 0.0
0.0 0.0 0.0 0.0 0.0 0.0 0.0 0.0
0.0 0.0 0.0 0.0 0.0 0.0 0.0 0.0
0.0 0.0 0.0 0.0 0.0 0.0 0.0 0.0
0.0 0.0 0.0 0.0 0.0 0.0 0.0 0.0
0.0 0.0 0.0 0.0 0.0 0.0 0.0 0.0
0.0 0.0 0.0 0.0 0.0 0.0 0.0 0.0
0.0 0.0 0.0 0.0 0.0 0.0 0.0 0.0
0.0 0.0 0.0 0.0 0.0 0.0 0.0 0.0
0.0 0.0 0.0 0.0 0.0 0.0 0.0 0.0
0.0 0.0 0.0 0.0 0.0 0.0 0.0 0.0
0.0 0.0 0.0 0.0 0.0 0.0 0.0 0.0
0.0 0.0 0.0 0.0 0.0 0.0 0.0 0.0
0.0 0.0 0.0 0.0 0.0 0.0 0.0 0.0
0.0 0.0 0.0 0.0 0.0 0.0 0.0 0.0
0.0 0.0 0.0 0.0 0.0 0.0 0.0 0.0
0.0 0.0 0.0 0.0 0.0 0.0 0.0 0.0
0.0 0.0 0.0 0.0 0.0 0.0 0.0 0.0
0.0 0.0 0.0 0.0 0.0 0.0 0.0 0.0
0.0 0.0 0.0 0.0 0.0 0.0 0.0 0.0
0.0 0.0 0.0 0.0 0.0 0.0 0.0 0.0
0.0 0.0 0.0 0.0 0.0 0.0 0.0 0.0
0.0 0.0 0.0 0.0 0.0 0.0 0.0 0.0
0.0 0.0 0.0 0.0 0.0 0.0 0.0 0.0
0.0 0.0 0.0 0.0 0.0 0.0 0.0 0.0
0.0 0.0 0.0 0.0 0.0 0.0 0.0 0.0
0.0 0.0 0.0 0.0 0.0 0.0 0.0 0.0
0.0 0.0 0.0 0.0 0.0 0.0 0.0 0.0
0.0 0.0 0.0 0.0 0.0 0.0 0.0 0.0
0.0 0.0 0.0 0.0 0.0 0.0 0.0 0.0
00000000: d34e c93e 0000 0000 0000 0000 0000 0000
00000010: 0000 0000 0000 0000 0000 0000 0000 0000
00000020: 0000 0000 0000 0000 0000 0000 0000 0000
00000030: 0000 0000 0000 0000 0000 0000 0000 0000
00000040: 0000 0000 0000 0000 0000 0000 0000 0000
00000050: 0000 0000 0000 0000 0000 0000 0000 0000
00000060: 0000 0000 0000 0000 0000 0000 0000 0000
00000070: 0000 0000 0000 0000 0000 0000 0000 0000
00000080: 0000 0000 0000 0000 0000 0000 0000 0000
00000090: 0000 0000 0000 0000 0000 0000 0000 0000
000000a0: 0000 0000 0000 0000 0000 0000 0000 0000
000000b0: 0000 0000 0000 0000 0000 0000 0000 0000
000000c0: 0000 0000 0000 0000 0000 0000 0000 0000
000000d0: 0000 0000 0000 0000 0000 0000 0000 0000
000000e0: 0000 0000 0000 0000 0000 0000 0000 0000
000000f0: 0000 0000 0000 0000 0000 0000 0000 0000
00000100: 0000 0000 0000 0000 0000 0000 0000 0000
00000110: 0000 0000 0000 0000 0000 0000 0000 0000
00000120: 0000 0000 0000 0000 0000 0000 0000 0000
00000130: 0000 0000 0000 0000 0000 0000 0000 0000
00000140: 0000 0000 0000 0000 0000 0000 0000 0000
00000150: 0000 0000 0000 0000 0000 0000 0000 0000
00000160: 0000 0000 0000 0000 0000 0000 0000 0000
00000170: 0000 0000 0000 0000 0000 0000 0000 0000
00000180: 0000 0000 0000 0000 0000 0000 0000 0000
00000190: 0000 0000 0000 0000 0000 0000 0000 0000
000001a0: 0000 0000 0000 0000 0000 0000 0000 0000
000001b0: 0000 0000 0000 0000 0000 0000 0000 0000
000001c0: 0000 0000 0000 0000 0000 0000 0000 0000
000001d0: 0000 0000 0000 0000 0000 0000 0000 0000
000001e0: 0000 0000 0000 0000 0000 0000 0000 0000
000001f0: 0000 0000 0000 0000 0000 0000 0000 0000
00000200: 0000 0000 0000 0000 0000 0000 0000 0000
00000210: 0000 0000 0000 0000 0000 0000 0000 0000
00000220: 0000 0000 0000 0000 0000 0000 0000 0000
00000230: 0000 0000 0000 0000 0000 0000 0000 0000
00000240: 0000 0000 0000 0000 0000 0000 0000 0000
00000250: 0000 0000 0000 0000 0000 0000 0000 0000
00000260: 0000 0000 0000 0000 0000 0000 0000 0000
00000270: 0000 0000 0000 0000 0000 0000 0000 0000
00000280: 0000 0000 0000 0000 0000 0000 0000 0000
00000290: 0000 0000 0000 0000 0000 0000 0000 0000
000002a0: 0000 0000 0000 0000 0000 0000 0000 0000
000002b0: 0000 0000 0000 0000 0000 0000 0000 0000
000002c0: 0000 0000 0000 0000 0000 0000 0000 0000
000002d0: 0000 0000 0000 0000 0000 0000 0000 0000
000002e0: 0000 0000 0000 0000 0000 0000 0000 0000
000002f0: 0000 0000 0000 0000 0000 0000 0000 0000
00000300: 0000 0000 0000 0000 0000 0000 0000 0000
00000310: 0000 0000 0000 0000 0000 0000 0000 0000
00000320: 0000 0000 0000 0000 0000 0000 0000 0000
00000330: 0000 0000 0000 0000 0000 0000 0000 0000
00000340: 0000 0000 0000 0000 0000 0000 0000 0000
00000350: 0000 0000 0000 0000 0000 0000 0000 0000
00000360: 0000 0000 0000 0000 0000 0000 0000 0000
00000370: 0000 0000 0000 0000 0000 0000 0000 0000
00000380: 0000 0000 0000 0000 0000 0000 0000 0000
00000390: 0000 0000 0000 0000 0000 0000 0000 0000
000003a0: 0000 0000 0000 0000 0000 0000 0000 0000
000003b0: 0000 0000 0000 0000 0000 0000 0000 0000
000003c0: 0000 0000 0000 0000 0000 0000 0000 0000
000003d0: 0000 0000 0000 0000 0000 0000 0000 0000
000003e0: 0000 0000 0000 0000 0000 0000 0000 0000
000003f0: 0000 0000 0000 0000 0000 0000 0000 0000

cov.base_kernel.raw_lengthscale f4 [1, 2]
31.277044 31.525291
00000000: 6337 fa41 cc33 fc41
