slam/rbpf_slam/data/old_results/works_w_more_particles/svgp_particle4.pth (torch, 367369 bytes, 4 tensors)

variational_strategy.inducing_points f4 [300, 2]
290.49142 -210.64856 376.51932 -123.57264 364.54358 -166.25693 283.99023 -118.209724
293.0184 -111.87342 311.18533 -148.8262 492.75436 -173.02295 230.96138 -216.0452
294.36536 -108.28297 303.1435 -221.83844 252.6887 -56.7977 293.8977 -366.90082
359.5049 -150.50233 387.8958 -116.57919 239.53001 -126.373505 397.85782 -135.28604
217.92737 -123.790565 350.61963 -139.96448 267.96863 -250.90825 276.12943 -372.73978
345.95758 -331.34625 378.7633 -142.08762 215.93452 -106.69181 342.2869 -192.92902
203.46893 -92.8554 262.33435 -142.18143 457.4251 -138.98503 341.37415 -97.075325
256.92212 -210.10771 215.11746 -209.0907 261.96442 -122.46456 397.94107 -206.28888
234.62338 -74.71285 187.08463 -126.253136 230.44199 -75.89292 231.68562 -226.90839
251.72968 -112.45743 220.4891 -70.959625 259.5879 -204.52538 363.5283 -115.93531
346.9966 -160.82373 272.4826 -368.96103 272.4785 -132.95145 484.62955 -179.90204
257.2247 -103.46432 339.48764 -129.09462 219.00336 -145.14632 258.86002 -119.18832
405.95746 -130.30696 238.33308 -196.94344 255.89467 -169.47543 200.5394 -168.29268
300.6049 -100.56992 282.856 -106.74158 253.95216 -309.18793 381.05148 -206.77379
337.4087 -87.35789 334.23212 -143.68169 347.58932 -137.99318 298.33853 -113.49321
358.04868 -111.26166 254.51718 -86.549385 228.75618 -133.45308 222.31679 -160.25554
424.06302 -297.47882 340.43774 -239.56467 248.30412 -286.25745 205.73117 -192.24622
386.41714 -153.28601 344.78836 -306.525 241.3304 -166.27802 222.1563 -181.29576
239.3601 -160.27626 323.35608 -134.2791 258.685 -103.05936 404.2271 -200.84187
283.28915 -370.08813 315.5803 -90.66058 202.82028 -122.63818 380.6517 -233.61076
281.8701 -203.03726 278.50247 -348.21744 230.42068 -71.012726 319.08557 -272.55154
344.39 -204.8432 258.78058 -141.6258 474.92236 -177.75365 233.99663 -232.21765
219.09323 -216.23744 301.4496 -174.82297 241.06627 -122.411964 482.70627 -187.47897
349.16403 -260.5352 282.85013 -162.65036 352.19995 -108.63257 205.61037 -177.46393
271.40002 -197.34662 382.41345 -286.30515 310.10764 -125.17035 396.8645 -267.25763
207.4682 -187.39015 399.65665 -251.8785 265.59653 -207.25873 303.18817 -132.54706
306.99884 -87.1191 230.27649 -251.10405 381.43326 -291.73828 275.6112 -218.8431
370.5017 -123.57281 367.33337 -101.811806 275.5904 -301.39355 213.37616 -59.768177
427.04773 -230.37717 311.29617 -189.2369 245.34567 -125.30921 320.4987 -121.44396
246.69977 -106.99435 297.9039 -111.46359 335.76624 -274.10193 231.22469 -191.14964
243.28833 -200.18106 384.24515 -279.514 226.16055 -69.66863 326.67612 -134.86478
229.26288 -199.63411 377.77603 -145.62286 364.03372 -184.05249 305.24966 -187.37364
00000000: e73e 9143 08a6 52c3 7942 bc43 3125 f7c2
00000010: 9445 b643 c641 26c3 c0fe 8d43 616b ecc2
00000020: 5b82 9243 31bf dfc2 b997 9b43 82d3 14c3
00000030: 8f60 f643 e005 2dc3 1df6 6643 920b 58c3
00000040: c42e 9343 e190 d8c2 5e92 9743 a4d6 5dc3
00000050: 4fb0 7c43 d830 63c2 e8f2 9243 4e73 b7c3
00000060: a1c0 b343 9980 16c3 aaf2 c143 8c28 e9c2
00000070: af87 6f43 3cbf fcc2 cded c643 3a49 07c3
00000080: 68ed 5943 c594 f7c2 504f af43 e8f6 0bc3
00000090: fcfb 8543 83e8 7ac3 9110 8a43 b15e bac3
000000a0: 92fa ac43 52ac a5c3 b461 bd43 6e16 0ec3
000000b0: 3def 5743 3562 d5c2 b924 ab43 d4ed 40c3
000000c0: 0c78 4b43 f7b5 b9c2 cc2a 8343 722e 0ec3
000000d0: 6ab6 e443 2bfc 0ac3 e4af aa43 9126 c2c2
000000e0: 0876 8043 931b 52c3 121e 5743 3817 51c3
000000f0: 72fb 8243 dbed f4c2 75f8 c643 f449 4ec3
00000100: 969f 6a43 fb6c 95c2 aa15 3b43 9b81 fcc2
00000110: 2671 6643 2dc9 97c2 85af 6743 8ce8 62c3
00000120: ccba 7b43 34ea e0c2 367d 5c43 54eb 8dc2
00000130: 40cb 8143 7f86 4cc3 9fc3 b543 e1de e7c2
00000140: 917f ad43 e0d2 20c3 c63d 8843 037b b8c3
00000150: 3f3d 8843 92f3 04c3 9550 f243 ece6 33c3
00000160: c39c 8043 bbed cec2 6bbe a943 3918 01c3
00000170: dc00 5b43 7525 11c3 156e 8143 6b60 eec2
00000180: 8efa ca43 954e 02c3 4555 6e43 85f1 44c3
00000190: 09e5 7f43 b679 29c3 168a 4843 ed4a 28c3
000001a0: 6d4d 9643 cd23 c9c2 916d 8d43 b07b d5c2
000001b0: c1f3 7d43 0e98 9ac3 9786 be43 17c6 4ec3
000001c0: 50b4 a843 3db7 aec2 b61d a743 83ae 0fc3
000001d0: 6fcb ad43 41fe 09c3 552b 9543 86fc e2c2
000001e0: 3b06 b343 f885 dec2 6684 7e43 4919 adc2
000001f0: 95c1 6443 fd73 05c3 1951 5e43 6b41 20c3
00000200: 1108 d443 4abd 94c3 0838 aa43 8e90 6fc3
00000210: db4d 7843 f420 8fc3 2ebb 4d43 083f 40c3
00000220: 6535 c143 3849 19c3 e964 ac43 3343 99c3
00000230: 9554 7143 2c47 26c3 0328 5e43 b74b 35c3
00000240: 305c 6f43 b946 20c3 94ad a143 7347 06c3
00000250: ae57 8143 641e cec2 121d ca43 85d7 48c3
00000260: 03a5 8d43 480b b9c3 47ca 9d43 3852 b5c2
00000270: fed1 4a43 c046 f5c2 6b53 be43 5b9c 69c3
00000280: 5fef 8c43 8a09 4bc3 5140 8b43 d51b aec3
00000290: b26b 6643 8406 8ec2 f48a 9f43 9946 88c3
000002a0: ec31 ac43 dcd7 4cc3 ea63 8143 34a0 0dc3
000002b0: 1076 ed43 efc0 31c3 23ff 6943 b837 68c3
000002c0: de17 5b43 c93c 58c3 8cb9 9643 aed2 2ec3
000002d0: f710 7143 edd2 f4c2 675a f143 9e7a 3bc3
000002e0: ff94 ae43 8144 82c3 d16c 8d43 7ea6 22c3
000002f0: 9819 b043 e043 d9c2 419c 4d43 c476 31c3
00000300: 34b3 8743 bc58 45c3 ec34 bf43 0f27 8fc3
00000310: c70d 9b43 3857 fac2 a86e c643 faa0 85c3
00000320: dc77 4f43 e163 3bc3 0dd4 c743 e5e0 7bc3
00000330: 5bcc 8443 3c42 4fc3 1698 9743 0c8c 04c3
00000340: da7f 9943 fb3c aec2 c846 6643 a31a 7bc3
00000350: 75b7 be43 80de 91c3 3cce 8943 d5d7 5ac3
00000360: 3840 b943 4725 f7c2 acaa b743 a59f cbc2
00000370: 92cb 8943 60b2 96c3 4c60 5543 9d12 6fc2
00000380: 1c86 d543 8e60 66c3 e9a5 9b43 a53c 3dc3
00000390: 7e58 7543 519e fac2 d53f a043 4fe3 f2c2
000003a0: 24b3 7643 1bfd d5c2 b3f3 9443 5ced dec2
000003b0: 14e2 a743 0c0d 89c3 8539 6743 4f26 3fc3
000003c0: d049 7343 5a2e 48c3 611f c043 cbc1 8bc3
000003d0: 1a29 6243 5756 8bc2 8b56 a343 62dd 06c3
000003e0: 4c43 6543 55a2 47c3 55e3 bc43 749f 11c3
000003f0: 5104 b643 700d 38c3 f59f 9843 a75f 3bc3

variational_strategy._variational_distribution.variational_mean f4 [300]
-13.512998 -11.959896 -8.753206 -10.112553 -4.7963486 -5.8276424 -11.1476145 -11.704691
-7.3991966 -6.4102817 -8.493239 -10.419522 1.0232801 -4.0535946 -8.918653 -3.9172506
-5.833505 -1.3235457 -7.1392617 -1.9677385 -10.131163 0.7204678 -2.9855762 -5.818879
-5.963951 -5.6614714 -6.064696 -4.702251 -1.156463 -4.8983073 -2.6702955 -10.208459
-1.8867996 -5.139972 -0.99366575 -3.0428283 -0.9404064 -2.2773356 -2.0366457 -1.8773398
0.59772986 -3.5419254 -0.6732737 -3.7737744 -0.992206 0.24287556 -3.7687128 0.016202332
-1.6989795 -2.5365858 -1.6409206 -3.737499 -0.5074357 -0.74327713 -7.9250116 -1.6100743
-0.85714453 0.20869328 -0.27544174 0.5279186 -0.43514928 -0.39208916 -0.18084915 0.21638699
-8.173046 -6.515715 -3.605374 -0.6239464 -1.9459976 -4.4116445 0.33410037 -0.010053622
-0.2299302 0.6719326 -0.13080049 -2.799455 0.4245544 -0.23657043 0.82519567 -5.279996
-1.3455049 -2.5917063 -0.2556036 -5.0600657 -1.1844776 -0.054923594 -1.4789637 -0.62657505
-0.872219 -0.9301107 -0.1334887 -4.2442393 -2.5301683 -0.04256789 0.08526456 0.17170668
-0.31060255 -4.7546673 -0.036328018 -2.7750275 -0.08772273 -1.7316523 0.07885031 -0.8393535
-1.0433836 -2.0528123 -1.6430566 -0.2353074 -0.027086 -0.7896584 -2.6533794 -1.6377283
-5.924586 -0.86870265 0.080682464 0.16872908 -0.21403475 0.13555273 -0.2664928 -0.07122717
0.056819297 -0.0491962 0.056552906 -0.00659326 -0.14479388 0.3295497 -0.74486524 -0.43772823
0.28461698 0.10808202 -0.2356703 -0.1404736 0.012387195 -0.21047616 0.11518365 0.16302742
-0.040655218 -0.9867075 0.11656304 -0.2837269 -0.050421834 -0.49608552 0.08273633 0.0703983
0.14270224 -0.102988146 0.076764956 0.027675355 -0.3419496 0.08569197 -0.599903 -0.1267957
0.09415761 0.0026770101 -0.044309076 -0.9064022 -0.027850263 -0.31671774 -1.719898 -0.16250178
0.35219502 -1.9527711 -0.11159721 0.013478566 -1.433101 0.06273717 0.95829314 -0.016171668
-1.8186735 0.1488414 0.17220105 -0.09423521 0.0020213188 0.20237912 -0.123734675 0.023030685
-0.19928025 -2.6731048 -0.037803516 -0.009063112 -0.084335916 0.124499284 0.0045152754 -1.6443952
-0.3350167 0.10082294 -0.31250066 -0.17238888 0.003203425 -0.17409052 0.04778938 -0.11228193
0.04856605 -3.3785164 0.006916347 0.0437403 -0.12790374 -0.32144952 0.09348506 -0.012027499
-0.013520026 -0.2829865 -0.8284791 -0.009648554 -0.23159687 -0.16570364 -0.69721246 0.043578535
0.025172576 -0.0035456847 -0.40280545 -0.23667553 -0.005686163 0.036065567 -0.71796334 0.02849302
-0.35804832 0.025606964 -0.5524344 0.12901078 0.14168584 0.0009150994 0.008588268 0.07191048
-0.22186472 -0.034856185 -2.428573 0.5364298 -0.29618344 -1.6840985 0.020918755 -0.0814351
-0.21688642 0.102309495 -0.69526064 0.04019155 -0.9630395 -1.2708122 -0.18043813 -0.010407685
0.24352846 -0.023540549 -0.14182416 -0.14100204 -0.03477278 0.01482579 -0.17603058 0.16982605
-0.020419758 -0.05240727 -0.010522044 -0.9996826 0.0068372055 -0.089670196 -0.20447327 0.0007181242
00000000: 3d35 58c1 bc5b 3fc1 220d 0cc1 04cd 21c1
00000010: b07b 99c0 0c7c bac0 a15c 32c1 6a46 3bc1
00000020: 38c6 ecc0 0721 cdc0 4fe4 07c1 5db6 26c1
00000030: d8fa 823f 0cb7 81c0 cdb2 0ec1 3cb4 7ac0
00000040: 13ac bac0 f269 a9bf d574 e4c0 dbde fbbf
00000050: 3e19 22c1 9470 383f ae13 3fc0 4234 bac0
00000060: b0d8 bec0 c62a b5c0 fd11 c2c0 d778 96c0
00000070: fb06 94bf efbe 9cc0 1fe6 2ac0 d955 23c1
00000080: a682 f1bf a77a a4c0 e160 7ebf b3bd 42c0
00000090: 79be 70bf debf 11c0 6758 02c0 ac4c f0bf
000000a0: d304 193f e8ae 62c0 aa5b 2cbf 8585 71c0
000000b0: 3601 7ebf 5fb4 783e 9732 71c0 c1ba 843c
000000c0: 2978 d9bf 6c57 22c0 b009 d2bf 2f33 6fc0
000000d0: 4ee7 01bf 6947 3ebf b299 fdc0 ea16 cebf
000000e0: d36d 5bbf b1b3 553e b306 8dbe ac25 073f
000000f0: e3cb debe e9bf c8be 8530 39be 8d94 5d3e
00000100: ccc4 02c1 bd80 d0c0 73be 66c0 f4ba 1fbf
00000110: 7316 f9bf 312c 8dc0 340f ab3e f2b7 24bc
00000120: d372 6bbe c603 2c3f 90f0 05be 452a 33c0
00000130: 325f d93e 853f 72be 0640 533f baf5 a8c0
00000140: 8139 acbf 84de 25c0 7ade 82be 0fec a1c0
00000150: f69c 97bf 90f7 60bd af4e bdbf 3967 20bf
00000160: bf49 5fbf bc1b 6ebf 43b1 08be cfd0 87c0
00000170: 47ee 21c0 ab5b 2ebd 309f ae3d e0d3 2f3e
00000180: 4c07 9fbe 3c26 98c0 b0cc 14bd 0d9a 31c0
00000190: faa7 b3bd c8a6 ddbf 457c a13d dfdf 56bf
000001a0: 988d 85bf 4761 03c0 ae4f d2bf 6cf4 70be
000001b0: 76e3 ddbc 0e27 4abf f8d0 29c0 15a1 d1bf
000001c0: 3596 bdc0 4c63 5ebf d93c a53d 51c7 2c3e
000001d0: ed2b 5bbe 56ce 0a3e bf71 88be 8ddf 91bd
000001e0: 5abb 683d f481 49bd 05a4 673d 460c d8bb
000001f0: d944 14be bdba a83e 7daf 3ebf ea1d e0be
00000200: 51b9 913e 1b5a dd3d 8e53 71be 50d8 0fbe
00000210: a9f3 4a3c 1087 57be 68e5 eb3d a9f0 263e
00000220: 1686 26bd dd98 7cbf 9ab8 ee3d a744 91be
00000230: 2087 4ebd ecfe fdbe aa71 a93d fc2c 903d
00000240: 8920 123e 73eb d2bd f236 9d3d 6db7 e23c
00000250: 0514 afbe 467f af3d 3e93 19bf bbd6 01be
00000260: b4d5 c03d c770 2f3b 6f7d 35bd f909 68bf
00000270: 3c26 e4bc d428 a2be 9e25 dcbf de66 26be
00000280: e852 b43e 67f4 f9bf 148d e4bd 34d5 5c3c
00000290: db6f b7bf 587c 803d b352 753f 727a 84bc
000002a0: 4bca e8bf e169 183e 7955 303e 64fe c0bd
000002b0: 1a78 043b 793c 4f3e 9b68 fdbd d9aa bc3c
000002c0: 1f10 4cbe 2614 2bc0 dcd7 1abd 727d 14bc
000002d0: 4fb8 acbd 7bf9 fe3d e0f4 933b 8b7b d2bf
000002e0: 4f87 abbe 427c ce3d 1600 a0be b686 30be
000002f0: 8ef0 513b c944 32be ccbe 433d 12f4 e5bd
00000300: 32ed 463d 9d39 58c0 86a2 e23b 0729 333d
00000310: 33f9 02be 0895 a4be 1875 bf3d fd0e 45bc
00000320: 1983 5dbc 9be3 90be 3517 54bf f814 1ebc
00000330: bb27 6dbe 37ae 29be 847c 32bf 687f 323d
00000340: b836 ce3c b85e 68bb 843c cebe 125b 72be
00000350: fe52 babb 7db9 133d 72cc 37bf 326a e93c
00000360: 1c52 b7be b2c5 d13c 576c 0dbf 671b 043e
00000370: 1816 113e 48e3 6f3a cfb5 0c3c cd45 933d
00000380: 8130 63be 5cc5 0ebd bd6d 1bc0 7753 093f
00000390: 5ba5 97be 8a90 d7bf cf5d ab3c 72c7 a6bd
000003a0: 7917 5ebe a487 d13d 9afc 31bf e59f 243d
000003b0: c289 76bf f9a9 a2bf c6c4 38be ff84 2abc
000003c0: 865f 793e 1cd8 c0bc 5a3a 11be d762 10be
000003d0: e76d 0ebd dfe7 723c 5c41 34be e1e6 2d3e
000003e0: 5647 a7bc 01a9 56bd a764 2cbc 33eb 7fbf
000003f0: a30a e03b 02a5 b7bd 7161 51be 8040 3c3a

variational_strategy._variational_distribution.chol_variational_covar f4 [300, 300]
0.3271367 0.0 0.0 0.0 0.0 0.0 0.0 0.0
0.0 0.0 0.0 0.0 0.0 0.0 0.0 0.0
0.0 0.0 0.0 0.0 0.0 0.0 0.0 0.0
0.0 0.0 0.0 0.0 0.0 0.0 0.0 0.0
0.0 0.0 0.0 0.0 0.0 0.0 0.0 0.0
0.0 0.0 0.0 0.0 0.0 0.0 0.0 0.0
0.0 0.0 0.0 0.0 0.0 0.0 0.0 0.0
0.0 0.0 0.0 0.0 0.0 0.0 0.0 0.0
0.0 0.0 0.0 0.0 0.0 0.0 0.0 0.0
0.0 0.0 0.0 0.0 0.0 0.0 0.0 0.0
0.0 0.0 0.0 0.0 0.0 0.0 0.0 0.0
0.0 0.0 0.0 0.0 0.0 0.0 0.0 0.0
0.0 0.0 0.0 0.0 0.0 0.0 0.0 0.0
0.0 0.0 0.0 0.0 0.0 0.0 0.0 0.0
0.0 0.0 0.0 0.0 0.0 0.0 0.0 0.0
0.0 0.0 0.0 0.0 0.0 0.0 0.0 0.0
0.0 0.0 0.0 0.0 0.0 0.0 0.0 0.0
0.0 0.0 0.0 0.0 0.0 0.0 0.0 0.0
0.0 0.0 0.0 0.0 0.0 0.0 0.0 0.0
0.0 0.0 0.0 0.0 0.0 0.0 0.0 0.0
0.0 0.0 0.0 0.0 0.0 0.0 0.0 0.0
0.0 0.0 0.0 0.0 0.0 0.0 0.0 0.0
0.0 0.0 0.0 0.0 0.0 0.0 0.0 0.0
0.0 0.0 0.0 0.0 0.0 0.0 0.0 0.0
0.0 0.0 0.0 0.0 0.0 0.0 0.0 0.0
0.0 0.0 0.0 0.0 0.0 0.0 0.0 0.0
0.0 0.0 0.0 0.0 0.0 0.0 0.0 0.0
0.0 0.0 0.0 0.0 0.0 0.0 0.0 0.0
0.0 0.0 0.0 0.0 0.0 0.0 0.0 0.0
0.0 0.0 0.0 0.0 0.0 0.0 0.0 0.0
0.0 0.0 0.0 0.0 0.0 0.0 0.0 0.0
0.0 0.0 0.0 0.0 0.0 0.0 0.0 0.0
00000000: 767e a73e 0000 0000 0000 0000 0000 0000
00000010: 0000 0000 0000 0000 0000 0000 0000 0000
00000020: 0000 0000 0000 0000 0000 0000 0000 0000
00000030: 0000 0000 0000 0000 0000 0000 0000 0000
00000040: 0000 0000 0000 0000 0000 0000 0000 0000
00000050: 0000 0000 0000 0000 0000 0000 0000 0000
00000060: 0000 0000 0000 0000 0000 0000 0000 0000
00000070: 0000 0000 0000 0000 0000 0000 0000 0000
00000080: 0000 0000 0000 0000 0000 0000 0000 0000
00000090: 0000 0000 0000 0000 0000 0000 0000 0000
000000a0: 0000 0000 0000 0000 0000 0000 0000 0000
000000b0: 0000 0000 0000 0000 0000 0000 0000 0000
000000c0: 0000 0000 0000 0000 0000 0000 0000 0000
000000d0: 0000 0000 0000 0000 0000 0000 0000 0000
000000e0: 0000 0000 0000 0000 0000 0000 0000 0000
000000f0: 0000 0000 0000 0000 0000 0000 0000 0000
00000100: 0000 0000 0000 0000 0000 0000 0000 0000
00000110: 0000 0000 0000 0000 0000 0000 0000 0000
00000120: 0000 0000 0000 0000 0000 0000 0000 0000
00000130: 0000 0000 0000 0000 0000 0000 0000 0000
00000140: 0000 0000 0000 0000 0000 0000 0000 0000
00000150: 0000 0000 0000 0000 0000 0000 0000 0000
00000160: 0000 0000 0000 0000 0000 0000 0000 0000
00000170: 0000 0000 0000 0000 0000 0000 0000 0000
00000180: 0000 0000 0000 0000 0000 0000 0000 0000
00000190: 0000 0000 0000 0000 0000 0000 0000 0000
000001a0: 0000 0000 0000 0000 0000 0000 0000 0000
000001b0: 0000 0000 0000 0000 0000 0000 0000 0000
000001c0: 0000 0000 0000 0000 0000 0000 0000 0000
000001d0: 0000 0000 0000 0000 0000 0000 0000 0000
000001e0: 0000 0000 0000 0000 0000 0000 0000 0000
000001f0: 0000 0000 0000 0000 0000 0000 0000 0000
00000200: 0000 0000 0000 0000 0000 0000 0000 0000
00000210: 0000 0000 0000 0000 0000 0000 0000 0000
00000220: 0000 0000 0000 0000 0000 0000 0000 0000
00000230: 0000 0000 0000 0000 0000 0000 0000 0000
00000240: 0000 0000 0000 0000 0000 0000 0000 0000
00000250: 0000 0000 0000 0000 0000 0000 0000 0000
00000260: 0000 0000 0000 0000 0000 0000 0000 0000
00000270: 0000 0000 0000 0000 0000 0000 0000 0000
00000280: 0000 0000 0000 0000 0000 0000 0000 0000
00000290: 0000 0000 0000 0000 0000 0000 0000 0000
000002a0: 0000 0000 0000 0000 0000 0000 0000 0000
000002b0: 0000 0000 0000 0000 0000 0000 0000 0000
000002c0: 0000 0000 0000 0000 0000 0000 0000 0000
000002d0: 0000 0000 0000 0000 0000 0000 0000 0000
000002e0: 0000 0000 0000 0000 0000 0000 0000 0000
000002f0: 0000 0000 0000 0000 0000 0000 0000 0000
00000300: 0000 0000 0000 0000 0000 0000 0000 0000
00000310: 0000 0000 0000 0000 0000 0000 0000 0000
00000320: 0000 0000 0000 0000 0000 0000 0000 0000
00000330: 0000 0000 0000 0000 0000 0000 0000 0000
00000340: 0000 0000 0000 0000 0000 0000 0000 0000
00000350: 0000 0000 0000 0000 0000 0000 0000 0000
00000360: 0000 0000 0000 0000 0000 0000 0000 0000
00000370: 0000 0000 0000 0000 0000 0000 0000 0000
00000380: 0000 0000 0000 0000 0000 0000 0000 0000
00000390: 0000 0000 0000 0000 0000 0000 0000 0000
000003a0: 0000 0000 0000 0000 0000 0000 0000 0000
000003b0: 0000 0000 0000 0000 0000 0000 0000 0000
000003c0: 0000 0000 0000 0000 0000 0000 0000 0000
000003d0: 0000 0000 0000 0000 0000 0000 0000 0000
000003e0: 0000 0000 0000 0000 0000 0000 0000 0000
000003f0: 0000 0000 0000 0000 0000 0000 0000 0000

cov.base_kernel.raw_lengthscale f4 [1, 2]
32.389305 32.195415
00000000: a68e 0142 1bc8 0042
