slam/rbpf_slam/data/old_results/works_w_more_particles/svgp_particle1.pth (torch, 367369 bytes, 4 tensors)

variational_strategy.inducing_points f4 [300, 2]
0	0x43bca9b7	377.3259
1	0xc31aa684	-154.65045
2	0x43b72a70	366.33154
3	0xc34a2233	-202.13359
4	0x436e4432	238.26639
5	0xc3209850	-160.59497
6	0x43a99f8d	339.2465
7	0xc317d9db	-151.851
8	0x438592e1	267.1475
9	0xc3a2643b	-324.78305
10	0x43697aa0	233.479
11	0xc33e7afa	-190.48038
12	0x435c369a	220.21329
13	0xc35e8734	-222.52814
14	0x43a06d05	320.8517
15	0xc340b47c	-192.70502
16	0x43820347	260.0256
17	0xc3895e7a	-274.7381
18	0x43e6c583	461.54306
19	0xc34cf763	-204.96635
20	0x4384e846	265.81464
21	0xc381d2d6	-259.64716
22	0x436bcf45	235.80965
23	0xc375d4e0	-245.83154
24	0x435d43e7	221.26524
25	0xc370f260	-240.94678
26	0x43ba1db2	372.232
27	0xc315ca9d	-149.79146
28	0x4357e18e	215.88107
29	0xc31afaaf	-154.97923
30	0x43a4513a	328.63458
31	0xc31252b2	-146.32303
32	0x43b64573	364.54257
33	0xc2dada00	-109.42578
34	0x43908acc	289.08435
35	0xc38b70fc	-278.8827
36	0x43b528d1	362.31888
37	0xc3a2e521	-325.79007
38	0x43caf62b	405.9232
39	0xc35c877e	-220.52927
40	0x437991a7	249.56895
41	0xc387b4fc	-271.41394
42	0x43aa871b	341.0555
43	0xc37466c6	-244.40146
44	0x43d1cf5c	419.62
45	0xc309c573	-137.77129
46	0x439b504c	310.62732
47	0xc3b76ca1	-366.84866
48	0x436e360f	238.21117
49	0xc30e68e7	-142.40977
50	0x437855b5	248.3348
51	0xc38ab652	-277.42438
52	0x439bb46a	311.4095
53	0xc308c544	-136.77057
54	0x43916c7a	290.84747
55	0xc318c28c	-152.75995
56	0x438782a3	271.0206
57	0xc30ce0da	-140.87833
58	0x43824fb4	260.62268
59	0xc36865f1	-232.39821
60	0x438e5d4c	284.72888
61	0xc362fc1d	-226.98482
62	0x43a9d6da	339.67853
63	0xc3b05757	-352.68234
64	0x437575fa	245.46085
65	0xc33c23ed	-188.14034
66	0x438ad868	277.69067
67	0xc2aef86e	-87.485214
68	0x4364fa29	228.97719
69	0xc38c6e69	-280.86258
70	0x439dc5d9	315.5457
71	0xc2f96506	-124.69731
72	0x4367f151	231.94264
73	0xc29771e7	-75.722466
74	0x438642da	268.52228
75	0xc310e79e	-144.90475
76	0x4391d294	291.64514
77	0xc34dbe0f	-205.74242
78	0x43a2f5a7	325.91916
79	0xc2b10438	-88.50824
80	0x43d307a4	422.0597
81	0xc36ba2fa	-235.63663
82	0x4387617d	270.76163
83	0xc35ddb04	-221.85553
84	0x43bd2985	378.32437
85	0xc345d71a	-197.84024
86	0x43519f7b	209.62297
87	0xc2f345ca	-121.63631
88	0x43792c29	249.1725
89	0xc2f69280	-123.28613
90	0x43886b22	272.83698
91	0xc3855f70	-266.7456
92	0x438222aa	260.2708
93	0xc340dc0d	-192.85957
94	0x4365f88c	229.97089
95	0xc32b0918	-171.03552
96	0x43c4b007	393.3752
97	0xc325ad7b	-165.67766
98	0x436dd833	237.84453
99	0xc3495051	-201.31374
100	0x43b67a51	364.9556
101	0xc2e93cd8	-116.618835
102	0x437f1fbc	255.12396
103	0xc33eaeb2	-190.6824
104	0x4368b11e	232.69186
105	0xc3650ba5	-229.04549
106	0x43cf9ede	415.24115
107	0xc32d8a11	-173.53932
108	0x4390117f	288.1367
109	0xc2cf6af0	-103.70886
110	0x4342e84a	194.90738
111	0xc29112f6	-72.53703
112	0x437266fc	242.40228
113	0xc3253397	-165.20152
114	0x43c8de99	401.73904
115	0xc3528add	-210.54243
116	0x4387fe24	271.98547
117	0xc3838664	-263.04993
118	0x4387b742	271.4317
119	0xc32deccf	-173.92503
120	0x4358c5ed	216.77315
121	0xc2b7c95c	-91.89328
122	0x4389c9af	275.57565
123	0xc33433ea	-180.20279
124	0x438a766e	276.92523
125	0xc2d010f3	-104.033104
126	0x43863eda	268.49103
127	0xc3012008	-129.12512
128	0x43ba46c5	372.5529
129	0xc304f1b6	-132.94418
130	0x43c60829	396.06375
131	0xc3044b5f	-132.29442
132	0x43a97153	338.88535
133	0xc3a9d4e7	-339.6633
134	0x438cd22d	281.642
135	0xc3bcca3e	-377.58002
136	0x434809ae	200.03781
137	0xc2bfe096	-95.938644
138	0x43c66b8f	396.8403
139	0xc354ea85	-212.91609
140	0x439c2dff	312.35934
141	0xc32f240d	-175.14082
142	0x438817ab	272.1849
143	0xc2f15b46	-120.67827
144	0x43a3743a	326.90802
145	0xc31547c9	-149.28041
146	0x43610e79	225.05653
147	0xc34a19f3	-202.10136
148	0x4372113e	242.06735
149	0xc2e6fe3a	-115.49654
150	0x437149d3	241.28838
151	0xc35d86fa	-221.52725
152	0x437244a5	242.26814
153	0xc31fd09c	-159.81488
154	0x439cdce7	313.7258
155	0xc3b0dee3	-353.7413
156	0x439a0591	308.0435
157	0xc319fc07	-153.98448
158	0x4390116d	288.13614
159	0xc31fd88d	-159.8459
160	0x43725dc2	242.36624
161	0xc3a8aee5	-337.36636
162	0x4399eb71	307.8394
163	0xc328fd15	-168.9886
164	0x43ac74d3	344.9127
165	0xc3192381	-153.13869
166	0x43a36a39	326.82986
167	0xc3267413	-166.45341
168	0x43a2da03	325.70322
169	0xc306ddc1	-134.86623
170	0x436326e2	227.15189
171	0xc31ab7af	-154.71751
172	0x437a98fa	250.59756
173	0xc36712f7	-231.07408
174	0x435e3b20	222.23096
175	0xc2bf87c7	-95.76519
176	0x4365dfc5	229.8741
177	0xc2d4802b	-106.25033
178	0x436cc3e3	236.76518
179	0xc3229c6a	-162.611
180	0x4380e654	257.79944
181	0xc308dffd	-136.87495
182	0x438d5dbd	282.73233
183	0xc320ef54	-160.93488
184	0x43507536	208.45786
185	0xc292c186	-73.377975
186	0x43d1cc95	419.5983
187	0xc303451e	-131.26999
188	0x439793b4	303.15393
189	0xc34c1c55	-204.11067
190	0x43300f2f	176.05931
191	0xc32729a6	-167.16269
192	0x438fc13d	287.50967
193	0xc334755b	-180.45842
194	0x438cf9f5	281.9528
195	0xc322e3f4	-162.89044
196	0x439d61ee	314.76508
197	0xc2e7da42	-115.926285
198	0x43824553	260.5416
199	0xc313f3bc	-147.95209
200	0x439396b2	295.1773
201	0xc2efbba4	-119.866486
202	0x43ad02c0	346.02148
203	0xc32abeaf	-170.74486
204	0x437ba0c2	251.62796
205	0xc340312b	-192.19206
206	0x43861c02	268.2188
207	0xc39e2467	-316.2844
208	0x43906f10	288.86768
209	0xc2d33672	-105.60634
210	0x435c4b7d	220.29488
211	0xc35e23d0	-222.1399
212	0x438e3c3b	284.47055
213	0xc364effe	-228.93747
214	0x43853211	266.39114
215	0xc2915fb0	-72.68689
216	0x43924517	292.53976
217	0xc31ab291	-154.69753
218	0x43f6e6ae	493.8022
219	0xc32b75dd	-171.4604
220	0x436ef720	238.96533
221	0xc32505c0	-165.02246
222	0x4375b6b8	245.71375
223	0xc3683335	-232.20003
224	0x4387ceb2	271.6148
225	0xc2f9ccf9	-124.90034
226	0x4373841f	243.5161
227	0xc281c1fe	-64.87889
228	0x43a18731	323.05618
229	0xc300ba5c	-128.72797
230	0x4376f1f2	246.9451
231	0xc37f2971	-255.16188
232	0x43a556f3	330.6793
233	0xc2b73b19	-91.615425
234	0x43ae7672	348.92535
235	0xc31cfc73	-156.98613
236	0x436a5206	234.3204
237	0xc366b036	-230.68832
238	0x4338bb05	184.73055
239	0xc3322c13	-178.17216
240	0x43745002	244.31253
241	0xc39744aa	-302.53644
242	0x43abce5c	343.61218
243	0xc387caf7	-271.58566
244	0x43a01cfd	320.22647
245	0xc3422d72	-194.17752
246	0x437dd634	253.83673
247	0xc342bad6	-194.72983
248	0x43818559	259.04178
249	0xc37a15ec	-250.08563
250	0x437d66c7	253.40147
251	0xc35e047e	-222.01755
252	0x438b0c32	278.09528
253	0xc3b15319	-354.6492
254	0x43b68586	365.04315
255	0xc317ac8c	-151.67401

variational_strategy._variational_distribution.variational_mean f4 [300]
0	0xc1443ea6	-12.265295
1	0xc13d380e	-11.826185
2	0xc149666f	-12.587508
3	0xc0e5b88a	-7.1787767
4	0xc13e1188	-11.87928
5	0xc0ebceb0	-7.3689804
6	0xc1089cf3	-8.538318
7	0xc0da1f46	-6.8163176
8	0xc11404a3	-9.251132
9	0xc121441e	-10.07913
10	0xc086f1ca	-4.2170153
11	0xc029180d	-2.642093
12	0xbf97a532	-1.1847289
13	0xbf4f1d12	-0.8090373
14	0xc0a49b45	-5.143954
15	0xc0bc5c4d	-5.886267
16	0xc0e68e2d	-7.2048554
17	0xc0a05c76	-5.0112867
18	0xc11b10fa	-9.691645
19	0xc0d5ad93	-6.6774383
20	0xc02d3bb3	-2.7067688
21	0xc0f33e8f	-7.6013865
22	0xc101c9ee	-8.111799
23	0xc0eb787a	-7.3584566
24	0xc091af62	-4.552659
25	0xc0427562	-3.0384145
26	0xc06151f4	-3.520627
27	0xc0779f4f	-3.8690984
28	0xc04d99a1	-3.2125018
29	0xc0248812	-2.570805
30	0xc053014d	-3.2969544
31	0xbfa7e146	-1.3115623
32	0xbfb31c10	-1.3992939
33	0xc113c130	-9.234665
34	0xc00f998f	-2.2437475
35	0xc02b1c64	-2.6736078
36	0xc0fa58d2	-7.8233423
37	0xbefc75e4	-0.49308693
38	0xbfedeb23	-1.8587383
39	0xc07269ea	-3.7877145
40	0xc103c5a0	-8.235748
41	0xbef4c0be	-0.478033
42	0xc00d7c1f	-2.2107008
43	0xc0953aab	-4.6634116
44	0xbf7de702	-0.99180615
45	0x3f486806	0.7828373
46	0xbf862ffa	-1.0483391
47	0xbe13ea3e	-0.14444825
48	0xc00dc4eb	-2.215144
49	0x3e36c967	0.17850266
50	0xbe5b2b2b	-0.21403186
51	0xbfa87597	-1.3160886
52	0x3edf99da	0.43672067
53	0xc03b4b86	-2.9264846
54	0xbf15bf4a	-0.5849501
55	0xc090e22e	-4.52761
56	0xbf210af9	-0.6290737
57	0xc0035373	-2.0519683
58	0xbec25fe6	-0.3796379
59	0xbf0c5533	-0.54817504
60	0xbe5c6cb8	-0.21525848
61	0xbeb494c8	-0.3526976
62	0x3f40890b	0.7520911
63	0xbf0a7241	-0.5408059
64	0xbf19a2f8	-0.60014296
65	0xbf21e1e8	-0.6323533
66	0xbf052faa	-0.52025855
67	0xc0bd9666	-5.924609
68	0xbfbbff7d	-1.4687344
69	0xbfb4b248	-1.4116907
70	0xbf2128bd	-0.62952787
71	0xbff259f6	-1.8933704
72	0xbea84586	-0.32865542
73	0xbfc5192e	-1.5398309
74	0x3de69b84	0.11260131
75	0xbefbf4a0	-0.49210072
76	0xbf17dc53	-0.59320563
77	0xbfe88e69	-1.816846
78	0xbe1a4a26	-0.15067348
79	0xbe0da49a	-0.13832322
80	0xc098ae96	-4.7713118
81	0xbdc858a6	-0.09782533
82	0xbf1d7847	-0.61511654
83	0xbee3edc0	-0.44517326
84	0x3e008e82	0.12554362
85	0x3f97f902	1.1872866
86	0xbd92924a	-0.07156809
87	0x3d4ccffe	0.050003044
88	0x3da0b3a2	0.07846762
89	0x3e58b992	0.2116454
90	0xbde60f3d	-0.11233375
91	0xbd67b318	-0.05656728
92	0xbf96b35e	-1.1773489
93	0xbf4ea20e	-0.80716026
94	0xbf09aaa0	-0.5377598
95	0xc0a7670d	-5.2313294
96	0xbe77cbd3	-0.24198847
97	0xbd9de6b6	-0.0771002
98	0xbee55985	-0.4479486
99	0xbd5a1256	-0.053240143
100	0xbe4aa78d	-0.19790478
101	0xbf411f9f	-0.75438875
102	0xbe50aebf	-0.2037916
103	0xbfa7bf52	-1.3105261
104	0x3db6804f	0.08911192
105	0xbccf8bdb	-0.025335243
106	0xbe8bad7b	-0.27280793
107	0xc045c1ba	-3.0899491
108	0x3c83d52c	0.01609286
109	0xc0f7df2e	-7.7459936
110	0x3cb45d66	0.022017192
111	0x3db0b61e	0.08628486
112	0x3d4353e1	0.047687415
113	0xc03c0ad8	-2.9381618
114	0xbdd1f6a0	-0.10252118
115	0xbe2892e7	-0.16462289
116	0xbd68a4de	-0.056797855
117	0xbe30880d	-0.17239399
118	0xbe61d6ce	-0.22054598
119	0xbeedef56	-0.4647166
120	0xbfd593a3	-1.668568
121	0xc0903c78	-4.5073814
122	0xbe9977f0	-0.29974318
123	0xbdee9d01	-0.1165104
124	0x3db98450	0.0905844
125	0xbe31fcc3	-0.17381577
126	0xbf85eac5	-1.0462271
127	0xbe941fdb	-0.28930554
128	0xbfa2ff47	-1.2734154
129	0xbd8353ab	-0.06412443
130	0xbe0b83c7	-0.13624488
131	0xbc1eeb88	-0.00969971
132	0xc008e7c9	-2.139147
133	0xbf537515	-0.8260053
134	0xbf005b6b	-0.5013949
135	0x3d182d8b	0.03715281
136	0xbd2406ba	-0.040045477
137	0xbd2ad427	-0.04170623
138	0xbe6afef8	-0.22948825
139	0xbc85185c	-0.016246967
140	0xbeaaf3e1	-0.3338919
141	0xbd0a661c	-0.033788785
142	0xbf6177b8	-0.880733
143	0x3d8bdd8b	0.06829365
144	0xbdcb1a09	-0.09917075
145	0xbbb9952a	-0.0056635337
146	0xbfdda769	-1.7316715
147	0xbfbd2879	-1.4777976
148	0x3dc97a40	0.098377705
149	0xbcb26e36	-0.021781068
150	0xc01c3f81	-2.441376
151	0xc03c3142	-2.9405065
152	0xbe4f8a8c	-0.20267695
153	0xc034816f	-2.8204
154	0x3f46ff23	0.7773306
155	0xbc2af705	-0.010434871
156	0xbdee7297	-0.1164295
157	0xbddd6b0f	-0.108114354
158	0x3e4d28f1	0.20035149
159	0xbe818c0d	-0.25302163
160	0xbeaf479f	-0.3423433
161	0xbd69e818	-0.057106107
162	0xbd73a20f	-0.059480723
163	0xbfec1810	-1.8444843
164	0xbd9105d0	-0.07081187
165	0x3e410754	0.18850452
166	0xbe11effb	-0.14251702
167	0xbdb86afd	-0.090047814
168	0xbe9ca519	-0.3059471
169	0x3d6af540	0.057362795
170	0xbc938e43	-0.018012172
171	0xbea4df1a	-0.32201463
172	0xbe8b0d9c	-0.2715882
173	0xbe33e312	-0.17567089
174	0xbe297ff9	-0.16552724
175	0x3d161c42	0.036648043
176	0xbb8ef794	-0.0043630097
177	0x3ec68de5	0.38780132
178	0xbcffeabf	-0.031239865
179	0xbc3710ad	-0.011173409
180	0xbd746366	-0.059665106
181	0xbe907d03	-0.28220376
182	0xc03ab277	-2.9171426
183	0x3e4ae2c8	0.19813073
184	0xbebaa3c9	-0.36453083
185	0x3b3f4156	0.002918323
186	0x3c544c55	0.012957652
187	0x3d5f33cb	0.054492753
188	0xbdb19306	-0.086706206
189	0xbddd20c8	-0.10797268
190	0x3d814617	0.06312197
191	0xbecc1912	-0.39862877
192	0x3c817d9a	0.015806962
193	0xbe84e55f	-0.25956246
194	0xbda07dd6	-0.07836501
195	0xbf208fdf	-0.6271953
196	0xc0c4589b	-6.135816
197	0xbe454dbf	-0.19267939
198	0xbce476e0	-0.027888715
199	0xc08c3d23	-4.382463
200	0xbc3ec9e0	-0.01164481
201	0xbe948f7a	-0.29015714
202	0xbc8cefef	-0.017204253
203	0xbde7b855	-0.113144554
204	0x3c1e0d3c	0.00964671
205	0xbc7ef554	-0.0155614205
206	0xbb6f7f71	-0.0036544467
207	0xbd025154	-0.03181584
208	0x3c87334f	0.016503958
209	0x3bcfadcc	0.006337857
210	0xbdf4a26e	-0.119450435
211	0xbf8e20b6	-1.1103733
212	0xbc13f077	-0.009029499
213	0xbce3652d	-0.027758205
214	0xbb899fa0	-0.004199937
215	0xbe23e1b8	-0.16004074
216	0xbec97916	-0.39350194
217	0x3ce71efc	0.028213017
218	0xbd66b251	-0.0563224
219	0xbe88abe2	-0.26693636
220	0xbdad22f3	-0.08453932
221	0xbf59652f	-0.8492002
222	0x3d0cce10	0.034376204
223	0x3ea175a6	0.3153507
224	0xbcd12bd4	-0.025533594
225	0x3ed88a96	0.42293233
226	0xbc0d3cd5	-0.0086204605
227	0xc04c39d7	-3.1910303
228	0xbd345c2d	-0.04403322
229	0xbe75a604	-0.23989111
230	0x3aa755fb	0.0012766713
231	0xc08a35ce	-4.319068
232	0x3c5ea250	0.013588503
233	0xbdc0aea3	-0.09408309
234	0xbbc87576	-0.006117518
235	0x3daef783	0.08543303
236	0xbf42b0c8	-0.76050997
237	0xbd66864a	-0.05628041
238	0xc0426f5d	-3.038047
239	0x3c001b06	0.007818943
240	0x3bfdac45	0.0077414834
241	0xbe559184	-0.20856291
242	0xbc2b4e2c	-0.010455649
243	0xbc6f293f	-0.014597236
244	0xbe48704e	-0.19574091
245	0xbabdf1d0	-0.0014491621
246	0x3b5ecc29	0.00339962
247	0xbfb3d35e	-1.4048879
248	0xbd670614	-0.05640228
249	0xbffb4dee	-1.9633157
250	0xbee61111	-0.44934896
251	0x3d40f9bc	0.047113165
252	0xbc1fc3d6	-0.009751281
253	0xbd14f0b1	-0.036362354
254	0xbd96e1a5	-0.07367257
255	0xbe2c2211	-0.1680987

variational_strategy._variational_distribution.chol_variational_covar f4 [300, 300]
0	0x3ee1303b	0.4398211
1	0x00000000	0.0
2	0x00000000	0.0
3	0x00000000	0.0
4	0x00000000	0.0
5	0x00000000	0.0
6	0x00000000	0.0
7	0x00000000	0.0
8	0x00000000	0.0
9	0x00000000	0.0
10	0x00000000	0.0
11	0x00000000	0.0
12	0x00000000	0.0
13	0x00000000	0.0
14	0x00000000	0.0
15	0x00000000	0.0
16	0x00000000	0.0
17	0x00000000	0.0
18	0x00000000	0.0
19	0x00000000	0.0
20	0x00000000	0.0
21	0x00000000	0.0
22	0x00000000	0.0
23	0x00000000	0.0
24	0x00000000	0.0
25	0x00000000	0.0
26	0x00000000	0.0
27	0x00000000	0.0
28	0x00000000	0.0
29	0x00000000	0.0
30	0x00000000	0.0
31	0x00000000	0.0
32	0x00000000	0.0
33	0x00000000	0.0
34	0x00000000	0.0
35	0x00000000	0.0
36	0x00000000	0.0
37	0x00000000	0.0
38	0x00000000	0.0
39	0x00000000	0.0
40	0x00000000	0.0
41	0x00000000	0.0
42	0x00000000	0.0
43	0x00000000	0.0
44	0x00000000	0.0
45	0x00000000	0.0
46	0x00000000	0.0
47	0x00000000	0.0
48	0x00000000	0.0
49	0x00000000	0.0
50	0x00000000	0.0
51	0x00000000	0.0
52	0x00000000	0.0
53	0x00000000	0.0
54	0x00000000	0.0
55	0x00000000	0.0
56	0x00000000	0.0
57	0x00000000	0.0
58	0x00000000	0.0
59	0x00000000	0.0
60	0x00000000	0.0
61	0x00000000	0.0
62	0x00000000	0.0
63	0x00000000	0.0
64	0x00000000	0.0
65	0x00000000	0.0
66	0x00000000	0.0
67	0x00000000	0.0
68	0x00000000	0.0
69	0x00000000	0.0
70	0x00000000	0.0
71	0x00000000	0.0
72	0x00000000	0.0
73	0x00000000	0.0
74	0x00000000	0.0
75	0x00000000	0.0
76	0x00000000	0.0
77	0x00000000	0.0
78	0x00000000	0.0
79	0x00000000	0.0
80	0x00000000	0.0
81	0x00000000	0.0
82	0x00000000	0.0
83	0x00000000	0.0
84	0x00000000	0.0
85	0x00000000	0.0
86	0x00000000	0.0
87	0x00000000	0.0
88	0x00000000	0.0
89	0x00000000	0.0
90	0x00000000	0.0
91	0x00000000	0.0
92	0x00000000	0.0
93	0x00000000	0.0
94	0x00000000	0.0
95	0x00000000	0.0
96	0x00000000	0.0
97	0x00000000	0.0
98	0x00000000	0.0
99	0x00000000	0.0
100	0x00000000	0.0
101	0x00000000	0.0
102	0x00000000	0.0
103	0x00000000	0.0
104	0x00000000	0.0
105	0x00000000	0.0
106	0x00000000	0.0
107	0x00000000	0.0
108	0x00000000	0.0
109	0x00000000	0.0
110	0x00000000	0.0
111	0x00000000	0.0
112	0x00000000	0.0
113	0x00000000	0.0
114	0x00000000	0.0
115	0x00000000	0.0
116	0x00000000	0.0
117	0x00000000	0.0
118	0x00000000	0.0
119	0x00000000	0.0
120	0x00000000	0.0
121	0x00000000	0.0
122	0x00000000	0.0
123	0x00000000	0.0
124	0x00000000	0.0
125	0x00000000	0.0
126	0x00000000	0.0
127	0x00000000	0.0
128	0x00000000	0.0
129	0x00000000	0.0
130	0x00000000	0.0
131	0x00000000	0.0
132	0x00000000	0.0
133	0x00000000	0.0
134	0x00000000	0.0
135	0x00000000	0.0
136	0x00000000	0.0
137	0x00000000	0.0
138	0x00000000	0.0
139	0x00000000	0.0
140	0x00000000	0.0
141	0x00000000	0.0
142	0x00000000	0.0
143	0x00000000	0.0
144	0x00000000	0.0
145	0x00000000	0.0
146	0x00000000	0.0
147	0x00000000	0.0
148	0x00000000	0.0
149	0x00000000	0.0
150	0x00000000	0.0
151	0x00000000	0.0
152	0x00000000	0.0
153	0x00000000	0.0
154	0x00000000	0.0
155	0x00000000	0.0
156	0x00000000	0.0
157	0x00000000	0.0
158	0x00000000	0.0
159	0x00000000	0.0
160	0x00000000	0.0
161	0x00000000	0.0
162	0x00000000	0.0
163	0x00000000	0.0
164	0x00000000	0.0
165	0x00000000	0.0
166	0x00000000	0.0
167	0x00000000	0.0
168	0x00000000	0.0
169	0x00000000	0.0
170	0x00000000	0.0
171	0x00000000	0.0
172	0x00000000	0.0
173	0x00000000	0.0
174	0x00000000	0.0
175	0x00000000	0.0
176	0x00000000	0.0
177	0x00000000	0.0
178	0x00000000	0.0
179	0x00000000	0.0
180	0x00000000	0.0
181	0x00000000	0.0
182	0x00000000	0.0
183	0x00000000	0.0
184	0x00000000	0.0
185	0x00000000	0.0
186	0x00000000	0.0
187	0x00000000	0.0
188	0x00000000	0.0
189	0x00000000	0.0
190	0x00000000	0.0
191	0x00000000	0.0
192	0x00000000	0.0
193	0x00000000	0.0
194	0x00000000	0.0
195	0x00000000	0.0
196	0x00000000	0.0
197	0x00000000	0.0
198	0x00000000	0.0
199	0x00000000	0.0
200	0x00000000	0.0
201	0x00000000	0.0
202	0x00000000	0.0
203	0x00000000	0.0
204	0x00000000	0.0
205	0x00000000	0.0
206	0x00000000	0.0
207	0x00000000	0.0
208	0x00000000	0.0
209	0x00000000	0.0
210	0x00000000	0.0
211	0x00000000	0.0
212	0x00000000	0.0
213	0x00000000	0.0
214	0x00000000	0.0
215	0x00000000	0.0
216	0x00000000	0.0
217	0x00000000	0.0
218	0x00000000	0.0
219	0x00000000	0.0
220	0x00000000	0.0
221	0x00000000	0.0
222	0x00000000	0.0
223	0x00000000	0.0
224	0x00000000	0.0
225	0x00000000	0.0
226	0x00000000	0.0
227	0x00000000	0.0
228	0x00000000	0.0
229	0x00000000	0.0
230	0x00000000	0.0
231	0x00000000	0.0
232	0x00000000	0.0
233	0x00000000	0.0
234	0x00000000	0.0
235	0x00000000	0.0
236	0x00000000	0.0
237	0x00000000	0.0
238	0x00000000	0.0
239	0x00000000	0.0
240	0x00000000	0.0
241	0x00000000	0.0
242	0x00000000	0.0
243	0x00000000	0.0
244	0x00000000	0.0
245	0x00000000	0.0
246	0x00000000	0.0
247	0x00000000	0.0
248	0x00000000	0.0
249	0x00000000	0.0
250	0x00000000	0.0
251	0x00000000	0.0
252	0x00000000	0.0
253	0x00000000	0.0
254	0x00000000	0.0
255	0x00000000	0.0

cov.base_kernel.raw_lengthscale f4 [1, 2]
0	0x42002ae5	32.04189
1	0x41fc91ef	31.571257
