slam/rbpf_slam/data/old_results/works_w_more_particles/svgp_particle0.pth (torch, 367369 bytes, 4 tensors)

variational_strategy.inducing_points f4 [300, 2]
0	0x43967a1e	300.95404
1	0xc2f394bb	-121.79049
2	0x43994848	306.5647
3	0xc32cd877	-172.84557
4	0x43c9d802	403.68756
5	0xc36c3bea	-236.23404
6	0x43994f2a	306.61847
7	0xc34f20cb	-207.1281
8	0x438eb11c	285.38367
9	0xc350b074	-208.68927
10	0x4389157a	274.1678
11	0xc33c7da0	-188.49072
12	0x43b141f5	354.5153
13	0xc332cf1b	-178.809
14	0x436f09fb	239.03899
15	0xc3220016	-162.00034
16	0x43af0ca0	350.09863
17	0xc2b425ed	-90.07407
18	0x437b752e	251.45773
19	0xc387b9e9	-271.45242
20	0x43651e09	229.11732
21	0xc29d70bc	-78.720184
22	0x438e67e6	284.8117
23	0xc355b115	-213.69173
24	0x436dfef4	237.99591
25	0xc3659f92	-229.62332
26	0x4375580d	245.34395
27	0xc38b8363	-279.02646
28	0x4382b682	261.42584
29	0xc30a0cdf	-138.05028
30	0x43a9afab	339.3724
31	0xc2f75e96	-123.68474
32	0x4385e5df	267.79587
33	0xc34ec8c0	-206.78418
34	0x43b4140b	360.1566
35	0xc3918208	-291.01587
36	0x438d16c9	282.178
37	0xc31e2ddc	-158.17914
38	0x43950653	298.0494
39	0xc36b0519	-235.01991
40	0x439e7a6e	316.95648
41	0xc2e56793	-114.70229
42	0x436fd3b8	239.82703
43	0xc319ba32	-153.72733
44	0x4389b62e	275.42328
45	0xc30d32fd	-141.19917
46	0x43818eff	259.11716
47	0xc3303f01	-176.24611
48	0x435ab008	218.68762
49	0xc35283a9	-210.5143
50	0x436420db	228.12834
51	0xc321383f	-161.21971
52	0x43728da5	242.5533
53	0xc360bad1	-224.72975
54	0x433891f5	184.57014
55	0xc2aaf9c7	-85.48785
56	0x43d6ee2a	429.86066
57	0xc3610ad9	-225.04237
58	0x4381fbb1	259.96634
59	0xc39865a2	-304.794
60	0x4390eaae	289.83344
61	0xc30c2c0b	-140.17204
62	0x43808aaf	257.08347
63	0xc2d7fd4b	-107.99471
64	0x43f5a5af	491.2944
65	0xc32f0639	-175.0243
66	0x43938c78	295.0974
67	0xc382a300	-261.27344
68	0x4372742a	242.45377
69	0xc386cfe0	-269.62402
70	0x43cf1a19	414.2039
71	0xc3792bde	-249.17136
72	0x43bd09bf	378.07614
73	0xc34fa9d2	-207.66336
74	0x43a12b2f	322.33737
75	0xc3229ecb	-162.62029
76	0x43bd9ecf	379.2407
77	0xc3a27fff	-324.99997
78	0x438dcb61	283.5889
79	0xc3830b4c	-262.08826
80	0x437e6cac	254.4245
81	0xc3585fc8	-216.37415
82	0x43933580	294.41797
83	0xc337ca2f	-183.78978
84	0x43a0e878	321.81616
85	0xc2b58ca2	-90.77467
86	0x4382a1cd	261.26407
87	0xc2c245a0	-97.13599
88	0x436e8378	238.51355
89	0xc34afd96	-202.99057
90	0x43b9c08d	371.5043
91	0xc31c2006	-156.12509
92	0x4372196b	242.09929
93	0xc3a62130	-332.25928
94	0x438b2433	278.2828
95	0xc33edb35	-190.85628
96	0x436b4a27	235.28966
97	0xc2da0045	-109.00053
98	0x439d804e	315.00238
99	0xc320ac14	-160.67218
100	0x43838cfb	263.1014
101	0xc3bb101d	-374.1259
102	0x439f44dd	318.538
103	0xc3925ea6	-292.73944
104	0x43846242	264.76764
105	0xc35139a3	-209.22514
106	0x439f43ea	318.53058
107	0xc3294c1a	-169.29727
108	0x439a53ec	308.65564
109	0xc34ddace	-205.8547
110	0x43606e99	224.43202
111	0xc2e0b146	-112.34624
112	0x4363747a	227.45499
113	0xc3710805	-241.03133
114	0x43577019	215.43788
115	0xc2bcbe93	-94.372215
116	0x4378974e	248.59103
117	0xc32493ce	-164.57736
118	0x43ad7ebd	346.99014
119	0xc397e9ee	-303.82758
120	0x438a9446	277.1584
121	0xc2c6f360	-99.47534
122	0x43791ed0	249.12036
123	0xc35e60e9	-222.37856
124	0x43bcd36f	377.65182
125	0xc2eb8244	-117.754425
126	0x4367bf25	231.74666
127	0xc2e21455	-113.03971
128	0x438a30d3	276.38144
129	0xc311a7c4	-145.65533
130	0x438bb926	279.44647
131	0xc30eba50	-142.72778
132	0x437f61f2	255.3826
133	0xc2fa85b5	-125.26115
134	0x439fdcb8	319.72437
135	0xc2b199c4	-88.80032
136	0x43576f08	215.43372
137	0xc2a36dc1	-81.71436
138	0x43ae3236	348.39227
139	0xc337f37a	-183.95108
140	0x439b9be5	311.21793
141	0xc360eab5	-224.91682
142	0x4383374d	262.43204
143	0xc2f30dc0	-121.526855
144	0x438069bf	256.82614
145	0xc34a2ef3	-202.1834
146	0x437290ae	242.56516
147	0xc345964e	-197.58713
148	0x4361db21	225.85597
149	0xc355d115	-213.81673
150	0x4387977a	271.1834
151	0xc385d534	-267.66565
152	0x43935bc9	294.71707
153	0xc37a7032	-250.43826
154	0x43723c5e	242.23581
155	0xc33b6383	-187.38872
156	0x43882782	272.30865
157	0xc316cc13	-150.79716
158	0x43a38517	327.03976
159	0xc2f1fbac	-120.99155
160	0x439e9d54	317.22913
161	0xc324afd2	-164.6868
162	0x43d87b36	432.9626
163	0xc332dba5	-178.85799
164	0x4387fd11	271.97708
165	0xc30a6ae0	-138.41748
166	0x43a9877b	339.05844
167	0xc2b21135	-89.03361
168	0x43a51b89	330.21512
169	0xc3014aed	-129.29268
170	0x43ab01cf	342.01413
171	0xc3a05fcd	-320.74844
172	0x43769fbd	246.62398
173	0xc3841823	-264.18857
174	0x43737dbd	243.49117
175	0xc31381f3	-147.50761
176	0x438d00e4	282.00696
177	0xc2c42a3c	-98.08249
178	0x4381eedf	259.86618
179	0xc34fc829	-207.78188
180	0x4375e4f6	245.89438
181	0xc2aa0294	-85.005035
182	0x43a41ae9	328.21024
183	0xc305264a	-133.14957
184	0x4389a17c	275.2616
185	0xc3069d7b	-134.61516
186	0x438b9609	279.17215
187	0xc2c04a5a	-96.14522
188	0x43a67e08	332.98462
189	0xc2c56aa9	-98.70832
190	0x43a2d4bf	325.66208
191	0xc320df31	-160.87184
192	0x439055f1	288.67142
193	0xc36f20db	-239.12834
194	0x437b3ae1	251.23
195	0xc2f4c1ec	-122.37875
196	0x43a7e2cb	335.77182
197	0xc38b3298	-278.39526
198	0x43ac33e4	344.4054
199	0xc37b1a76	-251.10336
200	0x4383ac2d	263.34512
201	0xc3424f75	-194.31038
202	0x43cb2e13	406.35995
203	0xc30dc25a	-141.75919
204	0x438f1315	286.14908
205	0xc3488fd9	-200.5619
206	0x43d7f98a	431.94952
207	0xc389d0f5	-275.63248
208	0x43bf459a	382.54376
209	0xc362af59	-226.68495
210	0x43620d61	226.05226
211	0xc3073689	-135.21303
212	0x438fc035	287.50162
213	0xc2dd7a2d	-110.738625
214	0x43d11748	418.1819
215	0xc35f7f16	-223.49643
216	0x43cb5b25	406.71207
217	0xc2f467d6	-122.202805
218	0x435d7e5c	221.49359
219	0xc3089e9c	-136.61957
220	0x437b7697	251.46324
221	0xc3ad3e86	-346.48846
222	0x438959ed	274.70255
223	0xc365b3b7	-229.70201
224	0x43907048	288.8772
225	0xc39f9981	-319.19925
226	0x43cfbe65	415.48746
227	0xc3505576	-208.33383
228	0x4355522c	213.32098
229	0xc33defde	-189.93698
230	0x439e9afb	317.2108
231	0xc34dd89a	-205.8461
232	0x438250c7	260.63107
233	0xc3b67eb2	-364.9898
234	0x438df668	283.92505
235	0xc352c353	-210.76299
236	0x435b3830	219.21948
237	0xc2949cf0	-74.30652
238	0x43a8617c	336.7616
239	0xc338219c	-184.13129
240	0x435f8015	223.50032
241	0xc2ff9ba8	-127.804016
242	0x436855d8	232.33533
243	0xc302a193	-130.63115
244	0x43b9dc7f	371.72263
245	0xc34ea308	-206.63684
246	0x439585c2	299.04498
247	0xc381a5c4	-259.29504
248	0x43813331	258.39993
249	0xc35b6637	-219.39928
250	0x43bad068	373.62817
251	0xc3816365	-258.77652
252	0x4395661f	298.79782
253	0xc3b124ad	-354.28653
254	0x4358652e	216.39523
255	0xc288f8a9	-68.485664

variational_strategy._variational_distribution.variational_mean f4 [300]
0	0xc139f364	-11.621922
1	0xc1265f0e	-10.398207
2	0xc15f5812	-13.959002
3	0xc10fadc9	-8.979928
4	0xc0acac8b	-5.3960624
5	0xc089c613	-4.305429
6	0xc11a7fbf	-9.656188
7	0xc1103829	-9.013711
8	0xc0ec1c6e	-7.3784704
9	0xc13de261	-11.867768
10	0xc12f3c90	-10.952286
11	0xc034ac1c	-2.8230047
12	0xc0dbdbbe	-6.870574
13	0xc0a67293	-5.201486
14	0xc05d98c0	-3.4624481
15	0xc09b59ac	-4.8546963
16	0xbe158619	-0.14601935
17	0xc1201d6c	-10.007183
18	0xbe82c097	-0.2553756
19	0xc0ba25ac	-5.8170986
20	0xbf665aa5	-0.8998206
21	0xbea65946	-0.32489985
22	0xbd796d8a	-0.06089548
23	0x3cc15fde	0.023605283
24	0xc08a522f	-4.322532
25	0xc0b09803	-5.518556
26	0x3ed2a128	0.41138577
27	0xc08567a5	-4.168902
28	0xc0df7d1b	-6.9840217
29	0xc0d9a342	-6.801179
30	0xbf5a78da	-0.85340655
31	0xc038836b	-2.883021
32	0xc12c54ad	-10.770673
33	0xc0902a85	-4.5051904
34	0xc026ea96	-2.608068
35	0xbfe9dd76	-1.827071
36	0xc0a227a7	-5.0673404
37	0xbf846620	-1.0343666
38	0xc0e42cd6	-7.130473
39	0xc0090e4b	-2.1414974
40	0xbf2b507a	-0.6691967
41	0xbe212a63	-0.15738826
42	0xc0766e74	-3.8504915
43	0xc01dc299	-2.4650023
44	0xbf0044b3	-0.50104827
45	0xc091791d	-4.5460343
46	0xc0c09727	-6.018451
47	0xbeab1528	-0.33414578
48	0xbf8acd07	-1.0843819
49	0x3d6f3603	0.05840112
50	0xc10ab4be	-8.6691265
51	0xc0bc68c0	-5.887787
52	0x3d5cbf39	0.0538933
53	0xbf12c3b3	-0.57329863
54	0xbfcadf9f	-1.5849494
55	0xc02927a3	-2.6430442
56	0xbf32e1f6	-0.6987604
57	0x3e0ba26a	0.13636175
58	0xbf88d5de	-1.0690267
59	0xbfa49e57	-1.2860821
60	0xc018c70e	-2.3871493
61	0xbf130f5b	-0.57445306
62	0xc0ada2df	-5.4261317
63	0xbe8014bf	-0.25015828
64	0xbd20d9c5	-0.03927018
65	0xbc3d5a8e	-0.011557234
66	0xbe75deec	-0.24010819
67	0xbfee4dbd	-1.8617474
68	0xbf7aec92	-0.9801723
69	0xbf8440b0	-1.0332241
70	0xc029d35d	-2.6535256
71	0x3ee2e8b3	0.4431816
72	0x3dfa716b	0.12228664
73	0xbf0394a5	-0.5139869
74	0x3ec744f6	0.389198
75	0xbf1d6505	-0.6148227
76	0xbe923f3e	-0.28563875
77	0xbf3e3674	-0.7430184
78	0x3cadec44	0.021230824
79	0xbe439608	-0.19100201
80	0x3e765b7a	0.24058333
81	0xc0f435bd	-7.63156
82	0x399dd3c0	0.0003010314
83	0xbe57dd26	-0.21080455
84	0x3e908531	0.28226617
85	0xc0813f86	-4.0390043
86	0xbf191367	-0.5979523
87	0xbe24b51c	-0.16084713
88	0xbf85ef4f	-1.0463656
89	0x3df18b31	0.11794127
90	0xbf4d94fd	-0.80305463
91	0xbe65623e	-0.22400758
92	0xbc2452b2	-0.010029482
93	0xbf9a52e2	-1.2056544
94	0xbf1b6676	-0.6070322
95	0xbcf051d3	-0.029335892
96	0xbe902471	-0.28152803
97	0xbebff93c	-0.37494838
98	0xc062620d	-3.5372345
99	0xc0679b31	-3.6188471
100	0x3c85c83f	0.016330836
101	0xc0c0ac57	-6.0210376
102	0xbda9a049	-0.08282525
103	0xc0c7fcde	-6.2496176
104	0xbf7f1730	-0.99644756
105	0xbfb30dcd	-1.3988587
106	0xbf199beb	-0.60003537
107	0x3fc485e0	1.5353355
108	0xbfd2446d	-1.6427132
109	0xbfd62227	-1.6729172
110	0xbf6feacf	-0.93717664
111	0xbece4c84	-0.40292752
112	0xc03cac1e	-2.9480052
113	0xbeef200b	-0.46704134
114	0xc0160dc6	-2.3445907
115	0xbf29ac4d	-0.66278535
116	0x3ee7f996	0.45307606
117	0x3cb985f0	0.022646874
118	0xc01c21ef	-2.4395711
119	0xbe191657	-0.14949928
120	0xbe8512f5	-0.25991026
121	0xbec55d8f	-0.38547942
122	0xbf195118	-0.59889364
123	0xbe6cae93	-0.2311347
124	0xbdca70cd	-0.09884796
125	0xc003f0e9	-2.061579
126	0xc07ded5a	-3.9676118
127	0xbfc72325	-1.55576
128	0xbfaca454	-1.3487649
129	0x3fd4f38b	1.6636823
130	0xbf1e86aa	-0.6192423
131	0xbc1067e1	-0.008813829
132	0xbe0338d2	-0.12814644
133	0xbf238de3	-0.63888377
134	0xbd04f188	-0.032456905
135	0xbe39b590	-0.18135667
136	0xbc3ff300	-0.011715651
137	0x3d4f6170	0.050630033
138	0xbf47a454	-0.7798512
139	0xbffc50a7	-1.9712113
140	0xc00053ac	-2.005107
141	0xbfa8ac4b	-1.317758
142	0x3d0a4f1f	0.033766862
143	0xbfec93ae	-1.8482568
144	0xbeb05af8	-0.34444404
145	0xbc8c2195	-0.017105857
146	0xbe1907ce	-0.14944384
147	0xbe22fe71	-0.15917374
148	0xbe85e41e	-0.26150602
149	0x3f0f2246	0.5591167
150	0xbf843ea5	-1.0331618
151	0xbf82b3df	-1.0211142
152	0x3b2cbd65	0.0026358005
153	0xc022e52d	-2.5452378
154	0xbf3311f5	-0.69949275
155	0xc01849d3	-2.3795059
156	0xbc228bfb	-0.009921069
157	0x3dea13a3	0.11429527
158	0x3eb5effd	0.3553466
159	0x3bd4cb4d	0.006493962
160	0xbbdd7f86	-0.0067595867
161	0xbff62025	-1.922856
162	0x3e783ed0	0.24242711
163	0xbcbc1585	-0.02295948
164	0xbf44341b	-0.76642007
165	0x3df5bf41	0.119993694
166	0x3d508740	0.050910234
167	0xbe797cd6	-0.24364027
168	0xbf1dc81e	-0.6163348
169	0x3f05ec64	0.5231383
170	0xbe5df066	-0.21673736
171	0xbca0ac2a	-0.019613344
172	0xbdec1a5a	-0.11528464
173	0xbcb988ed	-0.0226483
174	0xc00bf536	-2.1868415
175	0x3d91db97	0.071219616
176	0xbe50e9e3	-0.2040172
177	0xbd8f83f4	-0.0700759
178	0xbdf07bb5	-0.11742345
179	0xc01f16b1	-2.48576
180	0x3d82f5c3	0.063945316
181	0x3d0a413d	0.033753622
182	0xbecc3a16	-0.39888066
183	0x3c7fe564	0.015618656
184	0xbdaaf1e7	-0.083469205
185	0xbda93521	-0.08262087
186	0xbcea9b76	-0.028638583
187	0x3c54310d	0.012951148
188	0xbe81b41f	-0.25332734
189	0xbcb9e053	-0.022689974
190	0xbe9aef74	-0.30260813
191	0xbf8d96f4	-1.1061692
192	0xbd5ae2a5	-0.0534388
193	0x3e00f780	0.12594414
194	0xbfc805d9	-1.5626785
195	0x3d3495ac	0.04408805
196	0x3dd2933f	0.10281991
197	0xbcbc3905	-0.022976408
198	0xbc32b27d	-0.010906813
199	0xbc8a64b2	-0.016893718
200	0xbd6b42ab	-0.057436626
201	0x3da21d33	0.079157256
202	0xbca57c08	-0.020200744
203	0xbec35fe7	-0.38159105
204	0x3d04ffd0	0.032470524
205	0x3db6b2af	0.089208
206	0xbb90b713	-0.0044163554
207	0xbeae5471	-0.340488
208	0xbf8aee10	-1.0853901
209	0xbaf6557f	-0.001879379
210	0xbeca2308	-0.39479852
211	0xbe93e636	-0.28886575
212	0x3d8dca84	0.069233924
213	0x40015cdb	2.0212924
214	0xbed8427c	-0.42238224
215	0xbd13ba05	-0.036066074
216	0x3da412b2	0.08011378
217	0xbe6446e7	-0.22292672
218	0x3b34052f	0.002746891
219	0x3cb3f8fc	0.021969311
220	0x3c87e110	0.01658681
221	0xbedad094	-0.42737257
222	0xbe8c293c	-0.2737521
223	0x3fda1664	1.7038083
224	0xbd863b82	-0.06554319
225	0xbd4575cd	-0.048208047
226	0xbd9a10a0	-0.07522702
227	0xbce599b8	-0.0280274
228	0xbdfe57d1	-0.124190934
229	0xbdca1bf1	-0.09868611
230	0x3ddcda31	0.10783804
231	0xbf084ef5	-0.5324548
232	0xbd16f5d7	-0.036855545
233	0xbf2e5226	-0.680941
234	0xbaaef674	-0.0013348595
235	0x3e43eeb1	0.19134022
236	0x3d4c2b46	0.049845956
237	0xbd8ec35f	-0.06970858
238	0x3da41cac	0.08013281
239	0xbd77a982	-0.06046439
240	0x3cafcdb7	0.021460397
241	0xbfc9f9cf	-1.577936
242	0xbef9e256	-0.48805493
243	0xbd4c6940	-0.04990506
244	0xbcb6725a	-0.022271324
245	0xbede4756	-0.434138
246	0x3c573613	0.013135451
247	0xbe726fc0	-0.23675442
248	0xbe3c88bc	-0.18411535
249	0x3ba3af16	0.004995237
250	0xbf6af3e4	-0.917784
251	0xbca926a2	-0.020648304
252	0xbcd3f41e	-0.02587324
253	0x39e874c0	0.00044337474
254	0xbf0333e8	-0.5125108
255	0xbc7d611a	-0.015465045

variational_strategy._variational_distribution.chol_variational_covar f4 [300, 300]
0	0x3e812a78	0.25227714
1	0x00000000	0.0
2	0x00000000	0.0
3	0x00000000	0.0
4	0x00000000	0.0
5	0x00000000	0.0
6	0x00000000	0.0
7	0x00000000	0.0
8	0x00000000	0.0
9	0x00000000	0.0
10	0x00000000	0.0
11	0x00000000	0.0
12	0x00000000	0.0
13	0x00000000	0.0
14	0x00000000	0.0
15	0x00000000	0.0
16	0x00000000	0.0
17	0x00000000	0.0
18	0x00000000	0.0
19	0x00000000	0.0
20	0x00000000	0.0
21	0x00000000	0.0
22	0x00000000	0.0
23	0x00000000	0.0
24	0x00000000	0.0
25	0x00000000	0.0
26	0x00000000	0.0
27	0x00000000	0.0
28	0x00000000	0.0
29	0x00000000	0.0
30	0x00000000	0.0
31	0x00000000	0.0
32	0x00000000	0.0
33	0x00000000	0.0
34	0x00000000	0.0
35	0x00000000	0.0
36	0x00000000	0.0
37	0x00000000	0.0
38	0x00000000	0.0
39	0x00000000	0.0
40	0x00000000	0.0
41	0x00000000	0.0
42	0x00000000	0.0
43	0x00000000	0.0
44	0x00000000	0.0
45	0x00000000	0.0
46	0x00000000	0.0
47	0x00000000	0.0
48	0x00000000	0.0
49	0x00000000	0.0
50	0x00000000	0.0
51	0x00000000	0.0
52	0x00000000	0.0
53	0x00000000	0.0
54	0x00000000	0.0
55	0x00000000	0.0
56	0x00000000	0.0
57	0x00000000	0.0
58	0x00000000	0.0
59	0x00000000	0.0
60	0x00000000	0.0
61	0x00000000	0.0
62	0x00000000	0.0
63	0x00000000	0.0
64	0x00000000	0.0
65	0x00000000	0.0
66	0x00000000	0.0
67	0x00000000	0.0
68	0x00000000	0.0
69	0x00000000	0.0
70	0x00000000	0.0
71	0x00000000	0.0
72	0x00000000	0.0
73	0x00000000	0.0
74	0x00000000	0.0
75	0x00000000	0.0
76	0x00000000	0.0
77	0x00000000	0.0
78	0x00000000	0.0
79	0x00000000	0.0
80	0x00000000	0.0
81	0x00000000	0.0
82	0x00000000	0.0
83	0x00000000	0.0
84	0x00000000	0.0
85	0x00000000	0.0
86	0x00000000	0.0
87	0x00000000	0.0
88	0x00000000	0.0
89	0x00000000	0.0
90	0x00000000	0.0
91	0x00000000	0.0
92	0x00000000	0.0
93	0x00000000	0.0
94	0x00000000	0.0
95	0x00000000	0.0
96	0x00000000	0.0
97	0x00000000	0.0
98	0x00000000	0.0
99	0x00000000	0.0
100	0x00000000	0.0
101	0x00000000	0.0
102	0x00000000	0.0
103	0x00000000	0.0
104	0x00000000	0.0
105	0x00000000	0.0
106	0x00000000	0.0
107	0x00000000	0.0
108	0x00000000	0.0
109	0x00000000	0.0
110	0x00000000	0.0
111	0x00000000	0.0
112	0x00000000	0.0
113	0x00000000	0.0
114	0x00000000	0.0
115	0x00000000	0.0
116	0x00000000	0.0
117	0x00000000	0.0
118	0x00000000	0.0
119	0x00000000	0.0
120	0x00000000	0.0
121	0x00000000	0.0
122	0x00000000	0.0
123	0x00000000	0.0
124	0x00000000	0.0
125	0x00000000	0.0
126	0x00000000	0.0
127	0x00000000	0.0
128	0x00000000	0.0
129	0x00000000	0.0
130	0x00000000	0.0
131	0x00000000	0.0
132	0x00000000	0.0
133	0x00000000	0.0
134	0x00000000	0.0
135	0x00000000	0.0
136	0x00000000	0.0
137	0x00000000	0.0
138	0x00000000	0.0
139	0x00000000	0.0
140	0x00000000	0.0
141	0x00000000	0.0
142	0x00000000	0.0
143	0x00000000	0.0
144	0x00000000	0.0
145	0x00000000	0.0
146	0x00000000	0.0
147	0x00000000	0.0
148	0x00000000	0.0
149	0x00000000	0.0
150	0x00000000	0.0
151	0x00000000	0.0
152	0x00000000	0.0
153	0x00000000	0.0
154	0x00000000	0.0
155	0x00000000	0.0
156	0x00000000	0.0
157	0x00000000	0.0
158	0x00000000	0.0
159	0x00000000	0.0
160	0x00000000	0.0
161	0x00000000	0.0
162	0x00000000	0.0
163	0x00000000	0.0
164	0x00000000	0.0
165	0x00000000	0.0
166	0x00000000	0.0
167	0x00000000	0.0
168	0x00000000	0.0
169	0x00000000	0.0
170	0x00000000	0.0
171	0x00000000	0.0
172	0x00000000	0.0
173	0x00000000	0.0
174	0x00000000	0.0
175	0x00000000	0.0
176	0x00000000	0.0
177	0x00000000	0.0
178	0x00000000	0.0
179	0x00000000	0.0
180	0x00000000	0.0
181	0x00000000	0.0
182	0x00000000	0.0
183	0x00000000	0.0
184	0x00000000	0.0
185	0x00000000	0.0
186	0x00000000	0.0
187	0x00000000	0.0
188	0x00000000	0.0
189	0x00000000	0.0
190	0x00000000	0.0
191	0x00000000	0.0
192	0x00000000	0.0
193	0x00000000	0.0
194	0x00000000	0.0
195	0x00000000	0.0
196	0x00000000	0.0
197	0x00000000	0.0
198	0x00000000	0.0
199	0x00000000	0.0
200	0x00000000	0.0
201	0x00000000	0.0
202	0x00000000	0.0
203	0x00000000	0.0
204	0x00000000	0.0
205	0x00000000	0.0
206	0x00000000	0.0
207	0x00000000	0.0
208	0x00000000	0.0
209	0x00000000	0.0
210	0x00000000	0.0
211	0x00000000	0.0
212	0x00000000	0.0
213	0x00000000	0.0
214	0x00000000	0.0
215	0x00000000	0.0
216	0x00000000	0.0
217	0x00000000	0.0
218	0x00000000	0.0
219	0x00000000	0.0
220	0x00000000	0.0
221	0x00000000	0.0
222	0x00000000	0.0
223	0x00000000	0.0
224	0x00000000	0.0
225	0x00000000	0.0
226	0x00000000	0.0
227	0x00000000	0.0
228	0x00000000	0.0
229	0x00000000	0.0
230	0x00000000	0.0
231	0x00000000	0.0
232	0x00000000	0.0
233	0x00000000	0.0
234	0x00000000	0.0
235	0x00000000	0.0
236	0x00000000	0.0
237	0x00000000	0.0
238	0x00000000	0.0
239	0x00000000	0.0
240	0x00000000	0.0
241	0x00000000	0.0
242	0x00000000	0.0
243	0x00000000	0.0
244	0x00000000	0.0
245	0x00000000	0.0
246	0x00000000	0.0
247	0x00000000	0.0
248	0x00000000	0.0
249	0x00000000	0.0
250	0x00000000	0.0
251	0x00000000	0.0
252	0x00000000	0.0
253	0x00000000	0.0
254	0x00000000	0.0
255	0x00000000	0.0

cov.base_kernel.raw_lengthscale f4 [1, 2]
0	0x41fb27e5	31.39448
1	0x420014f6	32.02047
