slam/rbpf_slam/data/old_results/works_w_more_particles/svgp_particle7.pth (torch, 367369 bytes, 4 tensors)

variational_strategy.inducing_points f4 [300, 2]
213.0046 -75.74924 242.15213 -123.72228 372.04858 -114.85483 231.5175 -246.29626
376.02145 -118.00277 266.5893 -143.66217 484.2904 -161.9247 252.55424 -159.72153
337.3967 -119.141235 263.21698 -303.63263 289.33972 -116.100235 277.13358 -368.74054
249.43774 -108.34841 325.38818 -135.52402 391.21768 -120.3894 314.15002 -167.582
330.39548 -107.181526 282.756 -65.32863 373.50214 -120.37295 307.22446 -323.3401
260.75168 -235.11462 310.5584 -279.39615 284.80875 -174.7817 363.05014 -127.51744
265.13428 -187.80446 251.34634 -102.047806 256.4903 -338.78952 360.73486 -132.8707
291.06158 -81.84567 337.961 -353.44574 305.3041 -230.96971 259.85336 -190.47493
207.29074 -111.29585 379.54486 -137.33075 324.64523 -221.96474 254.54796 -165.81049
398.71384 -312.23242 221.88083 -66.615135 247.97412 -136.61629 263.22495 -138.93883
318.46973 -120.88646 350.77072 -145.95671 268.77295 -65.50109 300.05777 -116.43482
378.63177 -291.62878 339.24457 -130.8562 322.93353 -106.69059 281.56992 -183.05136
263.80276 -237.61342 350.9608 -126.816635 280.6541 -139.22646 305.7047 -140.48193
272.70316 -171.42833 226.38713 -222.25386 380.31802 -219.1632 256.1611 -171.57436
317.65643 -164.90372 359.63177 -210.99663 238.60779 -131.75417 326.3812 -102.23463
355.57413 -96.676674 370.84482 -117.294754 347.54767 -201.30626 320.19604 -182.09004
326.5785 -166.97797 341.33954 -118.96915 220.89107 -184.33809 280.96506 -273.45065
385.53253 -160.05109 314.8793 -283.25244 261.235 -236.86569 261.8639 -174.1672
463.01144 -202.14343 293.29868 -171.8139 332.51822 -88.595375 253.80843 -202.47305
278.49835 -162.11761 390.3142 -311.0053 321.52667 -154.96529 247.59608 -316.27155
274.90256 -351.9419 439.02087 -242.94162 361.65363 -137.00067 244.149 -228.48404
325.15036 -245.26036 283.24716 -193.82706 309.28128 -149.08885 277.2546 -229.08986
398.0752 -165.25876 237.8493 -260.03137 365.04178 -223.17921 296.48386 -218.76585
344.57507 -133.17574 262.22855 -125.385185 314.89752 -186.82104 278.49542 -329.6043
295.37436 -289.70743 265.53183 -84.65035 262.3076 -207.69745 289.38745 -247.61082
356.69116 -103.933136 350.06436 -94.31324 336.5495 -92.100296 243.83183 -97.812485
219.97653 -175.56648 216.45847 -68.56557 320.09668 -132.74153 251.64742 -236.29878
213.5013 -72.96904 299.7747 -144.02548 256.41644 -211.594 239.4458 -213.73778
244.85396 -193.40648 306.96738 -78.8128 228.14232 -121.48279 434.48965 -134.69913
266.51126 -258.7785 316.4481 -233.36157 273.9603 -241.994 483.8671 -184.41458
372.53766 -309.6479 334.75717 -151.18312 272.08047 -138.51155 433.99792 -218.69102
255.02306 -84.0698 373.51758 -134.69391 351.25204 -265.13077 403.09262 -160.83943
00000000: 2d01 5543 9c7f 97c2 f226 7243 cf71 f7c2
00000010: 3806 ba43 acb5 e5c2 7b84 6743 d84b 76c3
00000020: bf02 bc43 6b01 ecc2 6e4b 8543 84a9 0fc3
00000030: 2c25 f243 b9ec 21c3 e38d 7c43 b6b8 1fc3
00000040: c7b2 a843 5048 eec2 c69b 8343 fad0 97c3
00000050: 7cab 9043 5233 e8c2 1991 8a43 ca5e b8c3
00000060: 1070 7943 63b2 d8c2 b0b1 a243 2686 07c3
00000070: dd9b c343 5fc7 f0c2 3413 9d43 fe94 27c3
00000080: 9f32 a543 f15c d6c2 c560 8d43 42a8 82c2
00000090: 46c0 ba43 f3be f0c2 bb9c 9943 88ab a1c3
000000a0: 3760 8243 581d 6bc3 7a47 9b43 b5b2 8bc3
000000b0: 8567 8e43 1dc8 2ec3 6b86 b543 ee08 ffc2
000000c0: 3091 8443 f1cd 3bc3 aa58 7b43 7a18 ccc2
000000d0: c23e 8043 0f65 a9c3 105e b443 e6de 04c3
000000e0: e287 9143 fcb0 a3c2 02fb a843 0eb9 b0c3
000000f0: eda6 9843 3ff8 66c3 3bed 8143 9579 3ec3
00000100: 6e4a 4f43 7a97 dec2 bec5 bd43 ac54 09c3
00000110: 9752 a243 f9f6 5dc3 478c 7e43 7ccf 25c3
00000120: 5f5b c743 c01d 9cc3 7ee1 5d43 f33a 85c2
00000130: 60f9 7743 c59d 08c3 cb9c 8343 57f0 0ac3
00000140: 203c 9f43 dec5 f1c2 a762 af43 ebf4 11c3
00000150: f062 8643 8f00 83c2 6507 9643 a1de e8c2
00000160: de50 bd43 7cd0 91c3 4e9f a943 30db 02c3
00000170: 7e77 a143 9561 d5c2 f3c8 8c43 260d 37c3
00000180: c1e6 8343 099d 6dc3 fb7a af43 1ea2 fdc2
00000190: ba53 8c43 f939 0bc3 34da 9843 607b 0cc3
000001a0: 015a 8843 a76d 2bc3 1b63 6243 fd40 5ec3
000001b0: b528 be43 c729 5bc3 9f14 8043 0993 2bc3
000001c0: 06d4 9e43 5ae7 24c3 ded0 b343 23ff 52c3
000001d0: 989b 6e43 11c1 03c3 cb30 a343 2178 ccc2
000001e0: 7dc9 b143 755a c1c2 236c b943 ea96 eac2
000001f0: 1ac6 ad43 674e 49c3 1819 a043 0d17 36c3
00000200: 0c4a a343 5cfa 26c3 76ab aa43 34f0 edc2
00000210: 1de4 5c43 8d56 38c3 877b 8c43 afb9 88c3
00000220: 2ac4 c043 140d 20c3 8d70 9d43 50a0 8dc3
00000230: 149e 8243 9edd 6cc3 94ee 8243 ce2a 2ec3
00000240: 7781 e743 b824 4ac3 3ba6 9243 5cd0 2bc3
00000250: 5542 a643 d530 b1c2 f5ce 7d43 1a79 4ac3
00000260: ca3f 8b43 1c1e 22c3 3828 c343 ae80 9bc3
00000270: 6ac3 a043 1df7 1ac3 9998 7743 c222 9ec3
00000280: 8773 8943 90f8 afc3 ac82 db43 0ef1 72c3
00000290: aad3 b443 2c00 09c3 2526 7443 ea7b 64c3
000002a0: 3f93 a243 a742 75c3 a39f 8d43 bad3 41c3
000002b0: 01a4 9a43 bf16 15c3 97a0 8a43 0117 65c3
000002c0: a009 c743 3e42 25c3 6cd9 6d43 0404 82c3
000002d0: 5985 b643 e12d 5fc3 ef3d 9443 0fc4 5ac3
000002e0: 9c49 ac43 fd2c 05c3 411d 8343 37c5 fac2
000002f0: e272 9d43 30d2 3ac3 6a3f 8b43 5acd a4c3
00000300: ebaf 9343 8dda 90c3 13c4 8443 fb4c a9c2
00000310: 5f27 8343 8cb2 4fc3 98b1 9043 5f9c 77c3
00000320: 7858 b243 c4dd cfc2 3d08 af43 61a0 bcc2
00000330: 5646 a843 5a33 b8c2 f3d4 7343 fe9f c3c2
00000340: fef9 5b43 0591 2fc3 5e75 5843 9221 89c2
00000350: 600c a043 d5bd 04c3 bda5 7b43 7d4c 6cc3
00000360: 5580 5543 26f0 91c2 29e3 9543 8606 10c3
00000370: 4e35 8043 1098 53c3 2072 6f43 dfbc 55c3
00000380: 9dda 7443 0f68 41c3 d37b 9943 27a0 9dc2
00000390: 6f24 6443 30f7 f2c2 ad3e d943 fab2 06c3
000003a0: 7141 8543 a663 81c3 5b39 9e43 905c 69c3
000003b0: ebfa 8843 77fe 71c3 fdee f143 226a 38c3
000003c0: d244 ba43 eed2 9ac3 eb60 a743 e12e 17c3
000003d0: 4d0a 8843 f582 0ac3 bcff d843 e7b0 5ac3
000003e0: e705 7f43 bd23 a8c2 40c2 ba43 a4b1 06c3
000003f0: 43a0 af43 bd90 84c3 db8b c943 e5d6 20c3

variational_strategy._variational_distribution.variational_mean f4 [300]
-10.431876 -9.809877 -11.304417 -10.263469 -1.9947162 -8.012196 -9.796643 -3.887635
-6.905517 -11.196583 -4.1777964 -9.870532 -1.7090231 -3.3630898 -3.762232 -6.8837686
-3.3878663 -6.1357007 -2.442497 -7.0619087 -7.408979 -6.8688736 -1.6934755 -1.5458612
-3.1187525 -1.1080489 -2.1697967 -2.718416 -1.0867271 -6.637927 -6.7490273 -2.9857945
-3.986457 -2.6844184 -5.7064996 0.29934436 -9.124015 -2.966128 -0.45123398 -0.43719575
0.68596745 -1.8501301 -0.6751289 -0.21244946 -5.766647 0.05487463 -0.05375354 -1.443241
-0.2248217 -0.41333494 -0.25618362 0.14711215 0.09978602 -3.952943 -9.507504 -0.69848263
-0.0025314193 -1.0072417 -1.7574368 -1.5340701 -1.0370685 -0.34875396 -2.002422 -0.6078312
-0.39474058 0.14593469 -4.639497 -1.6186045 -4.058802 -1.5926402 -0.93630445 0.014548957
-7.4436574 -0.32140684 -1.0472187 -0.73708326 0.028948627 0.6938496 -0.16194072 -1.1854584
0.82071066 -7.6583924 0.17574784 -0.8944673 -2.4750042 -0.91878706 -0.12652864 -1.061482
-3.1809163 -3.8699362 -0.50260985 -0.2555541 0.14268999 -0.10107481 -0.26655096 0.0018501319
-0.083141245 0.27315474 -0.117915414 -0.41601363 -0.12310083 0.077439405 0.37315524 0.28183475
-2.0155342 -0.34870663 -0.034287088 -0.44691435 -0.451539 -0.045348946 0.03519815 -0.21552937
0.047511093 -1.0256504 -0.04388341 -3.8102853 -0.6839192 0.19315726 0.08352388 -4.1543894
-1.6432213 -0.015076525 0.07833062 -1.6521338 -0.07995284 0.04549892 -2.2597558 -0.35230595
0.2924778 -1.3278452 -1.768496 0.22228657 -0.032524467 0.029363615 -1.4232687 -0.2470368
-0.21259728 -0.36300692 -2.2621193 -0.028474335 -0.16522226 -0.5735756 -0.3061544 -0.23539226
0.15722176 -0.13662323 -1.0033883 -0.050580785 -0.13102655 -0.046145715 -0.08344124 0.025102489
0.054647654 -0.6414224 -0.013980364 -0.105087146 0.017004065 -0.035467107 -0.018837478 -0.5331679
-0.00072779506 0.036705386 -2.0752227 -0.051125124 -0.27665314 -1.3683994 0.50639826 0.0039461604
0.04343014 -0.10821542 0.040742967 -1.8312865 -0.08484121 -0.22876003 -0.04428627 0.13042957
-0.6197659 0.023370657 -0.13122816 -0.016811145 -4.4767957 -0.21614797 -0.00651459 -1.6166978
0.009242438 -0.06309713 0.0038278613 -0.61153984 -0.043653473 -0.036718763 -0.11727978 -0.032677
-2.4791448 -0.743556 -0.018607488 -0.059148733 0.03474976 0.13961732 0.028815702 -0.57210416
-4.0775003 0.010705872 -0.062381618 0.0017672058 0.023395251 0.13239345 -1.4203594 -0.00926507
-0.16958503 -0.13966064 0.23333634 0.2438659 -0.16015363 0.042945046 -0.024439074 -0.0008607998
-0.052518193 -0.8430952 0.19380239 -0.0027340255 -0.030176576 -0.054991465 -2.6434689 -0.029152611
-1.0305337 -0.1318044 0.013977337 -0.006967642 0.023861205 -0.5753172 -0.014336894 -0.37658918
-0.17634305 -0.0030837615 -0.02179607 -0.19214123 0.001976734 0.07106867 -0.0037551976 -0.2703766
-0.033027794 -0.060870357 -0.10278541 0.00090170675 0.047277946 -0.0425894 0.0057149525 -0.24778165
0.07321698 -0.025324767 0.021563414 0.020239525 -0.2453811 -0.012565178 0.01715317 -0.012608647
00000000: f7e8 26c1 42f5 1cc1 e4de 34c1 2b37 24c1
00000010: dc52 ffbf f431 00c1 0dbf 1cc1 03cf 78c0
00000020: fff9 dcc0 3425 33c1 82b0 85c0 b3ed 1dc1
00000030: 45c1 dabf dd3c 57c0 69c8 70c0 d547 dcc0
00000040: cdd2 58c0 a957 c4c0 df51 1cc0 28fb e1c0
00000050: 5b16 edc0 d0cd dbc0 cec3 d8bf c8de c5bf
00000060: a499 47c0 8cd4 8dbf f3dd 0ac0 87fa 2dc0
00000070: e019 8bbf e669 d4c0 08f8 d7c0 4217 3fc0
00000080: 1d22 7fc0 83cd 2bc0 a59b b6c0 aa43 993e
00000090: f7fb 11c1 0bd5 3dc0 2408 e7be 1fd8 dfbe
000000a0: 909b 2f3f 10d1 ecbf 3fd5 2cbf 5a8c 59be
000000b0: 5f88 b8c0 38c4 603d ac2c 5cbd 1fbc b8bf
000000c0: a937 66be a3a0 d3be 802a 83be 91a4 163e
000000d0: 9d5c cc3d 05fd 7cc0 bd1e 18c1 c2cf 32bf
000000e0: 2be6 25bb 4ced 80bf b0f3 e0bf 695c c4bf
000000f0: a9be 84bf e18f b2be af27 00c0 d39a 1bbf
00000100: 701b cabe e76f 153e c276 94c0 6f2e cfbf
00000110: b5e1 81c0 a2db cbbf a6b1 6fbf c05e 6e3c
00000120: 7132 eec0 708f a4be 430b 86bf 7db1 3cbf
00000130: ac25 ed3c 21a0 313f cad3 25be 1abd 97bf
00000140: 181a 523f 8d11 f5c0 3ef7 333e cffb 64bf
00000150: 7866 1ec0 a135 6bbf b990 01be a4de 87bf
00000160: 2294 4bc0 09ad 77c0 0aab 00bf fdd7 82be
00000170: 531d 123e 4f00 cfbd 5e79 88be 2080 f23a
00000180: f545 aabd f0da 8b3e a37d f1bd bdff d4be
00000190: 4a1c fcbd 8d98 9e3d 340e bf3e a54c 903e
000001a0: 83fe 00c0 ad89 b2be 9e70 0cbd f5d1 e4be
000001b0: 1f30 e7be d1bf 39bd ef2b 103d bbb3 5cbe
000001c0: fe9a 423d 8348 83bf 17bf 33bd b7db 73c0
000001d0: 5415 2fbf 04cb 453e 910e ab3d c2f0 84c0
000001e0: 1355 d2bf 8703 77bc ce6b a03d 1f79 d3bf
000001f0: 51be a3bd 135d 3a3d d79f 10c0 7261 b4be
00000200: a6bf 953e d5f6 a9bf 145e e2bf 179f 633e
00000210: 6038 05bd f78b f03c ab2d b6bf 37f7 7cbe
00000220: 1ab3 59be 0bdc b9be 90c6 10c0 0243 e9bc
00000230: 0630 29be dad5 12bf 45c0 9cbe ab0a 71be
00000240: befe 203e f6e6 0bbe 076f 80bf cc2d 4fbd
00000250: d32b 06be 4a03 3dbd 3ee3 aabd bca3 cd3c
00000260: 38d6 5f3d 4234 24bf e60d 65bc ee37 d7bd
00000270: 1c4c 8b3c f545 11bd 0e51 9abc b17d 08bf
00000280: 80c9 3eba 6358 163d 73d0 04c0 9468 51bd
00000290: 7ba5 8dbe b627 afbf 51a3 013f cb4e 813b
000002a0: cde3 313d 0ca0 ddbd 19e2 263d 9967 eabf
000002b0: 3ac1 adbd 1240 6abe 8565 35bd 548f 053e
000002c0: faa8 1ebf d273 bf3c ad60 06be 87b7 89bc
000002d0: e941 8fc0 e555 5dbe 5778 d5bb f4ef cebf
000002e0: 986d 173c 1139 81bd dbdc 7a3b e08d 1cbf
000002f0: fccd 32bd 6a66 16bd 6230 f0bd 51d8 05bd
00000300: 4faa 1ec0 b059 3ebf bb6e 98bc f145 72bd
00000310: c455 0e3d d8f7 0e3e e80e ec3c 6b75 12bf
00000320: e27a 82c0 af67 2f3c de83 7fbd 96a1 e73a
00000330: 66a7 bf3c 2692 073e 56ce b5bf 85cc 17bc
00000340: b3a7 2dbe 3303 0fbe b9ef 6e3e fcb7 793e
00000350: 50ff 23be 25e7 2f3d 7434 c8bc 4ca7 61ba
00000360: 511d 57bd 16d5 57bf 2274 463e 562d 33bb
00000370: de34 f7bc bb3e 61bd 982e 29c0 75d1 eebc
00000380: 87e8 83bf bcf7 06be 3301 653c d150 e4bb
00000390: 9378 c33c fd47 13bf 4be5 6abc 4cd0 c0be
000003a0: 4693 34be ef18 4abb ac8d b2bc acc0 44be
000003b0: 188c 013b 738c 913d c319 76bb cd6e 8abe
000003c0: 2748 07bd 3253 79bd 2881 d2bd 8460 6c3a
000003d0: 85a6 413d 3972 2ebd 7f44 bb3b 79ba 7dbe
000003e0: c9f2 953d e375 cfbc c2a5 b03c 5ccd a53c
000003f0: 2f45 7bbe 2dde 4dbc ce84 8c3c 8094 4ebc

variational_strategy._variational_distribution.chol_variational_covar f4 [300, 300]
0.407192 0.0 0.0 0.0 0.0 0.0 0.0 0.0
0.0 0.0 0.0 0.0 0.0 0.0 0.0 0.0
0.0 0.0 0.0 0.0 0.0 0.0 0.0 0.0
0.0 0.0 0.0 0.0 0.0 0.0 0.0 0.0
0.0 0.0 0.0 0.0 0.0 0.0 0.0 0.0
0.0 0.0 0.0 0.0 0.0 0.0 0.0 0.0
0.0 0.0 0.0 0.0 0.0 0.0 0.0 0.0
0.0 0.0 0.0 0.0 0.0 0.0 0.0 0.0
0.0 0.0 0.0 0.0 0.0 0.0 0.0 0.0
0.0 0.0 0.0 0.0 0.0 0.0 0.0 0.0
0.0 0.0 0.0 0.0 0.0 0.0 0.0 0.0
0.0 0.0 0.0 0.0 0.0 0.0 0.0 0.0
0.0 0.0 0.0 0.0 0.0 0.0 0.0 0.0
0.0 0.0 0.0 0.0 0.0 0.0 0.0 0.0
0.0 0.0 0.0 0.0 0.0 0.0 0.0 0.0
0.0 0.0 0.0 0.0 0.0 0.0 0.0 0.0
0.0 0.0 0.0 0.0 0.0 0.0 0.0 0.0
0.0 0.0 0.0 0.0 0.0 0.0 0.0 0.0
0.0 0.0 0.0 0.0 0.0 0.0 0.0 0.0
0.0 0.0 0.0 0.0 0.0 0.0 0.0 0.0
0.0 0.0 0.0 0.0 0.0 0.0 0.0 0.0
0.0 0.0 0.0 0.0 0.0 0.0 0.0 0.0
0.0 0.0 0.0 0.0 0.0 0.0 0.0 0.0
0.0 0.0 0.0 0.0 0.0 0.0 0.0 0.0
0.0 0.0 0.0 0.0 0.0 0.0 0.0 0.0
0.0 0.0 0.0 0.0 0.0 0.0 0.0 0.0
0.0 0.0 0.0 0.0 0.0 0.0 0.0 0.0
0.0 0.0 0.0 0.0 0.0 0.0 0.0 0.0
0.0 0.0 0.0 0.0 0.0 0.0 0.0 0.0
0.0 0.0 0.0 0.0 0.0 0.0 0.0 0.0
0.0 0.0 0.0 0.0 0.0 0.0 0.0 0.0
0.0 0.0 0.0 0.0 0.0 0.0 0.0 0.0
00000000: 787b d03e 0000 0000 0000 0000 0000 0000
00000010: 0000 0000 0000 0000 0000 0000 0000 0000
00000020: 0000 0000 0000 0000 0000 0000 0000 0000
00000030: 0000 0000 0000 0000 0000 0000 0000 0000
00000040: 0000 0000 0000 0000 0000 0000 0000 0000
00000050: 0000 0000 0000 0000 0000 0000 0000 0000
00000060: 0000 0000 0000 0000 0000 0000 0000 0000
00000070: 0000 0000 0000 0000 0000 0000 0000 0000
00000080: 0000 0000 0000 0000 0000 0000 0000 0000
00000090: 0000 0000 0000 0000 0000 0000 0000 0000
000000a0: 0000 0000 0000 0000 0000 0000 0000 0000
000000b0: 0000 0000 0000 0000 0000 0000 0000 0000
000000c0: 0000 0000 0000 0000 0000 0000 0000 0000
000000d0: 0000 0000 0000 0000 0000 0000 0000 0000
000000e0: 0000 0000 0000 0000 0000 0000 0000 0000
000000f0: 0000 0000 0000 0000 0000 0000 0000 0000
00000100: 0000 0000 0000 0000 0000 0000 0000 0000
00000110: 0000 0000 0000 0000 0000 0000 0000 0000
00000120: 0000 0000 0000 0000 0000 0000 0000 0000
00000130: 0000 0000 0000 0000 0000 0000 0000 0000
00000140: 0000 0000 0000 0000 0000 0000 0000 0000
00000150: 0000 0000 0000 0000 0000 0000 0000 0000
00000160: 0000 0000 0000 0000 0000 0000 0000 0000
00000170: 0000 0000 0000 0000 0000 0000 0000 0000
00000180: 0000 0000 0000 0000 0000 0000 0000 0000
00000190: 0000 0000 0000 0000 0000 0000 0000 0000
000001a0: 0000 0000 0000 0000 0000 0000 0000 0000
000001b0: 0000 0000 0000 0000 0000 0000 0000 0000
000001c0: 0000 0000 0000 0000 0000 0000 0000 0000
000001d0: 0000 0000 0000 0000 0000 0000 0000 0000
000001e0: 0000 0000 0000 0000 0000 0000 0000 0000
000001f0: 0000 0000 0000 0000 0000 0000 0000 0000
00000200: 0000 0000 0000 0000 0000 0000 0000 0000
00000210: 0000 0000 0000 0000 0000 0000 0000 0000
00000220: 0000 0000 0000 0000 0000 0000 0000 0000
00000230: 0000 0000 0000 0000 0000 0000 0000 0000
00000240: 0000 0000 0000 0000 0000 0000 0000 0000
00000250: 0000 0000 0000 0000 0000 0000 0000 0000
00000260: 0000 0000 0000 0000 0000 0000 0000 0000
00000270: 0000 0000 0000 0000 0000 0000 0000 0000
00000280: 0000 0000 0000 0000 0000 0000 0000 0000
00000290: 0000 0000 0000 0000 0000 0000 0000 0000
000002a0: 0000 0000 0000 0000 0000 0000 0000 0000
000002b0: 0000 0000 0000 0000 0000 0000 0000 0000
000002c0: 0000 0000 0000 0000 0000 0000 0000 0000
000002d0: 0000 0000 0000 0000 0000 0000 0000 0000
000002e0: 0000 0000 0000 0000 0000 0000 0000 0000
000002f0: 0000 0000 0000 0000 0000 0000 0000 0000
00000300: 0000 0000 0000 0000 0000 0000 0000 0000
00000310: 0000 0000 0000 0000 0000 0000 0000 0000
00000320: 0000 0000 0000 0000 0000 0000 0000 0000
00000330: 0000 0000 0000 0000 0000 0000 0000 0000
00000340: 0000 0000 0000 0000 0000 0000 0000 0000
00000350: 0000 0000 0000 0000 0000 0000 0000 0000
00000360: 0000 0000 0000 0000 0000 0000 0000 0000
00000370: 0000 0000 0000 0000 0000 0000 0000 0000
00000380: 0000 0000 0000 0000 0000 0000 0000 0000
00000390: 0000 0000 0000 0000 0000 0000 0000 0000
000003a0: 0000 0000 0000 0000 0000 0000 0000 0000
000003b0: 0000 0000 0000 0000 0000 0000 0000 0000
000003c0: 0000 0000 0000 0000 0000 0000 0000 0000
000003d0: 0000 0000 0000 0000 0000 0000 0000 0000
000003e0: 0000 0000 0000 0000 0000 0000 0000 0000
000003f0: 0000 0000 0000 0000 0000 0000 0000 0000

cov.base_kernel.raw_lengthscale f4 [1, 2]
34.627357 32.61916
00000000: 6a82 0a42 057a 0242
