slam/rbpf_slam/data/old_results/works_w_more_particles/svgp_particle6.pth (torch, 367369 bytes, 4 tensors)

variational_strategy.inducing_points f4 [300, 2]
0	0x43b39cbe	359.22455
1	0xc33da4c9	-189.64369
2	0x43da540b	436.6566
3	0xc320a3da	-160.64005
4	0x43a8187a	336.19122
5	0xc354ffd1	-212.99928
6	0x43a789c4	335.0763
7	0xc3779b87	-247.60753
8	0x435effb9	222.99892
9	0xc2ca608a	-101.18855
10	0x4367ac37	231.67271
11	0xc23d1b86	-47.27688
12	0x4351072c	209.02802
13	0xc2af064c	-87.5123
14	0x435f7cee	223.488
15	0xc3105253	-144.32158
16	0x43dd7627	442.92307
17	0xc3107d22	-144.4888
18	0x43829990	261.1997
19	0xc339b0b5	-185.69026
20	0x4389b197	275.38742
21	0xc2f682c5	-123.25541
22	0x4390cff8	289.62476
23	0xc3060e15	-134.05501
24	0x43c32412	390.2818
25	0xc35442c6	-212.26083
26	0x43d96121	434.75882
27	0xc388e91a	-273.8211
28	0x43a10e4f	322.1118
29	0xc2d8862e	-108.26207
30	0x439f8b74	319.08948
31	0xc38cc535	-281.54068
32	0x43c7382a	398.43878
33	0xc376560e	-246.33615
34	0x4363a24c	227.63397
35	0xc2dd4f78	-110.65521
36	0x43b45aa2	360.70807
37	0xc3042f44	-132.18463
38	0x43b8ac1d	369.34464
39	0xc37ada7c	-250.85345
40	0x43ba6cde	372.85052
41	0xc2e21805	-113.04691
42	0x43a590aa	331.1302
43	0xc37705ac	-247.02216
44	0x43866453	268.78378
45	0xc2e7fd90	-115.99524
46	0x43b7c33d	367.5253
47	0xc34fb249	-207.69643
48	0x4383ac75	263.34732
49	0xc2baf57a	-93.47945
50	0x438c3994	280.44983
51	0xc32f616e	-175.38058
52	0x434cbc28	204.73499
53	0xc28d327c	-70.5986
54	0x43ba5482	372.66022
55	0xc32ae33e	-170.88766
56	0x43a4c8ff	329.57028
57	0xc3211e6b	-161.11882
58	0x4387baa6	271.4582
59	0xc337024a	-183.00894
60	0x439a17e3	308.1866
61	0xc30ae45b	-138.89201
62	0x439d72c7	314.8967
63	0xc3789bcb	-248.60857
64	0x43a87192	336.88727
65	0xc2f76ee0	-123.71655
66	0x43708f86	240.56064
67	0xc3430bd0	-195.04614
68	0x43bdf82e	379.9389
69	0xc2eb0c67	-117.52422
70	0x43923739	292.43143
71	0xc39cf1f2	-313.8902
72	0x43a88a4a	337.08038
73	0xc32d1ca3	-173.11186
74	0x43cb4018	406.50073
75	0xc300c3e1	-128.76515
76	0x43dc375f	440.4326
77	0xc35b94ac	-219.58075
78	0x43c5bd5a	395.4793
79	0xc34c7bba	-204.4833
80	0x439d7d94	314.98108
81	0xc3120e1a	-146.05508
82	0x4358cd71	216.8025
83	0xc335f73a	-181.96573
84	0x43405efe	192.37106
85	0xc30d2ed5	-141.18294
86	0x43a7f1b0	335.88818
87	0xc2f3f891	-121.98548
88	0x438958b2	274.69293
89	0xc3476410	-199.39087
90	0x4367d4e2	231.83157
91	0xc3169b4c	-150.60663
92	0x438b59a0	278.7002
93	0xc308e3ae	-136.88937
94	0x437c8f46	252.55966
95	0xc323f5dd	-163.9604
96	0x4388e95d	273.82315
97	0xc386f93b	-269.9471
98	0x43aa8322	341.02448
99	0xc2f8c7c3	-124.39016
100	0x4392b62a	293.42316
101	0xc2d79efe	-107.81053
102	0x4360babb	224.72942
103	0xc3254ad9	-165.29237
104	0x43b333a9	358.4036
105	0xc35ae076	-218.8768
106	0x43e9a146	467.25995
107	0xc34a3376	-202.20102
108	0x43a1318d	322.38712
109	0xc39e300f	-316.37546
110	0x43a89231	337.14212
111	0xc3802a3f	-256.33005
112	0x43830f87	262.1213
113	0xc37a918e	-250.56857
114	0x43a43c1b	328.46957
115	0xc384e1e5	-265.7648
116	0x438c6073	280.7535
117	0xc3716f0f	-241.43382
118	0x43b2e0f0	357.75732
119	0xc33f5671	-191.33766
120	0x4380311d	256.3837
121	0xc2d96f4b	-108.71737
122	0x43a94e9e	338.6142
123	0xc2f45fde	-122.18724
124	0x4387714d	270.88516
125	0xc38be8cd	-279.81876
126	0x43be6de0	380.8584
127	0xc2f31d8a	-121.55769
128	0x43b0cf15	353.61783
129	0xc30de1db	-141.88225
130	0x43998db2	307.107
131	0xc2bfc42e	-95.88316
132	0x43cb13b4	406.15393
133	0xc34052f4	-192.32404
134	0x437e5be4	254.35895
135	0xc3738fd2	-243.5618
136	0x4369a3b8	233.63953
137	0xc370359d	-240.20943
138	0x4383e214	263.76624
139	0xc2bbccab	-93.89974
140	0x438aa2c4	277.2716
141	0xc318a82e	-152.65695
142	0x4380a5db	257.29575
143	0xc34c50aa	-204.3151
144	0x4393f6ec	295.92908
145	0xc38df562	-283.91705
146	0x43a39b11	327.21146
147	0xc2c92bda	-100.58565
148	0x43b090fd	353.13272
149	0xc388633f	-272.77536
150	0x434e32ed	206.19893
151	0xc2e5f10e	-114.97081
152	0x43502dd9	208.1791
153	0xc32de17e	-173.88083
154	0x43a31b53	326.21347
155	0xc388adc2	-273.35748
156	0x4386349d	268.41104
157	0xc2a276d1	-81.23206
158	0x439e6c16	316.84442
159	0xc3362d24	-182.17633
160	0x4361a52c	225.6452
161	0xc3310d20	-177.05127
162	0x43674811	231.28151
163	0xc33df2c7	-189.94835
164	0x43adfcf4	347.9762
165	0xc31c42e7	-156.26134
166	0x436aaae2	234.66751
167	0xc279bfc2	-62.437263
168	0x4396afcf	301.3735
169	0xc33e004c	-190.00116
170	0x439167ec	290.8119
171	0xc3865189	-268.637
172	0x4397d26c	303.64392
173	0xc32b84c1	-171.51857
174	0x43a530c9	330.38113
175	0xc37020c1	-240.12794
176	0x43a486c6	329.05292
177	0xc36bccce	-235.80002
178	0x437746a8	247.276
179	0xc36862fd	-232.38667
180	0x436ef000	238.9375
181	0xc2be541a	-95.16426
182	0x438bcbc6	279.59198
183	0xc2e8ae7d	-116.3408
184	0x43c1aca6	387.34882
185	0xc2eae335	-117.44376
186	0x43b2fdb9	357.9822
187	0xc36bfcdf	-235.98778
188	0x43a3f705	327.92984
189	0xc35db3ea	-221.70279
190	0x43811c5f	258.22165
191	0xc2b13398	-88.60077
192	0x4394799d	296.9501
193	0xc37cc379	-252.76357
194	0x43d639ff	428.4531
195	0xc3374f19	-183.30898
196	0x43979d6e	303.22992
197	0xc38481ff	-265.0156
198	0x438c3b83	280.46494
199	0xc344cfa9	-196.81117
200	0x4394dd59	297.72928
201	0xc319f761	-153.96632
202	0x4365cff5	229.81233
203	0xc31c6f49	-156.43471
204	0x438c4edd	280.61612
205	0xc30cf56e	-140.95871
206	0x43b0aefe	353.36713
207	0xc2da96f2	-109.294815
208	0x436f1945	239.09871
209	0xc2606d0e	-56.1065
210	0x435c3d57	220.23961
211	0xc285946f	-66.78991
212	0x43b2d075	357.62857
213	0xc38842de	-272.5224
214	0x43a17df3	322.98398
215	0xc3454fef	-197.31224
216	0x43849748	265.1819
217	0xc2ac35c0	-86.10498
218	0x43657224	229.44586
219	0xc298ccec	-76.40024
220	0x43c8d93b	401.6971
221	0xc319f966	-153.97421
222	0x43a6ce51	333.61185
223	0xc38abbaf	-277.46628
224	0x439b0eba	310.11505
225	0xc3221923	-162.09819
226	0x43d9b781	435.43362
227	0xc3288e6a	-168.5563
228	0x43a38ebb	327.11508
229	0xc3a7e70b	-335.80502
230	0x4347ce3e	199.80563
231	0xc29ccaf0	-78.39636
232	0x43afc341	351.52542
233	0xc2d9f211	-108.972786
234	0x439664f8	300.78882
235	0xc34401fb	-196.00774
236	0x43e0f126	449.88397
237	0xc35f104b	-223.06364
238	0x43bffd49	383.9788
239	0xc35d8df4	-221.5545
240	0x43547019	212.43788
241	0xc2e316a3	-113.54421
242	0x43e09b31	449.21243
243	0xc37eee96	-254.93198
244	0x438b2ad2	278.33453
245	0xc3a85b17	-336.71164
246	0x43b60128	364.00903
247	0xc38f6d67	-286.8547
248	0x43812d2d	258.35294
249	0xc38f7755	-286.93228
250	0x439392f7	295.14816
251	0xc3083841	-136.21974
252	0x4359037d	217.01363
253	0xc3048064	-132.50153
254	0x437e0a26	254.03964
255	0xc301f072	-129.93924

variational_strategy._variational_distribution.variational_mean f4 [300]
0	0xc163595f	-14.209319
1	0xc13f3025	-11.949254
2	0xc1032f62	-8.199068
3	0xc118ae02	-9.542482
4	0xc13fafa5	-11.980382
5	0xc0d361bd	-6.605681
6	0xc05254df	-3.2864301
7	0xc1211553	-10.067706
8	0xc036b521	-2.8548052
9	0xc13080ec	-11.031475
10	0xc1034c87	-8.206183
11	0xc073dbd8	-3.8102932
12	0xc0f2f7fc	-7.5927715
13	0xc1230657	-10.189048
14	0xc10a8dff	-8.659667
15	0xc1094a9f	-8.580718
16	0xc0a457bf	-5.135711
17	0xbfdde6e8	-1.7336092
18	0xc0e9716c	-7.2950954
19	0xbfc9e0f9	-1.5771781
20	0xc068ea1e	-3.6392894
21	0xbf7f65c6	-0.9976467
22	0xbfecd905	-1.8503729
23	0x3f5e9fc1	0.86962515
24	0xc0a38e3e	-5.1111135
25	0xc002cf8d	-2.043918
26	0xbfa8f626	-1.3200119
27	0xc0374eab	-2.8641765
28	0xc066edc3	-3.6082618
29	0x3f6519fe	0.89492786
30	0xbd0a028c	-0.033693835
31	0xc082e808	-4.090824
32	0x3efbcaf0	0.49178267
33	0xc0e1e5e5	-7.0593133
34	0xbfa7ad04	-1.3099675
35	0xc11fd4a5	-9.989415
36	0xbf5ce38c	-0.8628471
37	0xc01aa397	-2.4162347
38	0xc0e78c8d	-7.235907
39	0xc008ef4b	-2.1396053
40	0xbf8ee266	-1.1162841
41	0xc09076fd	-4.514525
42	0xc0d3f0a2	-6.623124
43	0xbd604ace	-0.05475884
44	0xc061a388	-3.5256062
45	0xbfc280ab	-1.5195516
46	0xbf16c37e	-0.5889205
47	0xbf1e5367	-0.6184601
48	0xc0b62eff	-5.693237
49	0xbf839797	-1.0280637
50	0xbf6b05a1	-0.91805464
51	0x3f6592d8	0.8967719
52	0x3ea7dfc2	0.327879
53	0xc0e9387e	-7.288146
54	0xc0ab6630	-5.356224
55	0xbf923119	-1.1421233
56	0xc0a879e4	-5.264879
57	0xbeecd1cc	-0.46253812
58	0xbf0c8c09	-0.54901177
59	0xbe21093a	-0.15726176
60	0x3e03a7b2	0.1285694
61	0xbf56d37d	-0.83916456
62	0xc088e31c	-4.2777233
63	0xbf0ffb83	-0.5624315
64	0xbeac84a0	-0.33694935
65	0xc0196b01	-2.397156
66	0xbfbc4e2c	-1.4711356
67	0xc029fc61	-2.656029
68	0xc07de191	-3.9668925
69	0x3ea5627c	0.323017
70	0xbaec8756	-0.0018045704
71	0xbe175881	-0.14779855
72	0x3e781ab2	0.24228933
73	0xbfd57342	-1.6675799
74	0xc0474ce0	-3.114067
75	0xbfa900eb	-1.3203405
76	0xbf79e348	-0.9761243
77	0xbea0271b	-0.31279835
78	0xbfffa209	-1.9971324
79	0xbfd6971b	-1.6764864
80	0x3f15baef	0.58488363
81	0xbf307187	-0.6892323
82	0xbe85a167	-0.26099703
83	0xbf8596df	-1.0436667
84	0xbf62db97	-0.8861632
85	0xbf76339a	-0.9617249
86	0x3df50224	0.11963299
87	0xbe423d0f	-0.18968605
88	0xbef7823d	-0.4834155
89	0xbd3018be	-0.042992346
90	0xbe91d2cf	-0.28481147
91	0x3e0e9d32	0.13927153
92	0xbe8ac7e7	-0.27105638
93	0x3d041b4c	0.032252595
94	0xbf0ccc84	-0.54999566
95	0x3e1f7738	0.15572822
96	0xbe89c909	-0.2691119
97	0xbf7ee177	-0.9956278
98	0xbe6b31f4	-0.22968274
99	0xbe1fc652	-0.15602997
100	0xbe36a0e1	-0.17834808
101	0x3ec802fb	0.39064774
102	0x3dda7c8b	0.10668286
103	0xbf5e7a6e	-0.8690556
104	0xbf23095a	-0.63686144
105	0x3e7bbbaa	0.24583307
106	0xbfd815ab	-1.6881613
107	0xbf3c8da2	-0.73653615
108	0x3ef39727	0.47576258
109	0x3d508145	0.05090453
110	0xbf7e1038	-0.992435
111	0xbf5b2814	-0.8560803
112	0xbe09adb7	-0.13445173
113	0xbef9ff08	-0.48827386
114	0xc0b976f2	-5.7957697
115	0xbfdaabd4	-1.7083688
116	0xbdb3b239	-0.08774228
117	0xbef2d778	-0.47430015
118	0xbf6bd6ed	-0.92124826
119	0xbe111b99	-0.14170684
120	0x3f1eb40a	0.6199347
121	0xbfedbf06	-1.8573921
122	0xc052d849	-3.294451
123	0xc07f9fad	-3.9941208
124	0xc0365525	-2.8489468
125	0xbdc53a34	-0.09630242
126	0x3eb09b99	0.34493712
127	0xbf8cd926	-1.1003768
128	0xbdaefa6f	-0.0854386
129	0xc078e9b0	-3.8892632
130	0xbe7fbe9f	-0.2497506
131	0xbcc3d59e	-0.023905572
132	0x3cba8960	0.022770584
133	0xbdb52358	-0.08844632
134	0x3cbb7893	0.022884643
135	0xbee67669	-0.45012215
136	0xbe04a7c0	-0.12954617
137	0x3c09f01d	0.008419064
138	0x3e2ec687	0.1706792
139	0xbf6dc71b	-0.92881936
140	0xbdd09596	-0.10184781
141	0xbee61e11	-0.44944814
142	0xbe00d5ee	-0.12581608
143	0xbca929b0	-0.020649761
144	0xbf63ad4d	-0.8893631
145	0xbd867a95	-0.065663494
146	0xbed0b36b	-0.40761885
147	0xbfe86cb3	-1.8158172
148	0x3e2543d9	0.16139163
149	0x3d49e867	0.0492939
150	0x3d475be3	0.048671614
151	0xbf2dbc5c	-0.6786554
152	0x3d16d72a	0.03682629
153	0x3cf17a45	0.029477248
154	0x3c3937f9	0.011304849
155	0xbca4bd87	-0.020109905
156	0x3da00008	0.07812506
157	0x3c82aa10	0.015950233
158	0xbe8c08f9	-0.27350596
159	0xbe8c71ff	-0.27430722
160	0x3d9ac49f	0.07557034
161	0xbe954b97	-0.29159233
162	0x3db50750	0.088392854
163	0xc03f715e	-2.9912944
164	0xbed29914	-0.41132414
165	0x3ea9b8c1	0.3314877
166	0xbd2cab6c	-0.04215567
167	0xbc974ff7	-0.018470747
168	0x3c6703a0	0.014099985
169	0xbef204a3	-0.47269163
170	0xbe0dad27	-0.13835584
171	0x3993ef84	0.00028216478
172	0xc047cd5b	-3.121909
173	0xbc86ebae	-0.016469803
174	0xbdc13925	-0.094347276
175	0x3cac103f	0.02100384
176	0x3eaff491	0.34366277
177	0xbd1fd732	-0.039023586
178	0x3dbcfb7d	0.09227655
179	0x3d8a4931	0.067522414
180	0xbdb187d9	-0.08668489
181	0xbe156501	-0.14589311
182	0xbd06eca4	-0.03294052
183	0xbffdcc3a	-1.982795
184	0xbed0ef2c	-0.40807474
185	0xb9e34f98	-0.00043356116
186	0x3fc2176e	1.51634
187	0xbd3c6386	-0.04599335
188	0x3d820738	0.06349033
189	0xbecccacc	-0.39998472
190	0xbca1b0d8	-0.019737646
191	0x3e3f1d9f	0.18663643
192	0xbe30bd57	-0.17259727
193	0x3bedbf91	0.0072555025
194	0x3d8cd4ef	0.06876551
195	0xbe1d768e	-0.15377256
196	0xbf8f9ca0	-1.1219673
197	0xbf2cd5fb	-0.6751401
198	0xbce1a1f6	-0.02754305
199	0xba96dcf0	-0.0011509936
200	0xbd532dba	-0.05155728
201	0xbe6824af	-0.22670244
202	0xc011b0f2	-2.276425
203	0x3c97bb57	0.018521948
204	0xbf3a9e03	-0.72897357
205	0xbef47deb	-0.47752318
206	0xbcd20d75	-0.025641182
207	0x3bafea9e	0.0053685447
208	0xbf2ad0e2	-0.6672498
209	0xbcd45a9f	-0.025922118
210	0x3e03dc01	0.12876894
211	0xbdd33b91	-0.10314096
212	0xbc40a9d2	-0.011759238
213	0xbf9c341d	-1.2203404
214	0xbf91de07	-1.1395882
215	0xc0754001	-3.8320315
216	0xbdd6cba8	-0.10488063
217	0xbd6bd3b2	-0.057574935
218	0xbcc52c7e	-0.024069067
219	0xbe9183a9	-0.2842076
220	0x3c392bba	0.011301929
221	0xba9be5ce	-0.0011894049
222	0x3e1645fa	0.14675131
223	0x3daada65	0.08342437
224	0x3b631860	0.003465198
225	0xbc217f40	-0.009856999
226	0xbf70c8e3	-0.9405653
227	0xbdff6a94	-0.124715
228	0x3d04a4a0	0.03238356
229	0x3b54e2ca	0.003248381
230	0xbcccb9e8	-0.02499099
231	0x3d6c1680	0.057638645
232	0xc0234b3c	-2.551467
233	0x3c907f46	0.017638814
234	0x3be5411c	0.006996287
235	0xc04d5ab4	-3.208661
236	0xbc1fedd5	-0.009761293
237	0xc01080a2	-2.2578511
238	0xbe656639	-0.22402276
239	0x3cf5f980	0.030026197
240	0xbdab72e4	-0.08371523
241	0xbb4babc5	-0.0031077724
242	0x3b7fdcf3	0.0039041608
243	0xbb2778ee	-0.0025554257
244	0xbe95381e	-0.29144377
245	0xbf010b7f	-0.50408167
246	0x3b084cab	0.002079765
247	0x3c1e6ad0	0.009669021
248	0xbf200bd0	-0.62518024
249	0xbd8d162e	-0.06888996
250	0xbd4b642c	-0.04965608
251	0xbd2e40fc	-0.042542443
252	0xbd1d7685	-0.038443107
253	0xbce97c89	-0.028501766
254	0xbc9a3d86	-0.018828165
255	0xbc134b44	-0.008990113

variational_strategy._variational_distribution.chol_variational_covar f4 [300, 300]
0	0x3ec3282c	0.38116586
1	0x00000000	0.0
2	0x00000000	0.0
3	0x00000000	0.0
4	0x00000000	0.0
5	0x00000000	0.0
6	0x00000000	0.0
7	0x00000000	0.0
8	0x00000000	0.0
9	0x00000000	0.0
10	0x00000000	0.0
11	0x00000000	0.0
12	0x00000000	0.0
13	0x00000000	0.0
14	0x00000000	0.0
15	0x00000000	0.0
16	0x00000000	0.0
17	0x00000000	0.0
18	0x00000000	0.0
19	0x00000000	0.0
20	0x00000000	0.0
21	0x00000000	0.0
22	0x00000000	0.0
23	0x00000000	0.0
24	0x00000000	0.0
25	0x00000000	0.0
26	0x00000000	0.0
27	0x00000000	0.0
28	0x00000000	0.0
29	0x00000000	0.0
30	0x00000000	0.0
31	0x00000000	0.0
32	0x00000000	0.0
33	0x00000000	0.0
34	0x00000000	0.0
35	0x00000000	0.0
36	0x00000000	0.0
37	0x00000000	0.0
38	0x00000000	0.0
39	0x00000000	0.0
40	0x00000000	0.0
41	0x00000000	0.0
42	0x00000000	0.0
43	0x00000000	0.0
44	0x00000000	0.0
45	0x00000000	0.0
46	0x00000000	0.0
47	0x00000000	0.0
48	0x00000000	0.0
49	0x00000000	0.0
50	0x00000000	0.0
51	0x00000000	0.0
52	0x00000000	0.0
53	0x00000000	0.0
54	0x00000000	0.0
55	0x00000000	0.0
56	0x00000000	0.0
57	0x00000000	0.0
58	0x00000000	0.0
59	0x00000000	0.0
60	0x00000000	0.0
61	0x00000000	0.0
62	0x00000000	0.0
63	0x00000000	0.0
64	0x00000000	0.0
65	0x00000000	0.0
66	0x00000000	0.0
67	0x00000000	0.0
68	0x00000000	0.0
69	0x00000000	0.0
70	0x00000000	0.0
71	0x00000000	0.0
72	0x00000000	0.0
73	0x00000000	0.0
74	0x00000000	0.0
75	0x00000000	0.0
76	0x00000000	0.0
77	0x00000000	0.0
78	0x00000000	0.0
79	0x00000000	0.0
80	0x00000000	0.0
81	0x00000000	0.0
82	0x00000000	0.0
83	0x00000000	0.0
84	0x00000000	0.0
85	0x00000000	0.0
86	0x00000000	0.0
87	0x00000000	0.0
88	0x00000000	0.0
89	0x00000000	0.0
90	0x00000000	0.0
91	0x00000000	0.0
92	0x00000000	0.0
93	0x00000000	0.0
94	0x00000000	0.0
95	0x00000000	0.0
96	0x00000000	0.0
97	0x00000000	0.0
98	0x00000000	0.0
99	0x00000000	0.0
100	0x00000000	0.0
101	0x00000000	0.0
102	0x00000000	0.0
103	0x00000000	0.0
104	0x00000000	0.0
105	0x00000000	0.0
106	0x00000000	0.0
107	0x00000000	0.0
108	0x00000000	0.0
109	0x00000000	0.0
110	0x00000000	0.0
111	0x00000000	0.0
112	0x00000000	0.0
113	0x00000000	0.0
114	0x00000000	0.0
115	0x00000000	0.0
116	0x00000000	0.0
117	0x00000000	0.0
118	0x00000000	0.0
119	0x00000000	0.0
120	0x00000000	0.0
121	0x00000000	0.0
122	0x00000000	0.0
123	0x00000000	0.0
124	0x00000000	0.0
125	0x00000000	0.0
126	0x00000000	0.0
127	0x00000000	0.0
128	0x00000000	0.0
129	0x00000000	0.0
130	0x00000000	0.0
131	0x00000000	0.0
132	0x00000000	0.0
133	0x00000000	0.0
134	0x00000000	0.0
135	0x00000000	0.0
136	0x00000000	0.0
137	0x00000000	0.0
138	0x00000000	0.0
139	0x00000000	0.0
140	0x00000000	0.0
141	0x00000000	0.0
142	0x00000000	0.0
143	0x00000000	0.0
144	0x00000000	0.0
145	0x00000000	0.0
146	0x00000000	0.0
147	0x00000000	0.0
148	0x00000000	0.0
149	0x00000000	0.0
150	0x00000000	0.0
151	0x00000000	0.0
152	0x00000000	0.0
153	0x00000000	0.0
154	0x00000000	0.0
155	0x00000000	0.0
156	0x00000000	0.0
157	0x00000000	0.0
158	0x00000000	0.0
159	0x00000000	0.0
160	0x00000000	0.0
161	0x00000000	0.0
162	0x00000000	0.0
163	0x00000000	0.0
164	0x00000000	0.0
165	0x00000000	0.0
166	0x00000000	0.0
167	0x00000000	0.0
168	0x00000000	0.0
169	0x00000000	0.0
170	0x00000000	0.0
171	0x00000000	0.0
172	0x00000000	0.0
173	0x00000000	0.0
174	0x00000000	0.0
175	0x00000000	0.0
176	0x00000000	0.0
177	0x00000000	0.0
178	0x00000000	0.0
179	0x00000000	0.0
180	0x00000000	0.0
181	0x00000000	0.0
182	0x00000000	0.0
183	0x00000000	0.0
184	0x00000000	0.0
185	0x00000000	0.0
186	0x00000000	0.0
187	0x00000000	0.0
188	0x00000000	0.0
189	0x00000000	0.0
190	0x00000000	0.0
191	0x00000000	0.0
192	0x00000000	0.0
193	0x00000000	0.0
194	0x00000000	0.0
195	0x00000000	0.0
196	0x00000000	0.0
197	0x00000000	0.0
198	0x00000000	0.0
199	0x00000000	0.0
200	0x00000000	0.0
201	0x00000000	0.0
202	0x00000000	0.0
203	0x00000000	0.0
204	0x00000000	0.0
205	0x00000000	0.0
206	0x00000000	0.0
207	0x00000000	0.0
208	0x00000000	0.0
209	0x00000000	0.0
210	0x00000000	0.0
211	0x00000000	0.0
212	0x00000000	0.0
213	0x00000000	0.0
214	0x00000000	0.0
215	0x00000000	0.0
216	0x00000000	0.0
217	0x00000000	0.0
218	0x00000000	0.0
219	0x00000000	0.0
220	0x00000000	0.0
221	0x00000000	0.0
222	0x00000000	0.0
223	0x00000000	0.0
224	0x00000000	0.0
225	0x00000000	0.0
226	0x00000000	0.0
227	0x00000000	0.0
228	0x00000000	0.0
229	0x00000000	0.0
230	0x00000000	0.0
231	0x00000000	0.0
232	0x00000000	0.0
233	0x00000000	0.0
234	0x00000000	0.0
235	0x00000000	0.0
236	0x00000000	0.0
237	0x00000000	0.0
238	0x00000000	0.0
239	0x00000000	0.0
240	0x00000000	0.0
241	0x00000000	0.0
242	0x00000000	0.0
243	0x00000000	0.0
244	0x00000000	0.0
245	0x00000000	0.0
246	0x00000000	0.0
247	0x00000000	0.0
248	0x00000000	0.0
249	0x00000000	0.0
250	0x00000000	0.0
251	0x00000000	0.0
252	0x00000000	0.0
253	0x00000000	0.0
254	0x00000000	0.0
255	0x00000000	0.0

cov.base_kernel.raw_lengthscale f4 [1, 2]
0	0x42009584	32.14601
1	0x4203c6b0	32.94403
