slam/rbpf_slam/data/old_results/record_pf2train_gp/results/svgp.pth (torch, 44874 bytes, 4 tensors)

variational_strategy.inducing_points f4 [100, 2]
0	0xc12fea9c	-10.994778
1	0xc3fab932	-501.44684
2	0x424787fd	49.8828
3	0xc3c1c169	-387.51102
4	0xc1f4b451	-30.588045
5	0xc3aa0c87	-340.09787
6	0x430468ad	132.40889
7	0xc3b3bf6c	-359.49548
8	0xc2a3dedb	-81.935265
9	0xc3da27d7	-436.31125
10	0xc2b0f97e	-88.48729
11	0xc3d49b5e	-425.2138
12	0xc2c2a9fa	-97.331985
13	0xc3d3775e	-422.93256
14	0xc26cd2a9	-59.205723
15	0xc3c30d0d	-390.10196
16	0xc28c8cbe	-70.27489
17	0xc3d06687	-416.801
18	0xc2af3622	-87.60573
19	0xc3e81e53	-464.2369
20	0xc3364203	-182.25786
21	0xc3d0cf04	-417.6173
22	0xc2abf457	-85.97723
23	0xc3e0e267	-449.76877
24	0xc14ddbc0	-12.86615
25	0xc3dd582c	-442.68884
26	0xc2d37a5d	-105.73899
27	0xc3cee876	-413.8161
28	0x42a05694	80.1691
29	0xc3ce6c64	-412.8468
30	0xc1cb5b09	-25.41945
31	0xc3e0b922	-449.44635
32	0x41fe3905	31.777842
33	0xc3cfc03b	-415.5018
34	0xc2ba511a	-93.1584
35	0xc39a20b8	-308.2556
36	0xc30d4eb0	-141.30737
37	0xc3c080db	-385.00668
38	0x429cab25	78.33427
39	0xc38fa264	-287.26868
40	0xc2addc3a	-86.93013
41	0xc3b2a1e7	-357.26486
42	0x4162cc1f	14.174834
43	0xc3a1d1a7	-323.6379
44	0xc2aee083	-87.4385
45	0xc3b85df0	-368.7339
46	0xc2c19e6a	-96.8094
47	0xc3a49863	-329.19052
48	0x3fd92ca4	1.6966748
49	0xc3de7560	-444.917
50	0xc2c6f019	-99.46894
51	0xc3dc20e2	-440.2569
52	0x42e853d5	116.163734
53	0xc3bd3aeb	-378.4603
54	0xc2d2502e	-105.1566
55	0xc3a7ed26	-335.85272
56	0x427d0882	63.25831
57	0xc3a913ca	-338.1546
58	0x430ce38c	140.88885
59	0xc3c09e4b	-385.23666
60	0xc3159f00	-149.6211
61	0xc40368d8	-525.6382
62	0xc2b75ee9	-91.68537
63	0xc3a7e0fe	-335.75775
64	0xc28b19b8	-69.55023
65	0xc3fed73a	-509.68146
66	0xc207d5b1	-33.958683
67	0xc393fa08	-295.95337
68	0xc2590681	-54.25635
69	0xc3a34efc	-326.61707
70	0x43279060	167.56396
71	0xc3e10f42	-450.1192
72	0xc2c7124e	-99.53575
73	0xc402e37a	-523.5543
74	0x42759c10	61.402405
75	0xc3e21f22	-452.24323
76	0x42c6e149	99.44001
77	0xc3dadd4e	-437.72894
78	0xc14dd9f3	-12.86571
79	0xc3bb55ae	-374.66937
80	0xc21889ca	-38.13456
81	0xc3cc4e35	-408.611
82	0xc2ccaffa	-102.343704
83	0xc3b5caef	-363.58542
84	0x424544be	49.31713
85	0xc3992bb9	-306.34158
86	0xc2b94810	-92.64075
87	0xc3be9663	-381.1749
88	0xc2abeae2	-85.958755
89	0xc3f09d12	-481.2271
90	0xc2887e78	-68.24701
91	0xc39d681f	-314.81345
92	0xc2d8d71d	-108.42014
93	0xc3ee72f8	-476.8982
94	0xc2949f4f	-74.31115
95	0xc3603571	-224.20876
96	0xc2a95e92	-84.68471
97	0xc381f381	-259.90237
98	0xc317b0f4	-151.69122
99	0xc3e23a52	-452.45563
100	0xc3450649	-197.02455
101	0xc3e9d586	-467.66815
102	0xc334f52e	-180.95773
103	0xc3e9bb78	-467.4646
104	0xc2efb557	-119.85418
105	0xc3b3b6a0	-359.42676
106	0x4201bca7	32.43423
107	0xc3e5ecf4	-459.8512
108	0xc181201e	-16.140682
109	0xc3ef3eef	-478.49167
110	0xc2db0bb4	-109.52286
111	0xc3bd19d6	-378.20184
112	0x4208ebd4	34.2303
113	0xc3ed0efe	-474.11713
114	0xc287b85d	-67.860085
115	0xc3b76226	-366.76678
116	0xc2a2d73d	-81.42039
117	0xc392cc87	-293.59787
118	0xc31ea57e	-158.64645
119	0xc3b909da	-370.07697
120	0xc314fc35	-148.98518
121	0xc3b080f7	-353.00754
122	0xc2236989	-40.85306
123	0xc3afcde2	-351.60846
124	0xc12daa44	-10.854069
125	0xc394779a	-296.9344
126	0xc2ae1e11	-87.05872
127	0xc38b6bbc	-278.84167
128	0xc28920a7	-68.563774
129	0xc3902046	-288.25214
130	0xc2cbde06	-101.93364
131	0xc3adfbd2	-347.96735
132	0x42340287	45.00247
133	0xc3ac5946	-344.69745
134	0x42564958	53.571625
135	0xc3b5a9d3	-363.32675
136	0x41920aee	18.255337
137	0xc3d83678	-432.42554
138	0xc2698922	-58.38392
139	0xc39a0feb	-308.12436
140	0xc29e3493	-79.102684
141	0xc3c06573	-384.79257
142	0xc2b2f00a	-89.46883
143	0xc3cdcb18	-411.58667
144	0xc31a76ae	-154.4636
145	0xc3d2cccb	-421.59995
146	0xc221e8d8	-40.477386
147	0xc3aacb09	-341.5862
148	0xc176d6d6	-15.42745
149	0xc3a7cf3f	-335.6191
150	0xc2b0935e	-88.28783
151	0xc395499c	-298.57507
152	0xc2ad20a9	-86.56379
153	0xc3a01759	-320.1824
154	0x421e623a	39.595924
155	0xc3f37928	-486.94653
156	0xc2a8c1f2	-84.3788
157	0xc3aca867	-345.31564
158	0xc2640d2a	-57.012856
159	0xc3b03a62	-352.45612
160	0xc28f4010	-71.62512
161	0xc3a224dc	-324.28796
162	0x3f434459	0.76276165
163	0xc35cf19f	-220.94383
164	0xc2bcb157	-94.34637
165	0xc3d5e4f4	-427.7887
166	0xc332bff6	-178.74985
167	0xc3fcc8ad	-505.56778
168	0xc2f35d4d	-121.68223
169	0xc3db7f9f	-438.99704
170	0xc308985a	-136.59512
171	0xc3df7982	-446.94928
172	0xc3256d4f	-165.42699
173	0xc4068159	-538.02106
174	0x4309dd6b	137.86491
175	0xc3d2f32c	-421.89978
176	0x41173916	9.451437
177	0xc3f3793e	-486.9472
178	0x4051dcf3	3.2791107
179	0xc3d2be1d	-421.48526
180	0xbf8f29d5	-1.1184641
181	0xc3c214fa	-388.16388
182	0xc00a43c0	-2.1603851
183	0xc3b401d8	-360.0144
184	0xc1e8821b	-29.063528
185	0xc3f924f6	-498.28876
186	0x4283a711	65.8263
187	0xc3c6f37a	-397.90216
188	0x420677c2	33.61695
189	0xc3c8009e	-400.00482
190	0x42065905	33.586933
191	0xc3b8bb23	-369.462
192	0xc30b0521	-139.02003
193	0xc3b5a4ab	-363.28647
194	0x405a87a7	3.4145296
195	0xc3958e88	-299.11353
196	0x41558b59	13.34652
197	0xc3e9ac1b	-467.34457
198	0x42f32d3a	121.58833
199	0xc3e76955	-462.8229

variational_strategy._variational_distribution.variational_mean f4 [100]
0	0xc0e1931b	-7.049207
1	0xc102538c	-8.145397
2	0xc101d5ce	-8.114698
3	0xc09fcd58	-4.9938164
4	0xc0f9fbf0	-7.812004
5	0xc0fed1db	-7.963117
6	0xc0c8fd57	-6.2809253
7	0xc105e929	-8.369424
8	0xc1027b0e	-8.155043
9	0xc0f01035	-7.5019784
10	0xc0be7179	-5.9513516
11	0xc09c2be2	-4.880357
12	0xc101af24	-8.105259
13	0xc0cef7f6	-6.4677687
14	0xc0c57c17	-6.1713977
15	0xc0ec83fd	-7.391112
16	0xc10119f0	-8.068832
17	0xc118c0af	-9.547042
18	0xc0eda056	-7.4258223
19	0xc0da5b4d	-6.823645
20	0xc1179a99	-9.475244
21	0xc10040f1	-8.015855
22	0xc10e58ea	-8.896708
23	0xc1289918	-10.537376
24	0xc0f3de63	-7.620897
25	0xc0c2676f	-6.075126
26	0xc0c1e14f	-6.0587535
27	0xc0a8193e	-5.2530813
28	0xc0e695ac	-7.2057705
29	0xc07ea2af	-3.9786794
30	0xc0b0aef2	-5.5213556
31	0xc10b3c9e	-8.702299
32	0xc0f02707	-7.504764
33	0xc0ecf8c1	-7.4053655
34	0xc1173b97	-9.452048
35	0xc014e3bd	-2.3264
36	0xc0d8cbd7	-6.774883
37	0xc1026653	-8.1499815
38	0xc0aa0662	-5.313279
39	0xc107db26	-8.491003
40	0xc10b8acf	-8.721389
41	0xc10413e2	-8.254854
42	0xc0cf7d49	-6.4840436
43	0xc1047236	-8.277884
44	0xc0d5991e	-6.674941
45	0xc1125dee	-9.147932
46	0xc0cfa7d0	-6.489235
47	0xc0ccfe3e	-6.4060354
48	0xc10f94a4	-8.973789
49	0xc0d2862e	-6.5788794
50	0xc0b0566b	-5.510549
51	0xc0a5b71f	-5.1786036
52	0xc0fc3c74	-7.8823795
53	0xc0fcba2d	-7.8977265
54	0xc0f8f918	-7.780407
55	0xc105483a	-8.330133
56	0xc0f6ae2f	-7.7087626
57	0xc1099573	-8.598987
58	0xc1054f9c	-8.331936
59	0xc0b3c9b2	-5.618371
60	0xc0a091fb	-5.01782
61	0xc0f9cab0	-7.805992
62	0xc0fe6c59	-7.950726
63	0xc0e1a975	-7.0519357
64	0xc0bfd109	-5.994267
65	0xc0ac2d67	-5.3805423
66	0xc0d29b43	-6.581453
67	0xc08015aa	-4.0026445
68	0xc0e231e4	-7.06859
69	0xc0b3df18	-5.620983
70	0xc0dc214d	-6.879065
71	0xc0c1e763	-6.0594954
72	0xc0b1e287	-5.5589023
73	0x3f8f2cb6	1.118552
74	0xc0f37d50	-7.609047
75	0xc04740e1	-3.113335
76	0xc10e01ef	-8.875472
77	0xc08f7537	-4.4830585
78	0xc0cab053	-6.334024
79	0xc0dbf23e	-6.8733206
80	0xc0cc9682	-6.3933725
81	0xc00ec7eb	-2.230952
82	0xc04ef70b	-3.2338283
83	0xc0a24c3f	-5.0718074
84	0xc0ec523d	-7.385039
85	0xc0b123e8	-5.535633
86	0xc074b429	-3.823496
87	0xc07c0b20	-3.938179
88	0xc10263f7	-8.1494055
89	0xc0fb02a3	-7.844072
90	0xc0e84016	-7.257823
91	0xc0ed1625	-7.408953
92	0xc0f7d8ca	-7.7452135
93	0xc0e65bca	-7.1987047
94	0xc0d52678	-6.660946
95	0xc0ccfd44	-6.405916
96	0xc08a72c9	-4.326512
97	0xc0f23f67	-7.5702395
98	0xc0b9ff46	-5.8124113
99	0xc0884846	-4.2588224

variational_strategy._variational_distribution.chol_variational_covar f4 [100, 100]
0	0x3f46bed6	0.7763494
1	0x00000000	0.0
2	0x00000000	0.0
3	0x00000000	0.0
4	0x00000000	0.0
5	0x00000000	0.0
6	0x00000000	0.0
7	0x00000000	0.0
8	0x00000000	0.0
9	0x00000000	0.0
10	0x00000000	0.0
11	0x00000000	0.0
12	0x00000000	0.0
13	0x00000000	0.0
14	0x00000000	0.0
15	0x00000000	0.0
16	0x00000000	0.0
17	0x00000000	0.0
18	0x00000000	0.0
19	0x00000000	0.0
20	0x00000000	0.0
21	0x00000000	0.0
22	0x00000000	0.0
23	0x00000000	0.0
24	0x00000000	0.0
25	0x00000000	0.0
26	0x00000000	0.0
27	0x00000000	0.0
28	0x00000000	0.0
29	0x00000000	0.0
30	0x00000000	0.0
31	0x00000000	0.0
32	0x00000000	0.0
33	0x00000000	0.0
34	0x00000000	0.0
35	0x00000000	0.0
36	0x00000000	0.0
37	0x00000000	0.0
38	0x00000000	0.0
39	0x00000000	0.0
40	0x00000000	0.0
41	0x00000000	0.0
42	0x00000000	0.0
43	0x00000000	0.0
44	0x00000000	0.0
45	0x00000000	0.0
46	0x00000000	0.0
47	0x00000000	0.0
48	0x00000000	0.0
49	0x00000000	0.0
50	0x00000000	0.0
51	0x00000000	0.0
52	0x00000000	0.0
53	0x00000000	0.0
54	0x00000000	0.0
55	0x00000000	0.0
56	0x00000000	0.0
57	0x00000000	0.0
58	0x00000000	0.0
59	0x00000000	0.0
60	0x00000000	0.0
61	0x00000000	0.0
62	0x00000000	0.0
63	0x00000000	0.0
64	0x00000000	0.0
65	0x00000000	0.0
66	0x00000000	0.0
67	0x00000000	0.0
68	0x00000000	0.0
69	0x00000000	0.0
70	0x00000000	0.0
71	0x00000000	0.0
72	0x00000000	0.0
73	0x00000000	0.0
74	0x00000000	0.0
75	0x00000000	0.0
76	0x00000000	0.0
77	0x00000000	0.0
78	0x00000000	0.0
79	0x00000000	0.0
80	0x00000000	0.0
81	0x00000000	0.0
82	0x00000000	0.0
83	0x00000000	0.0
84	0x00000000	0.0
85	0x00000000	0.0
86	0x00000000	0.0
87	0x00000000	0.0
88	0x00000000	0.0
89	0x00000000	0.0
90	0x00000000	0.0
91	0x00000000	0.0
92	0x00000000	0.0
93	0x00000000	0.0
94	0x00000000	0.0
95	0x00000000	0.0
96	0x00000000	0.0
97	0x00000000	0.0
98	0x00000000	0.0
99	0x00000000	0.0
100	0x3d84c753	0.064833306
101	0x3f56d81c	0.83923507
102	0x00000000	0.0
103	0x00000000	0.0
104	0x00000000	0.0
105	0x00000000	0.0
106	0x00000000	0.0
107	0x00000000	0.0
108	0x00000000	0.0
109	0x00000000	0.0
110	0x00000000	0.0
111	0x00000000	0.0
112	0x00000000	0.0
113	0x00000000	0.0
114	0x00000000	0.0
115	0x00000000	0.0
116	0x00000000	0.0
117	0x00000000	0.0
118	0x00000000	0.0
119	0x00000000	0.0
120	0x00000000	0.0
121	0x00000000	0.0
122	0x00000000	0.0
123	0x00000000	0.0
124	0x00000000	0.0
125	0x00000000	0.0
126	0x00000000	0.0
127	0x00000000	0.0
128	0x00000000	0.0
129	0x00000000	0.0
130	0x00000000	0.0
131	0x00000000	0.0
132	0x00000000	0.0
133	0x00000000	0.0
134	0x00000000	0.0
135	0x00000000	0.0
136	0x00000000	0.0
137	0x00000000	0.0
138	0x00000000	0.0
139	0x00000000	0.0
140	0x00000000	0.0
141	0x00000000	0.0
142	0x00000000	0.0
143	0x00000000	0.0
144	0x00000000	0.0
145	0x00000000	0.0
146	0x00000000	0.0
147	0x00000000	0.0
148	0x00000000	0.0
149	0x00000000	0.0
150	0x00000000	0.0
151	0x00000000	0.0
152	0x00000000	0.0
153	0x00000000	0.0
154	0x00000000	0.0
155	0x00000000	0.0
156	0x00000000	0.0
157	0x00000000	0.0
158	0x00000000	0.0
159	0x00000000	0.0
160	0x00000000	0.0
161	0x00000000	0.0
162	0x00000000	0.0
163	0x00000000	0.0
164	0x00000000	0.0
165	0x00000000	0.0
166	0x00000000	0.0
167	0x00000000	0.0
168	0x00000000	0.0
169	0x00000000	0.0
170	0x00000000	0.0
171	0x00000000	0.0
172	0x00000000	0.0
173	0x00000000	0.0
174	0x00000000	0.0
175	0x00000000	0.0
176	0x00000000	0.0
177	0x00000000	0.0
178	0x00000000	0.0
179	0x00000000	0.0
180	0x00000000	0.0
181	0x00000000	0.0
182	0x00000000	0.0
183	0x00000000	0.0
184	0x00000000	0.0
185	0x00000000	0.0
186	0x00000000	0.0
187	0x00000000	0.0
188	0x00000000	0.0
189	0x00000000	0.0
190	0x00000000	0.0
191	0x00000000	0.0
192	0x00000000	0.0
193	0x00000000	0.0
194	0x00000000	0.0
195	0x00000000	0.0
196	0x00000000	0.0
197	0x00000000	0.0
198	0x00000000	0.0
199	0x00000000	0.0
200	0xbce32102	-0.0277257
201	0xbb3dc344	-0.0028955499
202	0x3f1b2a4f	0.6061143
203	0x00000000	0.0
204	0x00000000	0.0
205	0x00000000	0.0
206	0x00000000	0.0
207	0x00000000	0.0
208	0x00000000	0.0
209	0x00000000	0.0
210	0x00000000	0.0
211	0x00000000	0.0
212	0x00000000	0.0
213	0x00000000	0.0
214	0x00000000	0.0
215	0x00000000	0.0
216	0x00000000	0.0
217	0x00000000	0.0
218	0x00000000	0.0
219	0x00000000	0.0
220	0x00000000	0.0
221	0x00000000	0.0
222	0x00000000	0.0
223	0x00000000	0.0
224	0x00000000	0.0
225	0x00000000	0.0
226	0x00000000	0.0
227	0x00000000	0.0
228	0x00000000	0.0
229	0x00000000	0.0
230	0x00000000	0.0
231	0x00000000	0.0
232	0x00000000	0.0
233	0x00000000	0.0
234	0x00000000	0.0
235	0x00000000	0.0
236	0x00000000	0.0
237	0x00000000	0.0
238	0x00000000	0.0
239	0x00000000	0.0
240	0x00000000	0.0
241	0x00000000	0.0
242	0x00000000	0.0
243	0x00000000	0.0
244	0x00000000	0.0
245	0x00000000	0.0
246	0x00000000	0.0
247	0x00000000	0.0
248	0x00000000	0.0
249	0x00000000	0.0
250	0x00000000	0.0
251	0x00000000	0.0
252	0x00000000	0.0
253	0x00000000	0.0
254	0x00000000	0.0
255	0x00000000	0.0

cov.base_kernel.raw_lengthscale f4 [1, 2]
0	0x415fe85d	13.994229
1	0x4169d703	14.614993
