slam/rbpf_slam/data/old_results/workingRealTime/svgp_particle0.pth (torch, 367369 bytes, 4 tensors)

variational_strategy.inducing_points f4 [300, 2]
0	0x43473b8d	199.23262
1	0xc2c0f0d8	-96.4704
2	0x43c36043	390.75204
3	0xc2dc7878	-110.23529
4	0x437b1277	251.07213
5	0xc343f025	-195.93806
6	0x4392fb76	293.96454
7	0xc2ed5813	-118.67202
8	0x43dad32e	437.64984
9	0xc2f9134d	-124.5377
10	0x43a1acad	323.34903
11	0xc32b4cda	-171.3002
12	0x43916897	290.8171
13	0xc2a99414	-84.789215
14	0x436bd384	235.82623
15	0xc3290aa8	-169.04163
16	0x43a675ba	332.91974
17	0xc2a8dacf	-84.42736
18	0x43b0038c	352.0277
19	0xc29b7918	-77.73651
20	0x43a74ce1	334.60062
21	0xc3765711	-246.3401
22	0x437b8d59	251.55214
23	0xc2791453	-62.269848
24	0x438df5da	283.92072
25	0xc30247da	-130.28067
26	0x43d82c13	432.34433
27	0xc34bf8d1	-203.97194
28	0x43df0877	446.06613
29	0xc365c60b	-229.7736
30	0x43969abd	301.2089
31	0xc2b02c1f	-88.086174
32	0x43e4ef8e	457.87152
33	0xc3921624	-292.17297
34	0x438f0dae	286.10687
35	0xc262391e	-56.55578
36	0x43ae911e	349.13373
37	0xc346e9a1	-198.91261
38	0x43ad70ba	346.88068
39	0xc2e4c9db	-114.39425
40	0x437acd63	250.80229
41	0xc2f9317a	-124.596634
42	0x43a260ae	324.7553
43	0xc282b0dc	-65.34543
44	0x43e0f300	449.89844
45	0xc33af03b	-186.9384
46	0x43bbe0a9	375.75516
47	0xc2df976e	-111.79576
48	0x43ad00fa	346.00763
49	0xc3170bb5	-151.04573
50	0x432c88d4	172.53448
51	0xc3139850	-147.59497
52	0x43993820	306.43848
53	0xc2c32ad8	-97.58368
54	0x43d11b3c	418.21277
55	0xc2f083e0	-120.25757
56	0x435c7978	220.47449
57	0xc2d89d62	-108.30739
58	0x43ebccf1	471.6011
59	0xc2996d56	-76.71355
60	0x43a252a0	324.6455
61	0xc2f43ca3	-122.11843
62	0x438c0a89	280.0823
63	0xc35606ac	-214.02606
64	0x43c2f5b1	389.91946
65	0xc32c4d31	-172.30153
66	0x4390b401	289.40628
67	0xc28f7788	-71.73346
68	0x438cfc00	281.96875
69	0xc2e5692a	-114.7054
70	0x43ad0502	346.03912
71	0xc27a04a3	-62.504528
72	0x43545881	212.34572
73	0xc2ed5db2	-118.683
74	0x437653e4	246.3277
75	0xc31f9502	-159.58206
76	0x4382aff1	261.37454
77	0xc2f75811	-123.672005
78	0x43dc9d33	441.22812
79	0xc313f720	-147.96533
80	0x43c3035b	390.0262
81	0xc36377b0	-227.46753
82	0x43866754	268.80725
83	0xc2801f08	-64.06061
84	0x43b4a166	361.26093
85	0xc30a6f50	-138.43481
86	0x4386f43a	269.90802
87	0xc35497b9	-212.59267
88	0x43b545b0	362.54443
89	0xc2b90a07	-92.519585
90	0x43b5e7f0	363.812
91	0xc38a3844	-276.43958
92	0x43ae4ec1	348.61526
93	0xc29693d9	-75.288765
94	0x43ac1487	344.16037
95	0xc33454b9	-180.33095
96	0x43a231d2	324.38922
97	0xc2f6ae6e	-123.34068
98	0x43ba15e1	372.17093
99	0xc2ebe727	-117.95147
100	0x43974270	302.51904
101	0xc36743da	-231.26505
102	0x43b593c6	363.15448
103	0xc32b1449	-171.07924
104	0x43931957	294.19797
105	0xc2a25db0	-81.18298
106	0x43a8c466	337.53436
107	0xc2dc9b01	-110.30274
108	0x43ab5ea9	342.73953
109	0xc344d087	-196.81456
110	0x43d3ef4e	423.86957
111	0xc33fbfde	-191.74948
112	0x43b25bf2	356.71832
113	0xc34ae5f6	-202.89828
114	0x4388e1a5	273.76285
115	0xc317d346	-151.82529
116	0x4356ca9a	214.79141
117	0xc314bb23	-148.731
118	0x43742b91	244.17018
119	0xc27e62ec	-63.596603
120	0x4380d93d	257.69717
121	0xc31868d9	-152.40956
122	0x43a12cde	322.35052
123	0xc2de3476	-111.10246
124	0x43c786af	399.05222
125	0xc35d5118	-221.31677
126	0x43471e0a	199.11734
127	0xc284933e	-66.28758
128	0x43611746	225.09091
129	0xc29cab85	-78.335
130	0x4383f651	263.92435
131	0xc26f0fc9	-59.765415
132	0x4368fa68	232.97815
133	0xc2e7efe7	-115.96856
134	0x439df6a9	315.92703
135	0xc2dc8b7f	-110.27245
136	0x43b5f75a	363.93243
137	0xc37e558c	-254.33417
138	0x43651bab	229.10808
139	0xc2e19f3e	-112.81102
140	0x439620bd	300.25577
141	0xc3550c53	-213.04814
142	0x43a825af	336.2944
143	0xc332ac5f	-178.67332
144	0x43d37b02	422.961
145	0xc336b35e	-182.70065
146	0x439ee6b5	317.8024
147	0xc275bb08	-61.432648
148	0x43b60bb5	364.09146
149	0xc316383e	-150.2197
150	0x43e70b8a	462.09015
151	0xc2c32c6e	-97.58678
152	0x43b32ff1	358.37454
153	0xc2939b38	-73.80316
154	0x4373f73c	243.96576
155	0xc26eac84	-59.668472
156	0x439fe98d	319.82462
157	0xc259ed28	-54.481598
158	0x43ad0c8d	346.09805
159	0xc32747cc	-167.28046
160	0x43d16a1d	418.829
161	0xc2ddfa5c	-110.98898
162	0x4384cbce	265.59222
163	0xc2ee0a0a	-119.01961
164	0x43e86c0f	464.8442
165	0xc2dce8be	-110.454575
166	0x4382382b	260.4388
167	0xc25566e2	-53.35047
168	0x43b15576	354.66766
169	0xc30f9f22	-143.62161
170	0x43cc97cd	409.18594
171	0xc2972865	-75.578896
172	0x43a44e4f	328.6118
173	0xc2da249b	-109.071495
174	0x437d1cb0	253.11206
175	0xc284c437	-66.38323
176	0x43cd951e	411.16498
177	0xc395097d	-298.07413
178	0x43962600	300.29688
179	0xc2d799bc	-107.80026
180	0x43c153ac	386.6537
181	0xc2d4a02e	-106.31285
182	0x43a5852b	331.04037
183	0xc2ef629a	-119.69258
184	0x43a1a0ef	323.2573
185	0xc318fea5	-152.9947
186	0x43b21e16	356.23505
187	0xc2823658	-65.10614
188	0x439ea6e8	317.30396
189	0xc2d8c5d6	-108.3864
190	0x4372b06e	242.68918
191	0xc2cb6b20	-101.70923
192	0x43e42000	456.25
193	0xc22a4856	-42.57064
194	0x439fed82	319.85553
195	0xc29e530f	-79.162224
196	0x43b1a13d	355.25967
197	0xc329d2b1	-169.82301
198	0x43aabfa8	341.4973
199	0xc31fa6e9	-159.652
200	0x43b64ab8	364.58374
201	0xc33c52cb	-188.32341
202	0x4394d7e3	297.6866
203	0xc2f9cccb	-124.89999
204	0x4363c125	227.75447
205	0xc292032c	-73.006195
206	0x43a1017f	322.0117
207	0xc33fd656	-191.83725
208	0x43b6abf9	365.34354
209	0xc28fc70c	-71.88876
210	0x43a63f0a	332.4925
211	0xc316315f	-150.19286
212	0x43a722bd	334.2714
213	0xc2bba207	-93.81646
214	0x43aaec6f	341.84714
215	0xc24bdc58	-50.96518
216	0x43b653c5	364.65445
217	0xc2db52c8	-109.66168
218	0x439b1d0f	310.22702
219	0xc2752061	-61.28162
220	0x438f8edb	287.11606
221	0xc2ee392c	-119.111664
222	0x439ad3a8	309.65356
223	0xc2d5c415	-106.88297
224	0x43a921e0	338.26465
225	0xc2d1245c	-104.571014
226	0x439ff3f3	319.90585
227	0xc357c387	-215.76378
228	0x43cf9fdc	415.2489
229	0xc3483ac6	-200.22958
230	0x43c177b6	386.93524
231	0xc31d2ebc	-157.18256
232	0x4350728a	208.44742
233	0xc29e768b	-79.23153
234	0x43aa79c4	340.9513
235	0xc2c4d80c	-98.42197
236	0x43a753f9	334.65604
237	0xc2ca1c6b	-101.055504
238	0x43b2928d	357.14493
239	0xc2fd414f	-126.627556
240	0x4396649d	300.78604
241	0xc34bd2ad	-203.82295
242	0x437efe07	254.9923
243	0xc33d1f08	-189.12122
244	0x4388ea83	273.83212
245	0xc3098ff1	-137.56227
246	0x43a386f4	327.05432
247	0xc320ad7f	-160.67772
248	0x43bf9763	383.1827
249	0xc2c0fef4	-96.497955
250	0x43c7daa7	399.70822
251	0xc36bcb71	-235.7947
252	0x439fdba5	319.71597
253	0xc336b83a	-182.71964
254	0x435ddbec	221.85907
255	0xc33c3e97	-188.24449

variational_strategy._variational_distribution.variational_mean f4 [300]
0	0xc125861f	-10.345244
1	0xc13a2089	-11.632943
2	0xc14443af	-12.266524
3	0xc11d7a10	-9.8423
4	0xc116aa6f	-9.41661
5	0xc12198ce	-10.099806
6	0xc0d06ac7	-6.5130343
7	0xc090b1a5	-4.521685
8	0xc0af0b1c	-5.470106
9	0xc0b9acf6	-5.8023634
10	0xc136a699	-11.415673
11	0xc0b25229	-5.5725293
12	0xc044b439	-3.0735
13	0xc11e924c	-9.910717
14	0xc0d30ed5	-6.5955606
15	0xbfc425fa	-1.532409
16	0xc0cc809b	-6.390699
17	0xc06cbd00	-3.6990356
18	0xc0a442c3	-5.1331496
19	0xc06e5f5e	-3.7245708
20	0xc0295773	-2.6459625
21	0xc02e5f06	-2.7245498
22	0xc0ae3e5a	-5.4451113
23	0xbf7c9290	-0.98661137
24	0xc0362180	-2.8457947
25	0xc0f15126	-7.541156
26	0xc0a0f81b	-5.0302863
27	0xbfd30ab6	-1.6487644
28	0xbecea1d2	-0.40357834
29	0xc0e07d21	-7.0152745
30	0xbf8410ed	-1.0317665
31	0xc0a68422	-5.2036295
32	0xc0adb2a4	-5.4280567
33	0x3d6ca7d9	0.05777726
34	0xbef185bd	-0.47172347
35	0xbf942a0e	-1.1575334
36	0xbe4df1af	-0.20111726
37	0x3ec87361	0.39150527
38	0x3ea99f4a	0.3312934
39	0xbfb56ab6	-1.417319
40	0xc0a8ae2e	-5.271262
41	0x3f6becde	0.92158306
42	0xbf9bbc13	-1.2166771
43	0x3dd396ee	0.10331522
44	0xbe9a8032	-0.3017593
45	0xc0a747f7	-5.227535
46	0x3f871393	1.0552849
47	0xbf75b658	-0.9598136
48	0xc0335a82	-2.8023992
49	0xbe3e1701	-0.18563463
50	0xc034421c	-2.816535
51	0xbf21fa8a	-0.6327292
52	0x3c737a00	0.01486063
53	0xbe484936	-0.19559178
54	0xbf69fb38	-0.91398954
55	0xbffa6e58	-1.9564924
56	0xc0497ed7	-3.1483667
57	0xbf5f58ca	-0.87244856
58	0xbfb98407	-1.4493417
59	0xc002f88d	-2.0464203
60	0xbe176b05	-0.14786918
61	0x3c834e14	0.016028441
62	0xbfd922be	-1.6963727
63	0xc040ef5c	-3.0146093
64	0xbeff424c	-0.49855268
65	0xbe06f2c5	-0.13178547
66	0xbfa4de12	-1.288027
67	0x3d0ea410	0.03482443
68	0xbfee4c57	-1.8617047
69	0xbdc40cdb	-0.095727645
70	0xbed02aa2	-0.40657526
71	0x3e7db8ad	0.2477748
72	0x3e897bae	0.26852173
73	0xbf741fce	-0.9536103
74	0xbead179f	-0.33807084
75	0xc026ce50	-2.6063423
76	0xbf2fae97	-0.6862578
77	0xbe6295d9	-0.22127475
78	0xbefb4fee	-0.4908442
79	0xbde9469c	-0.11390421
80	0xbfb2194e	-1.3913972
81	0xbea24440	-0.31692696
82	0xc0522e2b	-3.2840679
83	0xbd0b9458	-0.03407702
84	0x3e19a3d3	0.150039
85	0xc0b83f07	-5.757694
86	0x3d864a69	0.06557161
87	0xbe58fe4e	-0.2119076
88	0xc0c05aed	-6.0110993
89	0xbb1c825e	-0.0023881416
90	0xbc8f15a2	-0.01746637
91	0x3c3ded19	0.011592173
92	0xbe796e84	-0.24358565
93	0xbf852cb3	-1.0404266
94	0x3d83e73e	0.0644059
95	0xbe039e3e	-0.12853333
96	0xc0ab2acf	-5.3489757
97	0xbe9bf0c5	-0.3045713
98	0xbe25205f	-0.1612563
99	0x3dbe5dc8	0.09295231
100	0xbe3e623a	-0.18592158
101	0xbe7b6f76	-0.24554238
102	0xbead9853	-0.33905277
103	0xbea1b4ef	-0.31583354
104	0xbf38869a	-0.72080386
105	0x3e06f771	0.13180329
106	0x3d11789c	0.035515413
107	0xbf869e8d	-1.0517136
108	0x3dceab92	0.10091318
109	0xbe5e5a60	-0.21714163
110	0xbbaad17e	-0.0052129617
111	0x3d37395a	0.04473243
112	0x3c1f85b1	0.009736464
113	0xbed5865d	-0.41704074
114	0xbf6ed9f3	-0.93301314
115	0xbf865dde	-1.0497396
116	0xbce4c225	-0.027924607
117	0x3dbfccb4	0.09365216
118	0xbc29f478	-0.010373227
119	0x3dbd6245	0.09247259
120	0xbf656a1d	-0.8961504
121	0x3fafbea8	1.3730059
122	0x3eeae338	0.4587648
123	0x3e134624	0.14382225
124	0xbee420f1	-0.44556382
125	0xbfbac42d	-1.4591118
126	0xbe86ce58	-0.26329303
127	0xc09077c6	-4.514621
128	0xbe053abb	-0.13010685
129	0x3dc4897e	0.09596537
130	0x3d6fd122	0.058549054
131	0x3e06477d	0.13113208
132	0xbe85e321	-0.26149848
133	0xbf737dc3	-0.9511377
134	0xbe4d8088	-0.20068562
135	0xbd92f51e	-0.07175659
136	0xbfc00dd6	-1.5004222
137	0xbd8dcc2b	-0.069237076
138	0xbe2b7c7b	-0.16746704
139	0x3bec5a8a	0.0072129415
140	0xbe2bb709	-0.16769041
141	0xbdb319cc	-0.08745155
142	0xbf305541	-0.6888009
143	0xc09411d6	-4.6271772
144	0xbf02810d	-0.50978166
145	0xc03a92fa	-2.9152207
146	0xbf5a4f90	-0.8527765
147	0xbe4381cb	-0.19092481
148	0xc02ce635	-2.7015507
149	0xbe1db1c5	-0.15399845
150	0xbf106c07	-0.56414837
151	0xbbf5a112	-0.0074960077
152	0xbda29218	-0.079380214
153	0x3dd7ba24	0.105335504
154	0xbed1237d	-0.40847388
155	0xbacfa8c0	-0.0015843138
156	0xbe80b353	-0.25136814
157	0xc083abf9	-4.1147428
158	0xbd4abb58	-0.04949507
159	0x3d6d4b88	0.05793336
160	0x3e3878e6	0.18014869
161	0x3e4612f2	0.19343165
162	0xbe60acfa	-0.21940985
163	0x3e08b6d9	0.13351001
164	0x3dca2a74	0.098713785
165	0xbbcfcb7b	-0.0063413954
166	0xbe66b67c	-0.2253055
167	0xbebe8d09	-0.37216976
168	0xbd7f026a	-0.06225816
169	0x3ed2f8f8	0.41205573
170	0xbc4be6e1	-0.012445183
171	0xbecfdc9f	-0.40598008
172	0xbe547386	-0.20747194
173	0xbe8119af	-0.25214908
174	0xbc5b879a	-0.013399029
175	0xc07bef19	-3.9364684
176	0xbd7ef0b3	-0.062241267
177	0x3cd24db0	0.02567181
178	0xbd207e7f	-0.039183136
179	0x3ca6d4e8	0.020365193
180	0xc01431b6	-2.315534
181	0x3e290f65	0.16509779
182	0xbfbc7b85	-1.4725195
183	0xbb507165	-0.003180587
184	0xbf7676a3	-0.96274775
185	0xbe7924a6	-0.24330387
186	0x3c2f4ad7	0.010698996
187	0x3db1ce7e	0.086819634
188	0xbc876667	-0.016528321
189	0x3e868968	0.26276708
190	0xbe0b6b4f	-0.13615154
191	0x3df06d24	0.11739567
192	0xbf4a00c3	-0.7890741
193	0xbd42a42a	-0.04751984
194	0x3c025f42	0.007957282
195	0xbcdd3ca8	-0.027006462
196	0x3a9a4c63	0.0011772033
197	0xbe320226	-0.17383632
198	0xbfe1e648	-1.7648401
199	0xbd066a2a	-0.03281609
200	0xbd385444	-0.045002237
201	0xbe8e34a3	-0.27774534
202	0xbd47dc40	-0.04879403
203	0xbd398703	-0.045294773
204	0x3cddb4b4	0.027063705
205	0xc024ad8b	-2.5730922
206	0xbe1bab9d	-0.15202184
207	0xbecfaf8b	-0.40563616
208	0x3dfbe5b7	0.12299674
209	0xbe001a94	-0.12510139
210	0xbd1e8c0e	-0.038707785
211	0xbc28c999	-0.010301971
212	0x3c327602	0.010892393
213	0x3c972965	0.018452356
214	0x3d55f805	0.052238483
215	0xbdd5645a	-0.10419531
216	0xbc8365cb	-0.01603975
217	0xbf395ae2	-0.724043
218	0x3e5736fc	0.21017069
219	0x3c0644b1	0.008195088
220	0x3caa2031	0.020767303
221	0x3bf4cee3	0.007470952
222	0xbd371efb	-0.04470728
223	0xbe08429f	-0.13306664
224	0x3d54d2b1	0.051958743
225	0xbe83d84d	-0.25750962
226	0xbf1dcaf1	-0.6163779
227	0x3d2a93ae	0.041644745
228	0x3d0e99c2	0.034814604
229	0xbdb63395	-0.08896557
230	0xbe490f40	-0.19634724
231	0x3cddb182	0.027062181
232	0x3dfd2b57	0.12361782
233	0x3b95ac88	0.0045676865
234	0x3cf97b5c	0.03045433
235	0xbcfd4bd0	-0.03091994
236	0xbff6ee3a	-1.9291451
237	0xbc293968	-0.010328628
238	0xbd84a50d	-0.064767934
239	0xbc004f08	-0.0078313425
240	0xbc333c51	-0.0109396735
241	0xbe0dafb8	-0.13836563
242	0x3ef4dc0c	0.47824132
243	0xbb1dc53a	-0.0024073855
244	0xbc128f7c	-0.008945342
245	0xbd224108	-0.0396128
246	0x3d939ae5	0.07207278
247	0x3d85694c	0.065142244
248	0x3d7dd81f	0.061973687
249	0xbd4bd515	-0.049763758
250	0xbbf34ba0	-0.0074247867
251	0xbe9a4ef1	-0.30138353
252	0xbcfdd982	-0.030987505
253	0xbb38a920	-0.0028176978
254	0xbf975383	-1.1822361
255	0x3bc52cc2	0.0060172984

variational_strategy._variational_distribution.chol_variational_covar f4 [300, 300]
0	0x3ee92bdf	0.45541283
1	0x00000000	0.0
2	0x00000000	0.0
3	0x00000000	0.0
4	0x00000000	0.0
5	0x00000000	0.0
6	0x00000000	0.0
7	0x00000000	0.0
8	0x00000000	0.0
9	0x00000000	0.0
10	0x00000000	0.0
11	0x00000000	0.0
12	0x00000000	0.0
13	0x00000000	0.0
14	0x00000000	0.0
15	0x00000000	0.0
16	0x00000000	0.0
17	0x00000000	0.0
18	0x00000000	0.0
19	0x00000000	0.0
20	0x00000000	0.0
21	0x00000000	0.0
22	0x00000000	0.0
23	0x00000000	0.0
24	0x00000000	0.0
25	0x00000000	0.0
26	0x00000000	0.0
27	0x00000000	0.0
28	0x00000000	0.0
29	0x00000000	0.0
30	0x00000000	0.0
31	0x00000000	0.0
32	0x00000000	0.0
33	0x00000000	0.0
34	0x00000000	0.0
35	0x00000000	0.0
36	0x00000000	0.0
37	0x00000000	0.0
38	0x00000000	0.0
39	0x00000000	0.0
40	0x00000000	0.0
41	0x00000000	0.0
42	0x00000000	0.0
43	0x00000000	0.0
44	0x00000000	0.0
45	0x00000000	0.0
46	0x00000000	0.0
47	0x00000000	0.0
48	0x00000000	0.0
49	0x00000000	0.0
50	0x00000000	0.0
51	0x00000000	0.0
52	0x00000000	0.0
53	0x00000000	0.0
54	0x00000000	0.0
55	0x00000000	0.0
56	0x00000000	0.0
57	0x00000000	0.0
58	0x00000000	0.0
59	0x00000000	0.0
60	0x00000000	0.0
61	0x00000000	0.0
62	0x00000000	0.0
63	0x00000000	0.0
64	0x00000000	0.0
65	0x00000000	0.0
66	0x00000000	0.0
67	0x00000000	0.0
68	0x00000000	0.0
69	0x00000000	0.0
70	0x00000000	0.0
71	0x00000000	0.0
72	0x00000000	0.0
73	0x00000000	0.0
74	0x00000000	0.0
75	0x00000000	0.0
76	0x00000000	0.0
77	0x00000000	0.0
78	0x00000000	0.0
79	0x00000000	0.0
80	0x00000000	0.0
81	0x00000000	0.0
82	0x00000000	0.0
83	0x00000000	0.0
84	0x00000000	0.0
85	0x00000000	0.0
86	0x00000000	0.0
87	0x00000000	0.0
88	0x00000000	0.0
89	0x00000000	0.0
90	0x00000000	0.0
91	0x00000000	0.0
92	0x00000000	0.0
93	0x00000000	0.0
94	0x00000000	0.0
95	0x00000000	0.0
96	0x00000000	0.0
97	0x00000000	0.0
98	0x00000000	0.0
99	0x00000000	0.0
100	0x00000000	0.0
101	0x00000000	0.0
102	0x00000000	0.0
103	0x00000000	0.0
104	0x00000000	0.0
105	0x00000000	0.0
106	0x00000000	0.0
107	0x00000000	0.0
108	0x00000000	0.0
109	0x00000000	0.0
110	0x00000000	0.0
111	0x00000000	0.0
112	0x00000000	0.0
113	0x00000000	0.0
114	0x00000000	0.0
115	0x00000000	0.0
116	0x00000000	0.0
117	0x00000000	0.0
118	0x00000000	0.0
119	0x00000000	0.0
120	0x00000000	0.0
121	0x00000000	0.0
122	0x00000000	0.0
123	0x00000000	0.0
124	0x00000000	0.0
125	0x00000000	0.0
126	0x00000000	0.0
127	0x00000000	0.0
128	0x00000000	0.0
129	0x00000000	0.0
130	0x00000000	0.0
131	0x00000000	0.0
132	0x00000000	0.0
133	0x00000000	0.0
134	0x00000000	0.0
135	0x00000000	0.0
136	0x00000000	0.0
137	0x00000000	0.0
138	0x00000000	0.0
139	0x00000000	0.0
140	0x00000000	0.0
141	0x00000000	0.0
142	0x00000000	0.0
143	0x00000000	0.0
144	0x00000000	0.0
145	0x00000000	0.0
146	0x00000000	0.0
147	0x00000000	0.0
148	0x00000000	0.0
149	0x00000000	0.0
150	0x00000000	0.0
151	0x00000000	0.0
152	0x00000000	0.0
153	0x00000000	0.0
154	0x00000000	0.0
155	0x00000000	0.0
156	0x00000000	0.0
157	0x00000000	0.0
158	0x00000000	0.0
159	0x00000000	0.0
160	0x00000000	0.0
161	0x00000000	0.0
162	0x00000000	0.0
163	0x00000000	0.0
164	0x00000000	0.0
165	0x00000000	0.0
166	0x00000000	0.0
167	0x00000000	0.0
168	0x00000000	0.0
169	0x00000000	0.0
170	0x00000000	0.0
171	0x00000000	0.0
172	0x00000000	0.0
173	0x00000000	0.0
174	0x00000000	0.0
175	0x00000000	0.0
176	0x00000000	0.0
177	0x00000000	0.0
178	0x00000000	0.0
179	0x00000000	0.0
180	0x00000000	0.0
181	0x00000000	0.0
182	0x00000000	0.0
183	0x00000000	0.0
184	0x00000000	0.0
185	0x00000000	0.0
186	0x00000000	0.0
187	0x00000000	0.0
188	0x00000000	0.0
189	0x00000000	0.0
190	0x00000000	0.0
191	0x00000000	0.0
192	0x00000000	0.0
193	0x00000000	0.0
194	0x00000000	0.0
195	0x00000000	0.0
196	0x00000000	0.0
197	0x00000000	0.0
198	0x00000000	0.0
199	0x00000000	0.0
200	0x00000000	0.0
201	0x00000000	0.0
202	0x00000000	0.0
203	0x00000000	0.0
204	0x00000000	0.0
205	0x00000000	0.0
206	0x00000000	0.0
207	0x00000000	0.0
208	0x00000000	0.0
209	0x00000000	0.0
210	0x00000000	0.0
211	0x00000000	0.0
212	0x00000000	0.0
213	0x00000000	0.0
214	0x00000000	0.0
215	0x00000000	0.0
216	0x00000000	0.0
217	0x00000000	0.0
218	0x00000000	0.0
219	0x00000000	0.0
220	0x00000000	0.0
221	0x00000000	0.0
222	0x00000000	0.0
223	0x00000000	0.0
224	0x00000000	0.0
225	0x00000000	0.0
226	0x00000000	0.0
227	0x00000000	0.0
228	0x00000000	0.0
229	0x00000000	0.0
230	0x00000000	0.0
231	0x00000000	0.0
232	0x00000000	0.0
233	0x00000000	0.0
234	0x00000000	0.0
235	0x00000000	0.0
236	0x00000000	0.0
237	0x00000000	0.0
238	0x00000000	0.0
239	0x00000000	0.0
240	0x00000000	0.0
241	0x00000000	0.0
242	0x00000000	0.0
243	0x00000000	0.0
244	0x00000000	0.0
245	0x00000000	0.0
246	0x00000000	0.0
247	0x00000000	0.0
248	0x00000000	0.0
249	0x00000000	0.0
250	0x00000000	0.0
251	0x00000000	0.0
252	0x00000000	0.0
253	0x00000000	0.0
254	0x00000000	0.0
255	0x00000000	0.0

cov.base_kernel.raw_lengthscale f4 [1, 2]
0	0x420881ca	34.126747
1	0x420201ae	32.50164
