slam/rbpf_slam/data/results/svgp_particle6.pth (torch, 367369 bytes, 4 tensors)

variational_strategy.inducing_points f4 [300, 2]
00000000: 7e29 9842 3971 80c3 ce70 87c2 cc18 5ec3
00000010: ab12 1443 d5c1 b9c3 58b7 21c2 87c2 bdc3
00000020: 4bb3 d4c1 4329 a8c3 0609 4242 dc7d 95c3
00000030: 8ea9 8c42 7c3f 83c3 a9c7 8642 f695 9bc3
00000040: bede 8341 c82d cec3 113a c341 24f8 52c3
00000050: 2ff5 c7c2 c629 9dc3 a525 1643 ce47 c7c3
00000060: 4482 8742 f7c8 56c3 079c 2241 b000 d7c3
00000070: 247d 4bc2 ce80 60c3 6212 ce42 fb6f c1c3
00000080: 8dfc 92c2 f6a2 1fc3 5a9c 79c2 a925 84c3
00000090: 79d9 cb42 26fb 63c3 24f4 e242 4133 61c3
000000a0: 32c9 a3c2 5785 97c3 9e48 1cc1 9ebf a1c3
000000b0: 238a 8ec1 345a 72c3 07f7 d442 f62d 4bc3
000000c0: c5aa 9741 345a 9bc3 b8a0 c2c2 4f25 62c3
000000d0: 3883 1cc2 7241 adc3 6e95 2e42 46e5 3cc3
000000e0: 8494 21c2 6a84 46c3 367c 4dc2 f1cd aac3
000000f0: 9723 0a43 6ee4 91c3 1b5a 8742 510c 3dc3
00000100: b748 ee41 c200 13c3 9890 2bc2 30fc 66c3
00000110: 87c0 5f42 b342 b9c3 5314 c4c2 0465 95c3
00000120: 68dd 4dc2 51f7 77c3 c370 b642 89dd b1c3
00000130: 028b 1a42 c6b5 2fc3 216e 96c2 e333 77c3
00000140: 5408 0242 3c6d 96c3 a3f7 a8c2 074c 79c3
00000150: 94ef 06c1 4954 70c3 4624 a6c2 59bb ebc3
00000160: 88fe 5bc1 cd00 5ac3 120c d342 da46 97c3
00000170: 9bad 96c2 de04 9ac3 9955 af42 57ed 06c3
00000180: 05b0 de41 ca92 77c3 896b 8442 1073 c2c3
00000190: 89a2 90bf 3c38 75c3 8d66 b442 6d75 87c3
000001a0: e363 a242 f3d6 d4c2 8cef 38c2 a99f c4c3
000001b0: 257d 0942 dd49 85c3 3d09 1543 124d 91c3
000001c0: 4782 2b43 dca4 aac3 d0ce 74c2 412a 86c3
000001d0: 8c3f 81c2 5dd0 98c3 12f9 56c1 bccc 69c3
000001e0: 6fce 0543 310f b0c3 3bc8 0743 3f9b c3c3
000001f0: befc 63c2 6ae4 35c3 6614 b1c2 9a20 80c3
00000200: bf9c 3042 93b0 48c3 bcf2 41c2 5ca0 6ec3
00000210: 8cd6 4ac2 f0a9 92c3 034b c440 c3f8 2cc3
00000220: 343a c441 e6c5 92c3 9f6e bcc1 8736 a2c3
00000230: b563 1943 c1fe acc3 a3c2 db42 9524 94c3
00000240: 0999 46c2 8297 a1c3 f4a0 9841 c671 a0c3
00000250: ca35 0fc2 9c33 6ac3 6b86 87c2 0b56 54c3
00000260: 6662 ed42 34ae 96c3 4e36 0d40 bad3 cbc3
00000270: ca75 2343 d02c b6c3 0005 9542 1fa0 97c3
00000280: 2716 c842 ec6d 89c3 0efa bd42 9419 d3c3
00000290: bf6c 4240 3447 80c3 1041 8bc1 045e 53c3
000002a0: dbdd 0843 b441 8ac3 8a1a 72c2 86e3 89c3
000002b0: 264f 44c1 b795 a6c3 90b9 5142 fdfc 1ec3
000002c0: c43a 5842 29d0 f2c2 14c4 aec2 185c 93c3
000002d0: db36 bbc2 9b7a b7c3 43a7 9342 9871 1ec3
000002e0: e12d a6c2 ad5d 67c3 d453 64c2 6516 7ac3
000002f0: d7d1 bc42 d525 62c3 9ba9 8d42 97fd f6c2
00000300: 7a58 cd42 c2a3 aac3 b89c 66c2 7f5d 46c3
00000310: 0313 35c1 37e2 82c3 53fc a442 ea31 9bc3
00000320: 8a66 85c1 db7b 27c3 5b07 c6c2 96ae 2dc3
00000330: 5d5d 0942 a355 72c3 2054 c641 8674 a5c3
00000340: e716 5dc2 d434 5dc3 56d4 dc40 fa9a 85c3
00000350: 58d3 1fc1 2c30 62c3 0bf4 dc40 0a18 39c3
00000360: 5cfc 18c2 a8b3 d7c3 a947 cac2 8af3 83c3
00000370: 9329 0743 c0a0 84c3 6c91 efc1 427c 9ac3
00000380: b1c9 2b42 b894 8bc3 1715 af42 cc86 5ec3
00000390: 24fe 3ac2 9e16 37c3 b690 ed41 0dc4 8cc3
000003a0: 6d81 3a42 9829 bbc3 1ff5 3c42 e8b7 acc3
000003b0: 5881 7741 c4af 54c3 503e 6f42 f0fe 47c3
000003c0: 2cd8 9a42 d7bc 59c3 1123 90c2 afc1 4bc3
000003d0: 8f32 cb41 6e15 fcc2 efae 5242 7f7f 50c3
000003e0: c67c e3c1 f052 5ac3 bba2 eac1 7407 c3c3
000003f0: d90e 69c0 c584 58c3 d2eb e742 8a83 b6c3
76.08104 -256.88455 -67.72032 -222.09686 148.07292 -371.5143 -40.429047 -379.51974
-26.587545 -336.32236 48.508812 -298.98328 70.33116 -262.49597 67.38996 -311.17157
16.48376 -412.35767 24.403353 -210.9693 -99.978874 -314.32635 150.14705 -398.56097
67.754425 -214.78502 10.163093 -430.00537 -50.872208 -224.50314 103.035904 -386.87485
-73.49326 -159.63657 -62.402687 -264.29422 101.92475 -227.98105 113.47684 -225.20021
-81.89296 -303.04172 -9.767729 -323.497 -17.81745 -242.35236 106.482475 -203.17953
18.958384 -310.7047 -97.3139 -226.14574 -39.128143 -346.5113 43.645927 -188.8956
-40.395035 -198.51724 -51.3713 -341.60892 138.13902 -291.7846 67.67599 -189.04811
29.785505 -147.00296 -42.891205 -230.9851 55.938015 -370.5211 -98.039696 -298.78918
-51.466217 -247.96608 91.22024 -355.73074 38.63575 -175.71005 -75.215096 -247.20268
32.508133 -300.8534 -84.483665 -249.29698 -8.433491 -240.32924 -83.07085 -471.46365
-13.749641 -218.00313 105.523575 -302.55353 -75.33907 -308.03802 87.66718 -134.92711
27.835947 -247.5734 66.21003 -388.89893 -1.1299602 -245.21967 90.200294 -270.9174
81.19509 -106.41982 -46.233932 -393.24734 34.37221 -266.57706 149.03609 -290.6021
171.5089 -341.28796 -61.201965 -268.3301 -64.624115 -305.62784 -13.435808 -233.79974
133.80638 -352.11868 135.78215 -391.21286 -56.99682 -181.89224 -88.53984 -256.2547
44.153072 -200.68974 -48.487045 -238.6264 -50.70952 -293.32764 6.1341567 -172.97173
24.52842 -293.54608 -23.554014 -324.426 153.38948 -345.99026 109.88015 -296.2858
-49.64945 -323.18365 19.07859 -320.88885 -35.80253 -234.2016 -67.762535 -212.3361
118.692184 -301.36096 2.2064395 -407.6541 163.46011 -364.3501 74.509766 -303.25095
100.04327 -274.85876 94.98839 -422.19983 3.0378873 -256.55627 -17.406769 -211.36725
136.86662 -276.5133 -60.525917 -275.77753 -12.269323 -333.16965 52.431213 -158.98824
54.05739 -121.40656 -87.382965 -294.71948 -93.60714 -366.95786 73.82668 -158.44373
-83.08961 -231.36592 -57.081863 -250.08748 94.40984 -226.14778 70.83126 -123.49529
102.672806 -341.27936 -57.653046 -198.36522 -11.317142 -261.7673 82.49282 -310.38995
-16.675068 -167.48381 -99.014366 -173.68198 34.341175 -242.33452 24.791077 -330.91034
-55.272366 -221.20636 6.90092 -267.21075 -9.989098 -226.18817 6.9047904 -185.0939
-38.246445 -431.40356 -101.13996 -263.90265 135.1624 -265.25586 -29.946007 -308.97076
42.946964 -279.16187 87.54119 -222.52655 -46.748184 -183.08835 29.69566 -281.53165
46.626392 -374.32495 47.239376 -345.43677 15.469078 -212.68658 59.810852 -199.99585
77.42221 -217.73766 -72.06849 -203.75658 25.399687 -126.041855 52.670834 -208.49803
-28.435925 -218.32397 -29.329458 -390.05823 -3.6415312 -216.51863 115.96059 -365.02765

variational_strategy._variational_distribution.variational_mean f4 [300]
00000000: 6668 63c1 be72 55c1 0564 46c1 7bcd 6cc1
00000010: e457 64c1 2756 6bc1 8e53 fac0 a7a7 42c1
00000020: eaaf 2fc1 ebf0 61c1 b014 3ac1 bbbe 1ec1
00000030: 34d2 5cc1 24c4 02c1 ca23 42c1 9afa 33c1
00000040: 061c 1ac1 bb3a 4cc1 94aa 62c1 6fd9 4dc1
00000050: 56aa 2ac1 25e4 4cc1 1ce4 4fc1 74df 57c1
00000060: 7e03 65c1 d0f8 44c1 120c 41c1 6e24 3bc1
00000070: ad1b 2cc1 ba13 3fc1 9633 6dc1 f8af 33c1
00000080: cefa 3ac1 5275 17c1 1a53 50c1 ea9d 00c1
00000090: ccde 06c1 beab 3bc1 9d0b 13c1 4371 24c1
000000a0: 7057 15c1 58d4 04c1 18e9 43c1 814a f8c0
000000b0: 8267 19c1 a480 4bc1 4646 1dc1 8bb5 4bc1
000000c0: eafa 4dc1 f887 3dc1 aea6 16c1 ebd9 41c1
000000d0: 12b7 14c1 d7e4 34c1 572f 41c1 def8 10c1
000000e0: 7143 16c1 a3d0 03c1 a510 28c1 8829 93c0
000000f0: c61f 48c1 a9ac 10c1 c974 29c1 16b9 f1c0
00000100: d114 1bc1 c6f0 eebf 6353 1ec1 9e0e 3ec1
00000110: afe5 e2c0 09a4 a3c0 dc18 08c1 492e b4c0
00000120: 77eb 0fc1 8a1c 45c1 5a79 85c0 c205 11c1
00000130: c100 08c1 d6cd 13c1 e021 0cc1 24c4 dfc0
00000140: 1ba4 0dc1 b551 19c1 a90f 1dc1 abc1 d4c0
00000150: 6adf 3fc1 d425 03c1 6f96 01c1 4afa 2cc1
00000160: f465 22c1 8ee2 c7c0 3fdb 28c1 6ed3 1ac1
00000170: a98b d0c0 3067 adc0 c5d7 25c1 bab1 8ac0
00000180: 3a71 28c1 1353 b3c0 ed69 28c1 0c76 02c1
00000190: f6d4 2ec1 dbc6 f2c0 7b6f 26c1 8a54 3ac1
000001a0: 9905 c6c0 cdc0 f9c0 5f52 b8c0 023c 01c1
000001b0: 211c 3cc1 e2a8 f4c0 400f 20c1 fbaf 24c1
000001c0: 2fe7 09c1 5406 bfc0 1e87 a9c0 af05 17c0
000001d0: 5473 05c1 e189 4cc1 7dd4 c8c0 7ca3 adc0
000001e0: c64c bac0 0658 b4c0 5a9c 09c1 5740 cfc0
000001f0: dfc7 cec0 12f1 dec0 30dc b8c0 1c5c 20c1
00000200: 5a60 b0c0 274b eec0 534e bfc0 036b 19c1
00000210: f84f 0dc1 b7b0 17c1 d4fd 80c0 2f89 09c1
00000220: 9149 15c1 431b 96c0 9540 09c1 bd27 bcc0
00000230: 7702 c8c0 a961 65c0 bba7 a2c0 4728 11c1
00000240: 9cf7 17c1 2209 2ec0 1e88 f5c0 76ee 01c1
00000250: 905f 9ac0 b147 c9c0 6c8e 97c0 572d f9c0
00000260: 2ab4 8fc0 5f68 14c1 e3d6 aec0 3830 16c1
00000270: 320b 00c1 0cc7 f9c0 c562 dec0 d889 94c0
00000280: dfb2 e2c0 2e84 30c1 4867 03c1 55ba d3c0
00000290: d428 7dc0 e000 22c1 3eb1 c0c0 ab7b 0dc1
000002a0: aa20 14c1 2aba 8ec0 f556 f5c0 d282 aac0
000002b0: 7fde 67c0 a411 03c1 9ab7 12c1 245f cac0
000002c0: 0a4e ddc0 d273 97c0 52a6 15c1 885a fdc0
000002d0: cf94 8ec0 4c89 c0c0 7cd7 24c1 3d26 c4c0
000002e0: 05c6 91c0 9a24 cac0 ed85 b7c0 67ce efc0
000002f0: 60a4 00c1 37df 08c1 4397 d3c0 db0b 27c0
00000300: a04c eac0 baba b0c0 3a4b 9c3e f237 dcc0
00000310: d44c d6c0 3299 15c1 5676 03c1 5ea8 6fc0
00000320: d131 0ac1 b05c cdc0 18b6 ccc0 b62d 02c1
00000330: 457a 72c0 b02c b2c0 537a ddc0 7146 01c1
00000340: 3866 70c0 5e22 efc0 553d 9cc0 074b d2c0
00000350: efc5 06c1 0d76 02c1 fb24 4bc0 8792 87c0
00000360: ac74 56c0 6401 f4c0 879f bdc0 6210 41bf
00000370: 7cb8 cbc0 cac9 b4c0 b86f e0c0 ccbe f8c0
00000380: 5445 b7bf 23f2 c1c0 f21e b6c0 8ac9 f8c0
00000390: 2bfb 37c0 0a9a 72c0 810b dbc0 426f e3c0
000003a0: a0ae 11c1 8c7a bdc0 58c9 7cc0 acf9 b9c0
000003b0: 4943 8cc0 40d4 e7c0 0e11 c6c0 423c bfc0
000003c0: e7d5 dac0 4fb9 6ec0 3bec bdc0 8bd1 99c0
000003d0: 40f9 dac0 925f 9fbf c8a6 e8c0 b0fb c1c0
000003e0: 2172 07c1 349c f3c0 3ada 64c0 74fe a63d
000003f0: e56f 11c1 fab2 bac0 8d03 e1c0 321c eac0
-14.212988 -13.340513 -12.399419 -14.800166 -14.271458 -14.708533 -7.8226995 -12.165931
-10.980448 -14.121318 -11.630051 -9.921565 -13.801319 -8.172886 -12.133738 -11.248682
-9.631842 -12.7643385 -14.166645 -12.865584 -10.666586 -12.805699 -12.993191 -13.492054
-14.313353 -12.310745 -12.065447 -11.696394 -10.756757 -11.942316 -14.825094 -11.230461
-11.686232 -9.466143 -13.020288 -8.038553 -8.429394 -11.729429 -9.190335 -10.277652
-9.333847 -8.301842 -12.244408 -7.7590947 -9.58777 -12.718906 -9.829657 -12.731822
-12.873758 -11.8456955 -9.415693 -12.115703 -9.294695 -11.305869 -12.074058 -9.060759
-9.391465 -8.238437 -10.504064 -4.5988197 -12.507757 -9.042153 -10.591012 -7.5538435
-9.692582 -1.8667228 -9.895358 -11.878569 -7.0905375 -5.113774 -8.506069 -5.63065
-8.994987 -12.319468 -4.1710634 -9.063906 -8.500184 -9.237753 -8.75827 -6.992693
-8.852565 -9.582448 -9.816323 -6.648641 -11.992044 -8.196735 -8.099227 -10.811106
-10.149891 -6.2464056 -10.553527 -9.676619 -6.5170484 -5.418846 -10.365178 -4.334195
-10.527643 -5.603891 -10.525861 -8.15382 -10.926992 -7.5867743 -10.402217 -11.645639
-6.1881833 -7.8047853 -5.760055 -8.07715 -11.756867 -7.6456156 -10.003723 -10.292964
-8.618941 -5.9695225 -5.297744 -2.359722 -8.340656 -12.783662 -6.2759385 -5.4262066
-5.8218718 -5.635745 -8.600672 -6.476604 -6.4618983 -6.9669275 -5.7768784 -10.022488
-5.5117617 -7.446674 -5.978311 -9.588626 -8.832024 -9.480643 -4.030985 -8.595992
-9.330461 -4.690828 -8.578267 -5.879851 -6.250301 -3.5840857 -5.082975 -9.072333
-9.4979515 -2.7193074 -7.672866 -8.120718 -4.8241653 -6.2900014 -4.7361355 -7.7867846
-4.4907427 -9.275481 -5.4637313 -9.386772 -8.002733 -7.8055477 -6.949557 -4.6418266
-7.084335 -11.03227 -8.212715 -6.6164956 -3.955617 -10.125214 -6.021636 -8.842692
-9.257975 -4.460225 -7.666865 -5.3284693 -3.622955 -8.191807 -9.169825 -6.324114
-6.9157763 -4.732888 -9.353106 -7.917301 -4.455665 -6.01676 -10.3026085 -6.1296678
-4.5554223 -6.316968 -5.7350984 -7.4939456 -8.040131 -8.554496 -6.6122146 -2.6100986
-7.3218536 -5.522794 0.30526143 -6.8818293 -6.6968784 -9.349901 -8.216391 -3.7446513
-8.637162 -6.4175644 -6.3972282 -8.13616 -3.7887127 -5.567955 -6.921182 -8.079698
-3.756239 -7.472945 -4.882487 -6.5716586 -8.423324 -8.153821 -3.174132 -4.2366366
-3.350871 -7.6251698 -5.9257236 -0.75415623 -6.36627 -5.6496325 -7.0136375 -7.7732906
-1.4318032 -6.0608077 -5.6912775 -7.774602 -2.874705 -3.7906518 -6.8451543 -7.1073313
-9.105133 -5.9212093 -3.949789 -5.8117275 -4.3832135 -7.2446594 -6.189582 -5.9761057
-6.838611 -3.7300603 -5.9350867 -4.806829 -6.842926 -1.2451041 -7.270359 -6.0619736
-8.4653635 -7.612818 -3.5758195 0.08154002 -9.089818 -5.8343477 -7.0316834 -7.315942

variational_strategy._variational_distribution.chol_variational_covar f4 [300, 300]
00000000: 5532 093f 0000 0000 0000 0000 0000 0000
00000010: 0000 0000 0000 0000 0000 0000 0000 0000
00000020: 0000 0000 0000 0000 0000 0000 0000 0000
00000030: 0000 0000 0000 0000 0000 0000 0000 0000
00000040: 0000 0000 0000 0000 0000 0000 0000 0000
00000050: 0000 0000 0000 0000 0000 0000 0000 0000
00000060: 0000 0000 0000 0000 0000 0000 0000 0000
00000070: 0000 0000 0000 0000 0000 0000 0000 0000
00000080: 0000 0000 0000 0000 0000 0000 0000 0000
00000090: 0000 0000 0000 0000 0000 0000 0000 0000
000000a0: 0000 0000 0000 0000 0000 0000 0000 0000
000000b0: 0000 0000 0000 0000 0000 0000 0000 0000
000000c0: 0000 0000 0000 0000 0000 0000 0000 0000
000000d0: 0000 0000 0000 0000 0000 0000 0000 0000
000000e0: 0000 0000 0000 0000 0000 0000 0000 0000
000000f0: 0000 0000 0000 0000 0000 0000 0000 0000
00000100: 0000 0000 0000 0000 0000 0000 0000 0000
00000110: 0000 0000 0000 0000 0000 0000 0000 0000
00000120: 0000 0000 0000 0000 0000 0000 0000 0000
00000130: 0000 0000 0000 0000 0000 0000 0000 0000
00000140: 0000 0000 0000 0000 0000 0000 0000 0000
00000150: 0000 0000 0000 0000 0000 0000 0000 0000
00000160: 0000 0000 0000 0000 0000 0000 0000 0000
00000170: 0000 0000 0000 0000 0000 0000 0000 0000
00000180: 0000 0000 0000 0000 0000 0000 0000 0000
00000190: 0000 0000 0000 0000 0000 0000 0000 0000
000001a0: 0000 0000 0000 0000 0000 0000 0000 0000
000001b0: 0000 0000 0000 0000 0000 0000 0000 0000
000001c0: 0000 0000 0000 0000 0000 0000 0000 0000
000001d0: 0000 0000 0000 0000 0000 0000 0000 0000
000001e0: 0000 0000 0000 0000 0000 0000 0000 0000
000001f0: 0000 0000 0000 0000 0000 0000 0000 0000
00000200: 0000 0000 0000 0000 0000 0000 0000 0000
00000210: 0000 0000 0000 0000 0000 0000 0000 0000
00000220: 0000 0000 0000 0000 0000 0000 0000 0000
00000230: 0000 0000 0000 0000 0000 0000 0000 0000
00000240: 0000 0000 0000 0000 0000 0000 0000 0000
00000250: 0000 0000 0000 0000 0000 0000 0000 0000
00000260: 0000 0000 0000 0000 0000 0000 0000 0000
00000270: 0000 0000 0000 0000 0000 0000 0000 0000
00000280: 0000 0000 0000 0000 0000 0000 0000 0000
00000290: 0000 0000 0000 0000 0000 0000 0000 0000
000002a0: 0000 0000 0000 0000 0000 0000 0000 0000
000002b0: 0000 0000 0000 0000 0000 0000 0000 0000
000002c0: 0000 0000 0000 0000 0000 0000 0000 0000
000002d0: 0000 0000 0000 0000 0000 0000 0000 0000
000002e0: 0000 0000 0000 0000 0000 0000 0000 0000
000002f0: 0000 0000 0000 0000 0000 0000 0000 0000
00000300: 0000 0000 0000 0000 0000 0000 0000 0000
00000310: 0000 0000 0000 0000 0000 0000 0000 0000
00000320: 0000 0000 0000 0000 0000 0000 0000 0000
00000330: 0000 0000 0000 0000 0000 0000 0000 0000
00000340: 0000 0000 0000 0000 0000 0000 0000 0000
00000350: 0000 0000 0000 0000 0000 0000 0000 0000
00000360: 0000 0000 0000 0000 0000 0000 0000 0000
00000370: 0000 0000 0000 0000 0000 0000 0000 0000
00000380: 0000 0000 0000 0000 0000 0000 0000 0000
00000390: 0000 0000 0000 0000 0000 0000 0000 0000
000003a0: 0000 0000 0000 0000 0000 0000 0000 0000
000003b0: 0000 0000 0000 0000 0000 0000 0000 0000
000003c0: 0000 0000 0000 0000 0000 0000 0000 0000
000003d0: 0000 0000 0000 0000 0000 0000 0000 0000
000003e0: 0000 0000 0000 0000 0000 0000 0000 0000
000003f0: 0000 0000 0000 0000 0000 0000 0000 0000
0.53592426 0.0 0.0 0.0 0.0 0.0 0.0 0.0
0.0 0.0 0.0 0.0 0.0 0.0 0.0 0.0
0.0 0.0 0.0 0.0 0.0 0.0 0.0 0.0
0.0 0.0 0.0 0.0 0.0 0.0 0.0 0.0
0.0 0.0 0.0 0.0 0.0 0.0 0.0 0.0
0.0 0.0 0.0 0.0 0.0 0.0 0.0 0.0
0.0 0.0 0.0 0.0 0.0 0.0 0.0 0.0
0.0 0.0 0.0 0.0 0.0 0.0 0.0 0.0
0.0 0.0 0.0 0.0 0.0 0.0 0.0 0.0
0.0 0.0 0.0 0.0 0.0 0.0 0.0 0.0
0.0 0.0 0.0 0.0 0.0 0.0 0.0 0.0
0.0 0.0 0.0 0.0 0.0 0.0 0.0 0.0
0.0 0.0 0.0 0.0 0.0 0.0 0.0 0.0
0.0 0.0 0.0 0.0 0.0 0.0 0.0 0.0
0.0 0.0 0.0 0.0 0.0 0.0 0.0 0.0
0.0 0.0 0.0 0.0 0.0 0.0 0.0 0.0
0.0 0.0 0.0 0.0 0.0 0.0 0.0 0.0
0.0 0.0 0.0 0.0 0.0 0.0 0.0 0.0
0.0 0.0 0.0 0.0 0.0 0.0 0.0 0.0
0.0 0.0 0.0 0.0 0.0 0.0 0.0 0.0
0.0 0.0 0.0 0.0 0.0 0.0 0.0 0.0
0.0 0.0 0.0 0.0 0.0 0.0 0.0 0.0
0.0 0.0 0.0 0.0 0.0 0.0 0.0 0.0
0.0 0.0 0.0 0.0 0.0 0.0 0.0 0.0
0.0 0.0 0.0 0.0 0.0 0.0 0.0 0.0
0.0 0.0 0.0 0.0 0.0 0.0 0.0 0.0
0.0 0.0 0.0 0.0 0.0 0.0 0.0 0.0
0.0 0.0 0.0 0.0 0.0 0.0 0.0 0.0
0.0 0.0 0.0 0.0 0.0 0.0 0.0 0.0
0.0 0.0 0.0 0.0 0.0 0.0 0.0 0.0
0.0 0.0 0.0 0.0 0.0 0.0 0.0 0.0
0.0 0.0 0.0 0.0 0.0 0.0 0.0 0.0

cov.base_kernel.raw_lengthscale f4 [1, 2]
00000000: dd3b 8d41 923c 8941
17.65423 17.154575
