slam/rbpf_slam/data/results/svgp_particle5.pth (torch, 367369 bytes, 4 tensors)

variational_strategy.inducing_points f4 [300, 2]
-87.11715 -267.8174 89.972305 -215.6693 11.603482 -234.95833 75.84321 -142.72394
-43.319912 -212.55359 134.54265 -243.86446 12.422259 -281.0261 91.20968 -266.116
-45.717 -259.32465 82.291145 -230.83998 -75.27665 -190.04402 -96.2206 -353.49908
92.49222 -279.84842 63.72056 -158.53436 -77.39002 -226.88802 -28.28043 -274.4281
57.906483 -330.89496 79.64059 -206.78484 37.459476 -424.06638 -27.171854 -262.7689
93.40234 -206.16585 52.45627 -237.83992 83.06663 -289.5086 93.475555 -259.4005
87.97037 -380.78894 173.81447 -331.66385 138.61978 -281.70502 -64.49066 -184.24428
-58.87916 -432.74515 -74.582634 -266.01566 21.024073 -331.8399 101.26567 -274.08157
-105.02812 -283.02097 70.30132 -288.44403 -40.285294 -221.70598 -9.440699 -459.33527
-54.99501 -452.72263 91.92488 -231.99313 79.76201 -391.40973 -63.941223 -282.7046
-45.815483 -341.6821 177.939 -371.90375 38.68954 -276.20758 43.628494 -311.50156
83.5894 -421.03143 -66.14067 -383.37726 -57.00747 -182.35916 -53.440186 -166.1984
-62.470383 -312.4783 -29.523252 -223.46796 102.2254 -237.42136 -103.75008 -304.18277
161.38739 -333.34525 78.269646 -123.08735 -55.382954 -283.36023 8.123554 -288.2909
-29.033583 -205.6883 43.58206 -130.14221 -92.93965 -334.35654 -27.360554 -175.74887
109.45241 -334.80695 110.88589 -232.10936 110.13811 -284.99017 131.24913 -372.54337
4.708243 -256.0195 69.18706 -202.47993 28.459745 -271.06918 -15.413287 -201.11618
50.216446 -218.0512 -98.28444 -321.03833 115.0227 -225.45291 -88.02557 -454.97943
17.940804 -343.75314 96.84703 -195.9586 59.52879 -128.48459 116.48651 -244.63046
45.671238 -251.38359 -37.985825 -251.88936 134.53067 -321.9224 -74.19582 -266.3827
91.41382 -246.56902 162.21545 -347.4774 82.31897 -298.87888 -88.968124 -338.0246
13.579063 -190.01697 -36.030006 -345.22043 21.059752 -290.46307 38.04027 -297.86414
89.01165 -272.43814 -76.86151 -306.8768 -80.07708 -318.19836 17.09394 -137.73814
-24.938183 -239.08229 -17.677645 -256.8415 30.409565 -197.58182 -66.48215 -281.10733
-62.341732 -395.62033 -89.14042 -259.67084 76.88843 -152.2005 31.113157 -350.9325
127.58319 -206.26804 8.282212 -209.77457 115.52144 -215.32727 -81.52791 -274.94656
-89.878624 -262.59766 61.695362 -216.32207 32.24802 -125.480865 19.17005 -172.41957
-67.29825 -403.5149 12.66091 -160.2712 -70.02867 -321.85217 123.63456 -355.21478
93.34761 -336.89523 41.741158 -154.55038 74.33636 -200.15073 -53.098938 -190.89914
-60.659126 -232.56357 -30.84647 -359.90216 47.128452 -284.07834 60.91492 -201.56569
48.631706 -170.35272 -13.902158 -206.3148 -23.418734 -165.12782 140.84377 -237.91002
114.434845 -340.87476 -55.408237 -241.79004 108.87085 -363.2447 -74.20079 -350.75235
00000000: fb3b aec2 a1e8 85c3 d2f1 b342 57ab 57c3
00000010: dda7 3941 55f5 6ac3 b9af 9742 54b9 0ec3
00000020: 9747 2dc2 b88d 54c3 eb8a 0643 4ddd 73c3
00000030: 93c1 4641 5783 8cc3 5b6b b642 d90e 85c3
00000040: 35de 36c2 8ea9 81c3 1195 a442 09d7 66c3
00000050: a58d 96c2 450b 3ec3 f270 c0c2 e2bf b0c3
00000060: 04fc b842 99ec 8bc3 dae1 7e42 cc88 1ec3
00000070: b1c7 9ac2 55e3 62c3 523e e2c1 cc36 89c3
00000080: 3da0 6742 8e72 a5c3 fb47 9f42 ebc8 4ec3
00000090: 81d6 1542 7f08 d4c3 f55f d9c1 6b62 83c3
000000a0: 00ce ba42 752a 4ec3 38d3 5142 05d7 6dc3
000000b0: 1d22 a642 1ac1 90c3 7cf3 ba42 44b3 81c3
000000c0: d4f0 af42 fc64 bec3 81d0 2d43 f9d4 a5c3
000000d0: aa9e 0a43 3eda 8cc3 38fb 80c2 893e 38c3
000000e0: 4384 6bc2 615f d8c3 4f2a 95c2 0102 85c3
000000f0: 4d31 a841 82eb a5c3 0688 ca42 710a 89c3
00000100: 660e d2c2 af82 8dc3 479a 8c42 d638 90c3
00000110: 2424 21c2 bbb4 5dc3 1a0d 17c1 eaaa e5c3
00000120: e4fa 5bc2 7f5c e2c3 8ad9 b742 3efe 67c3
00000130: 2686 9f42 72b4 c3c3 d0c3 7fc2 305a 8dc3
00000140: 0e43 37c2 4fd7 aac3 62f0 3143 aef3 b9c3
00000150: 17c2 1a42 921a 8ac3 9483 2e42 33c0 9bc3
00000160: c62d a742 0684 d2c3 0648 84c2 4ab0 bfc3
00000170: a607 64c2 f25b 36c3 c0c2 55c2 ca32 26c3
00000180: ace1 79c2 393d 9cc3 9f2f ecc1 cc77 5fc3
00000190: 6873 cc42 de6b 6dc3 0a80 cfc2 6517 98c3
000001a0: 2c63 2143 31ac a6c3 0f8a 9c42 b92c f6c2
000001b0: 2588 5dc2 1cae 8dc3 14fa 0141 3c25 90c3
000001c0: c744 e8c1 34b0 4dc3 0854 2e42 6824 02c3
000001d0: 1ae1 b9c2 a32d a7c3 6ae2 dac1 b6bf 2fc3
000001e0: a2e7 da42 4a67 a7c3 93c5 dd42 ff1b 68c3
000001f0: b646 dc42 be7e 8ec3 c73f 0343 8d45 bac3
00000200: eda9 9640 7f02 80c3 c65f 8a42 dd7a 4ac3
00000210: 8fad e341 db88 87c3 d39c 76c1 be1d 49c3
00000220: a4dd 4842 1b0d 5ac3 a291 c4c2 e884 a0c3
00000230: 9f0b e642 f273 61c3 180d b0c2 5e7d e3c3
00000240: c486 8f41 67e0 abc3 aeb1 c142 67f5 43c3
00000250: 7b1d 6e42 0e7c 00c3 18f9 e842 66a1 74c3
00000260: 59af 3642 3362 7bc3 7cf1 17c2 ade3 7bc3
00000270: da87 0643 11f6 a0c3 4364 94c2 fc30 85c3
00000280: e0d3 b642 ab91 76c3 2837 2243 1bbd adc3
00000290: 50a3 a442 7f70 95c3 aeef b1c2 2603 a9c3
000002a0: d843 5941 5804 3ec3 ba1e 10c2 379c acc3
000002b0: 5f7a a841 463b 91c3 3d29 1842 9cee 94c3
000002c0: f705 b242 1538 88c3 18b9 99c2 3b70 99c3
000002d0: 7727 a0c2 6419 9fc3 64c0 8841 f7bc 09c3
000002e0: 6681 c7c1 1115 6fc3 d16b 8dc1 b66b 80c3
000002f0: ca46 f341 f294 45c3 dcf6 84c2 bd8d 8cc3
00000300: ef5d 79c2 67cf c5c3 e547 b2c2 ded5 81c3
00000310: e0c6 9942 5433 18c3 bfe7 f841 5c77 afc3
00000320: 982a ff42 9e44 4ec3 f183 0441 4ac6 51c3
00000330: fa0a e742 c853 57c3 4a0e a3c2 2979 89c3
00000340: dbc1 b3c2 804c 83c3 0dc8 7642 7352 58c3
00000350: f9fd 0042 34f6 fac2 435c 9941 696b 2cc3
00000360: b498 86c2 e8c1 c9c3 1693 4a41 6d45 20c3
00000370: ae0e 8cc2 14ed a0c3 e544 f742 7e9b b1c3
00000380: fab1 ba42 9772 a8c3 f2f6 2642 e68c 1ac3
00000390: 37ac 9442 9626 48c3 5065 54c2 2ee6 3ec3
000003a0: f2a2 72c2 4690 68c3 92c5 f6c1 7af3 b3c3
000003b0: 8983 3c42 070a 8ec3 e1a8 7342 d190 49c3
000003c0: de86 4242 4c5a 2ac3 3d6f 5ec1 9750 4ec3
000003d0: 9159 bbc1 b920 25c3 01d8 0c43 f7e8 6dc3
000003e0: a4de e442 f86f aac3 09a2 5dc2 40ca 71c3
000003f0: e0bd d942 529f b5c3 ce66 94c2 4d60 afc3

variational_strategy._variational_distribution.variational_mean f4 [300]
-13.764342 -14.28169 -13.313826 -13.461869 -13.2061205 -13.523354 -14.295599 -14.039063
-13.419709 -12.602511 -11.604858 -13.403974 -12.727226 -10.224452 -11.485011 -12.661697
-13.607987 -10.977488 -7.7692122 -7.5010557 -11.60676 -11.6191 -11.255607 -10.323229
-12.749364 -11.359039 -13.315577 -10.524569 -12.152635 -9.0803995 -13.354835 -8.891104
-10.404212 -11.015469 -9.346201 -8.941999 -10.254245 -9.136091 -10.158852 -11.454089
-12.655383 -10.169087 -12.831013 -12.192011 -11.491393 -15.204125 -7.165821 -9.113431
-13.139222 -9.158071 -8.738308 -8.70996 -11.187306 -12.276374 -8.261412 -10.56123
-10.893243 -11.867241 -8.489564 -10.007665 -13.802104 -9.631331 -10.010507 -12.570041
-12.082814 -9.034435 -9.058411 -8.776833 -9.855878 -8.133104 -8.889957 -7.6614285
-10.536971 -10.656519 -5.628321 -5.6936464 -9.676149 -7.4123874 -11.986 0.41842487
-4.188815 -7.706765 -8.831081 -8.372453 -11.761288 -10.00423 -9.8028965 -7.916605
-7.4849396 -8.622474 -4.524377 -8.89533 -7.8786817 -7.8778553 -8.522236 -6.934757
-9.840391 -9.444781 -8.959278 -10.631234 -9.758859 -9.415587 -6.2277365 -6.4038153
-3.474826 -7.2030163 -5.496562 -9.424681 -8.7478 -6.674449 -5.755678 -9.842346
-10.521045 -10.13452 -4.2589087 -7.2943296 -8.565147 -11.652827 -7.6576796 -6.2878776
-8.448305 -0.78775835 -9.3569355 -7.0876293 -5.5055847 -7.1037264 -8.236968 -11.646736
-3.877014 -7.9113216 -3.0835288 -5.5214763 -9.494636 -4.276954 -10.097636 -8.04365
-6.6989126 -6.382829 -9.047982 -7.328879 -10.679826 -6.5583158 -10.277877 -3.4378936
-3.593051 -6.133673 -3.342277 -8.593393 -7.515658 -6.028765 -7.689933 -3.8051445
-4.8178196 -8.000412 -6.0025473 -5.3489575 -7.284392 -8.149409 -7.133222 -5.8575106
-10.229771 -7.196669 -6.0141544 -6.2735286 -8.582088 -8.083412 -7.587074 -6.776136
-6.623386 -10.042163 -9.359353 -2.51728 -3.5532336 -6.6350594 -5.2625856 -6.928131
-4.924983 -3.3212898 -5.9246035 -9.297267 -5.8690133 -10.903288 -9.382418 -1.8030185
-7.245868 -7.1445794 -4.2488294 -3.2087104 -9.506752 -5.514345 -6.849149 -5.4400053
-7.907797 -6.5175824 -4.7875953 -2.8070767 -6.7263646 -4.488298 -9.853855 -8.528616
-6.292445 -4.9587674 -6.0409837 -6.072596 -3.4328887 -7.5193334 -7.0401134 -7.258034
-7.4996347 -3.1225727 -8.399895 -5.5591035 -2.6118195 -5.9445806 -4.900106 -1.0483143
-8.468781 -8.36547 -6.057121 -4.559368 -6.6426663 -8.827606 -2.1993446 -9.06697
-6.878707 -6.768709 -3.3753672 0.094369866 -4.5246577 -4.756893 -7.0133896 -6.3972363
-6.918719 -6.0054493 -3.413634 -5.8906665 -6.893801 -9.244086 -6.6318536 -5.557223
-6.90396 -5.020834 -5.0989523 -5.395922 -8.531801 -5.5179625 -5.7262783 -10.390139
-3.7432547 -6.131566 -4.8096814 -6.958695 -3.9118483 -2.527714 -4.789952 -9.465677
00000000: bf3a 5cc1 cd81 64c1 6e05 55c1 d163 57c1
00000010: 454c 53c1 a85f 58c1 c6ba 64c1 01a0 60c1
00000020: 21b7 56c1 e3a3 49c1 80ad 39c1 ad76 56c1
00000030: b8a2 4bc1 5b97 23c1 9bc2 37c1 5096 4ac1
00000040: 51ba 59c1 caa3 2fc1 639d f8c0 a608 f0c0
00000050: 4ab5 39c1 d5e7 39c1 f716 34c1 f22b 25c1
00000060: 65fd 4bc1 a0be 35c1 9a0c 55c1 a264 28c1
00000070: 3171 42c1 5149 11c1 67ad 55c1 f641 0ec1
00000080: a777 26c1 5c3f 30c1 0a8a 15c1 6e12 0fc1
00000090: 6311 24c1 6e2d 12c1 a88a 22c1 f343 37c1
000000a0: 737c 4ac1 95b4 22c1 d44b 4dc1 7a12 43c1
000000b0: bfdc 37c1 1944 73c1 684e e5c0 9dd0 11c1
000000c0: 413a 52c1 7587 12c1 1cd0 0bc1 ff5b 0bc1
000000d0: 35ff 32c1 076c 44c1 be2e 04c1 ccfa 28c1
000000e0: b94a 2ec1 38e0 3dc1 41d5 07c1 651f 20c1
000000f0: 6bd5 5cc1 ef19 1ac1 092b 20c1 e31e 49c1
00000100: 3553 41c1 0c8d 10c1 40ef 10c1 e86d 0cc1
00000110: adb1 1dc1 3221 02c1 443d 0ec1 6c2a f5c0
00000120: 6f97 28c1 1a81 2ac1 351b b4c0 5a32 b6c0
00000130: 82d1 1ac1 4732 edc0 a8c6 3fc1 c93b d63e
00000140: c60a 86c0 d29d f6c0 1c4c 0dc1 91f5 05c1
00000150: 3c2e 3cc1 5311 20c1 aad8 1cc1 d454 fdc0
00000160: a084 efc0 a7f5 09c1 b2c7 90c0 4653 0ec1
00000170: 291e fcc0 6417 fcc0 145b 08c1 88e9 ddc0
00000180: 3e72 1dc1 d31d 17c1 3459 0fc1 8919 2ac1
00000190: 4924 1cc1 3fa6 16c1 9e49 c7c0 0eec ccc0
000001a0: 8d63 5ec0 1c7f e6c0 d6e3 afc0 7ecb 16c1
000001b0: fdf6 0bc1 1695 d5c0 842e b8c0 407a 1dc1
000001c0: 3356 28c1 fe26 22c1 fb48 88c0 266b e9c0
000001d0: d80a 09c1 fb71 3ac1 b60b f5c0 4b36 c9c0
000001e0: 422c 07c1 88aa 49bf 02b6 15c1 dccd e2c0
000001f0: c02d b0c0 ba51 e3c0 9fca 03c1 0859 3ac1
00000200: ff20 78c0 8c29 fdc0 8958 45c0 efaf b0c0
00000210: 07ea 17c1 cfdc 88c0 eb8f 21c1 cab2 00c1
00000220: 7e5d d6c0 2340 ccc0 89c4 10c1 2d86 eac0
00000230: 91e0 2ac1 b9dd d1c0 2f72 24c1 7306 5cc0
00000240: 8cf4 65c0 0d47 c4c0 dee7 55c0 8a7e 09c1
00000250: 4580 f0c0 a5eb c0c0 ee13 f6c0 7d87 73c0
00000260: 942b 9ac0 b001 00c1 de14 c0c0 a92a abc0
00000270: bd19 e9c0 fb63 02c1 5b43 e4c0 ba70 bbc0
00000280: 24ad 23c1 1d4b e6c0 f473 c0c0 bfc0 c8c0
00000290: 3c50 09c1 a855 01c1 4fc9 f2c0 1bd6 d8c0
000002a0: c7f2 d3c0 b3ac 20c1 e9bf 15c1 1e1b 21c0
000002b0: 2e68 63c0 6852 d4c0 1a67 a8c0 40b3 ddc0
000002c0: 7699 9dc0 0390 54c0 5a96 bdc0 9bc1 14c1
000002d0: f5ce bbc0 de73 2ec1 621e 16c1 4fc9 e6bf
000002e0: 27de e7c0 65a0 e4c0 69f6 87c0 835b 4dc0
000002f0: a81b 18c1 8475 b0c0 3b2c dbc0 8614 aec0
00000300: ac0c fdc0 0990 d0c0 fb33 99c0 25a7 33c0
00000310: 613e d7c0 23a0 8fc0 64a9 1dc1 3675 08c1
00000320: b65b c9c0 39ae 9ec0 bd4f c1c0 b552 c2c0
00000330: 73b4 5bc0 619e f0c0 9c48 e1c0 d141 e8c0
00000340: 02fd efc0 3bd8 47c0 f865 06c1 2de4 b1c0
00000350: 0d28 27c0 013a bec0 abcd 9cc0 2a2f 86bf
00000360: 2180 07c1 f7d8 05c1 efd3 c1c0 58e6 91c0
00000370: b990 d4c0 e03d 0dc1 10c2 0cc0 4f12 11c1
00000380: 5e1e dcc0 4499 d8c0 0406 58c0 fd44 c13d
00000390: ffc9 90c0 7838 98c0 b06d e0c0 29b6 ccc0
000003a0: 2566 ddc0 a42c c0c0 fb78 5ac0 5780 bcc0
000003b0: 059a dcc0 c7e7 13c1 2538 d4c0 c5d4 b1c0
000003c0: 3eed dcc0 acaa a0c0 9e2a a3c0 65ab acc0
000003d0: 4282 08c1 2693 b0c0 ac3d b7c0 023e 26c1
000003e0: 7c91 6fc0 ca35 c4c0 e9e8 99c0 a1ad dec0
000003f0: b95b 7ac0 11c6 21c0 4947 99c0 6a73 17c1

variational_strategy._variational_distribution.chol_variational_covar f4 [300, 300]
0.4622383 0.0 0.0 0.0 0.0 0.0 0.0 0.0
0.0 0.0 0.0 0.0 0.0 0.0 0.0 0.0
0.0 0.0 0.0 0.0 0.0 0.0 0.0 0.0
0.0 0.0 0.0 0.0 0.0 0.0 0.0 0.0
0.0 0.0 0.0 0.0 0.0 0.0 0.0 0.0
0.0 0.0 0.0 0.0 0.0 0.0 0.0 0.0
0.0 0.0 0.0 0.0 0.0 0.0 0.0 0.0
0.0 0.0 0.0 0.0 0.0 0.0 0.0 0.0
0.0 0.0 0.0 0.0 0.0 0.0 0.0 0.0
0.0 0.0 0.0 0.0 0.0 0.0 0.0 0.0
0.0 0.0 0.0 0.0 0.0 0.0 0.0 0.0
0.0 0.0 0.0 0.0 0.0 0.0 0.0 0.0
0.0 0.0 0.0 0.0 0.0 0.0 0.0 0.0
0.0 0.0 0.0 0.0 0.0 0.0 0.0 0.0
0.0 0.0 0.0 0.0 0.0 0.0 0.0 0.0
0.0 0.0 0.0 0.0 0.0 0.0 0.0 0.0
0.0 0.0 0.0 0.0 0.0 0.0 0.0 0.0
0.0 0.0 0.0 0.0 0.0 0.0 0.0 0.0
0.0 0.0 0.0 0.0 0.0 0.0 0.0 0.0
0.0 0.0 0.0 0.0 0.0 0.0 0.0 0.0
0.0 0.0 0.0 0.0 0.0 0.0 0.0 0.0
0.0 0.0 0.0 0.0 0.0 0.0 0.0 0.0
0.0 0.0 0.0 0.0 0.0 0.0 0.0 0.0
0.0 0.0 0.0 0.0 0.0 0.0 0.0 0.0
0.0 0.0 0.0 0.0 0.0 0.0 0.0 0.0
0.0 0.0 0.0 0.0 0.0 0.0 0.0 0.0
0.0 0.0 0.0 0.0 0.0 0.0 0.0 0.0
0.0 0.0 0.0 0.0 0.0 0.0 0.0 0.0
0.0 0.0 0.0 0.0 0.0 0.0 0.0 0.0
0.0 0.0 0.0 0.0 0.0 0.0 0.0 0.0
0.0 0.0 0.0 0.0 0.0 0.0 0.0 0.0
0.0 0.0 0.0 0.0 0.0 0.0 0.0 0.0
00000000: 80aa ec3e 0000 0000 0000 0000 0000 0000
00000010: 0000 0000 0000 0000 0000 0000 0000 0000
00000020: 0000 0000 0000 0000 0000 0000 0000 0000
00000030: 0000 0000 0000 0000 0000 0000 0000 0000
00000040: 0000 0000 0000 0000 0000 0000 0000 0000
00000050: 0000 0000 0000 0000 0000 0000 0000 0000
00000060: 0000 0000 0000 0000 0000 0000 0000 0000
00000070: 0000 0000 0000 0000 0000 0000 0000 0000
00000080: 0000 0000 0000 0000 0000 0000 0000 0000
00000090: 0000 0000 0000 0000 0000 0000 0000 0000
000000a0: 0000 0000 0000 0000 0000 0000 0000 0000
000000b0: 0000 0000 0000 0000 0000 0000 0000 0000
000000c0: 0000 0000 0000 0000 0000 0000 0000 0000
000000d0: 0000 0000 0000 0000 0000 0000 0000 0000
000000e0: 0000 0000 0000 0000 0000 0000 0000 0000
000000f0: 0000 0000 0000 0000 0000 0000 0000 0000
00000100: 0000 0000 0000 0000 0000 0000 0000 0000
00000110: 0000 0000 0000 0000 0000 0000 0000 0000
00000120: 0000 0000 0000 0000 0000 0000 0000 0000
00000130: 0000 0000 0000 0000 0000 0000 0000 0000
00000140: 0000 0000 0000 0000 0000 0000 0000 0000
00000150: 0000 0000 0000 0000 0000 0000 0000 0000
00000160: 0000 0000 0000 0000 0000 0000 0000 0000
00000170: 0000 0000 0000 0000 0000 0000 0000 0000
00000180: 0000 0000 0000 0000 0000 0000 0000 0000
00000190: 0000 0000 0000 0000 0000 0000 0000 0000
000001a0: 0000 0000 0000 0000 0000 0000 0000 0000
000001b0: 0000 0000 0000 0000 0000 0000 0000 0000
000001c0: 0000 0000 0000 0000 0000 0000 0000 0000
000001d0: 0000 0000 0000 0000 0000 0000 0000 0000
000001e0: 0000 0000 0000 0000 0000 0000 0000 0000
000001f0: 0000 0000 0000 0000 0000 0000 0000 0000
00000200: 0000 0000 0000 0000 0000 0000 0000 0000
00000210: 0000 0000 0000 0000 0000 0000 0000 0000
00000220: 0000 0000 0000 0000 0000 0000 0000 0000
00000230: 0000 0000 0000 0000 0000 0000 0000 0000
00000240: 0000 0000 0000 0000 0000 0000 0000 0000
00000250: 0000 0000 0000 0000 0000 0000 0000 0000
00000260: 0000 0000 0000 0000 0000 0000 0000 0000
00000270: 0000 0000 0000 0000 0000 0000 0000 0000
00000280: 0000 0000 0000 0000 0000 0000 0000 0000
00000290: 0000 0000 0000 0000 0000 0000 0000 0000
000002a0: 0000 0000 0000 0000 0000 0000 0000 0000
000002b0: 0000 0000 0000 0000 0000 0000 0000 0000
000002c0: 0000 0000 0000 0000 0000 0000 0000 0000
000002d0: 0000 0000 0000 0000 0000 0000 0000 0000
000002e0: 0000 0000 0000 0000 0000 0000 0000 0000
000002f0: 0000 0000 0000 0000 0000 0000 0000 0000
00000300: 0000 0000 0000 0000 0000 0000 0000 0000
00000310: 0000 0000 0000 0000 0000 0000 0000 0000
00000320: 0000 0000 0000 0000 0000 0000 0000 0000
00000330: 0000 0000 0000 0000 0000 0000 0000 0000
00000340: 0000 0000 0000 0000 0000 0000 0000 0000
00000350: 0000 0000 0000 0000 0000 0000 0000 0000
00000360: 0000 0000 0000 0000 0000 0000 0000 0000
00000370: 0000 0000 0000 0000 0000 0000 0000 0000
00000380: 0000 0000 0000 0000 0000 0000 0000 0000
00000390: 0000 0000 0000 0000 0000 0000 0000 0000
000003a0: 0000 0000 0000 0000 0000 0000 0000 0000
000003b0: 0000 0000 0000 0000 0000 0000 0000 0000
000003c0: 0000 0000 0000 0000 0000 0000 0000 0000
000003d0: 0000 0000 0000 0000 0000 0000 0000 0000
000003e0: 0000 0000 0000 0000 0000 0000 0000 0000
000003f0: 0000 0000 0000 0000 0000 0000 0000 0000

cov.base_kernel.raw_lengthscale f4 [1, 2]
17.359793 17.621216
00000000: dbe0 8a41 40f8 8c41
