slam/rbpf_slam/data/results/svgp_particle8.pth (torch, 367369 bytes, 4 tensors)

variational_strategy.inducing_points f4 [300, 2]
00000000: c38d 9ec2 0f5d 8bc3 6e50 8441 95fa b9c3
00000010: 5e2f 1643 1744 87c3 dc8d bc42 af44 12c3
00000020: 69e1 c142 ed52 98c3 6818 97c1 9e27 b6c3
00000030: a8a1 4540 bdf5 b4c3 2987 8ec2 6217 43c3
00000040: 231f 1ac2 4d9e 73c3 984e 2542 74a1 5ac3
00000050: 8a5d 1c43 e6b6 b1c3 a9ca bf42 f94e 4cc3
00000060: c178 7242 4b98 3ac3 db40 0743 7a87 b7c3
00000070: a74c 5c42 50c5 91c3 38b8 cec2 d4fb 78c3
00000080: 42a8 8f42 113b 04c3 9602 e642 90b7 c2c3
00000090: b251 0c43 1338 79c3 4889 8442 1e69 f4c2
000000a0: db9b e8c1 2192 bbc3 99cb 84c2 e75b 8dc3
000000b0: 9730 3242 b672 a8c3 a54f 0943 56a3 5bc3
000000c0: 7f04 4341 b20f 8ac3 4a73 a5c2 2aba 50c3
000000d0: 2591 25c1 6f97 5ac3 7805 a541 0096 7fc3
000000e0: 3251 8342 032a 8bc3 4c51 8342 923f 9ac3
000000f0: dd99 d042 e0fa 3bc3 9d7a 4b42 1eaf b9c3
00000100: a5e5 db42 d115 70c3 2a59 0943 dfbf 6fc3
00000110: 6fd4 cb42 65f8 b3c3 7756 8942 ba7b 86c3
00000120: f44d a442 9bb9 71c3 4bc3 9bc1 a242 0ac3
00000130: 6055 c5c2 62cb a4c3 014f 34c2 d7f0 a7c3
00000140: d05c a4c2 0539 92c3 49aa 5942 f0cc d1c3
00000150: d5a7 ffc1 d816 85c3 ce47 d141 4e25 8cc3
00000160: 76c6 8ac1 b87e a3c3 75e0 b742 8b90 3ac3
00000170: c56a 8ac1 a8a6 89c3 1964 de40 dcd5 74c3
00000180: 013f 72c2 e01c bec3 6527 2543 19c2 b7c3
00000190: 0889 4a41 ba24 cdc3 a5bc 6940 0257 86c3
000001a0: b86b 3742 afc6 abc3 4ddd 5841 b430 65c3
000001b0: 3d2c b5c2 2e10 38c3 6a00 04c1 c916 50c3
000001c0: e444 96c2 e2e9 81c3 6331 1dc2 5080 5fc3
000001d0: 7ad5 d842 ae81 4ac3 6935 9a42 0205 87c3
000001e0: 1761 e542 b39c 95c3 5c15 a342 9be0 9ec3
000001f0: b20c fe41 ddea 53c3 d59e 8bc2 c44b 89c3
00000200: 54e5 3f42 554e 54c3 7431 0043 4037 39c3
00000210: 1d52 df42 875f 1ac3 87ae c842 316d 92c3
00000220: 96c0 a842 d5f8 25c3 356f b341 a400 53c3
00000230: 2400 c141 8c1b 4ec3 8fae 9ac2 47f3 2cc3
00000240: 023d 0343 12a0 74c3 f799 f541 61e2 60c3
00000250: b988 27c2 816f 87c3 34e6 abc2 4ee1 87c3
00000260: 9ad8 ec42 f8c7 69c3 3f59 8742 5e4d 92c3
00000270: 10a1 9042 374c 6dc3 346d 0043 c11a 54c3
00000280: 9676 47c2 bcc3 7ac3 eb73 1d40 ca95 13c3
00000290: 05d0 1043 c5d3 acc3 4d3f 2343 bd65 9cc3
000002a0: c807 74c2 e2b2 86c3 6f78 90c2 a340 b6c3
000002b0: 03cd d2c2 cf88 35c3 729d 1143 0b66 8ec3
000002c0: bc50 86c2 d279 31c3 560e b342 fc51 d2c3
000002d0: f144 61c2 9447 90c3 20fc 9742 8a1c cbc3
000002e0: a100 5242 a451 2cc3 1505 27c2 fcf8 c0c3
000002f0: 1345 8cc2 c7ba 8cc3 e8f8 2543 e729 a7c3
00000300: 2486 1942 a680 68c3 3ec8 eb42 1b2d 46c3
00000310: 0042 1742 99d7 55c3 e01b 4e42 2fdd 49c3
00000320: 4a8c edc0 8e94 8cc3 ffd9 b442 17a7 f7c2
00000330: 7bac 0cc2 3509 31c3 9448 af42 89e5 41c3
00000340: 4f40 1e43 b0c8 a6c3 c09c d742 f604 65c3
00000350: 1ac7 b342 e47f 4ec3 c8d7 bdc2 cb0b 91c3
00000360: 6483 b8c2 fd6f 52c3 f0bf a4c2 9faa eec3
00000370: 8e78 54c2 791f 95c3 cfe5 85c1 b9e9 29c3
00000380: 0663 71c2 6f5b 97c3 179c afc2 2856 bbc3
00000390: c39d 8dc2 59d8 9cc3 8b1f 1342 c905 efc2
000003a0: 254a 1fc2 d9a7 b0c3 17bd 32c1 1653 97c3
000003b0: 36a2 be42 3ce7 7fc3 8d9d 59c2 3d51 7bc3
000003c0: ddbb a542 b122 4cc3 05b4 1442 a64e b9c3
000003d0: b023 8642 153b dac2 dfdc b2c1 7662 6fc3
000003e0: 6dd3 cac1 aadb 84c3 d943 c042 42df 85c3
000003f0: d988 0c42 9e8b a4c3 022f bec2 e233 49c3
-79.27688 -278.72702 16.539272 -371.95767 150.18503 -270.53195 94.27707 -146.2683
96.940254 -304.64786 -18.886917 -364.3095 3.0879917 -361.91983 -71.263985 -195.09134
-38.530407 -243.61836 41.32675 -218.63068 156.36539 -355.4289 95.89582 -204.30849
60.617924 -186.5949 135.25334 -367.0584 55.074856 -291.5415 -103.3598 -248.9837
71.82863 -132.23073 115.00505 -389.43408 140.31912 -249.21904 66.26813 -122.20531
-29.076101 -375.14163 -66.39765 -282.718 44.54745 -336.89618 137.31111 -219.63803
12.188598 -276.12262 -82.725174 -208.7272 -10.347936 -218.59154 20.62767 -255.58594
65.658585 -278.32822 65.65878 -308.49664 104.300514 -187.97998 50.86974 -371.3681
109.948524 -240.08522 137.3483 -239.7495 101.91491 -359.94058 68.66888 -268.9666
82.15225 -241.72502 -19.470358 -138.26028 -98.66675 -329.58893 -45.077152 -335.88156
-82.181274 -292.44547 54.416294 -419.60107 -31.95695 -266.17847 26.16006 -280.29144
-17.346905 -326.99 91.93839 -186.56462 -17.302134 -275.302 6.949719 -244.83539
-60.561527 -380.2256 165.15388 -367.5164 12.658455 -410.28693 3.652139 -268.67975
45.855194 -343.55222 13.5540285 -229.19025 -90.5864 -184.0632 -8.250101 -208.089
-75.13455 -259.8272 -39.29823 -223.50122 108.41695 -202.50656 77.10432 -270.03912
114.68963 -299.2242 81.54172 -317.75473 31.756199 -211.91743 -69.81022 -274.59192
47.973953 -212.30598 128.19318 -185.21582 111.66038 -154.37315 100.34087 -292.85306
84.376144 -165.972 22.4293 -211.0025 24.125069 -206.1076 -77.340935 -172.9503
131.23831 -244.62527 30.700178 -224.8843 -41.88352 -270.87112 -85.949615 -271.7602
118.42305 -233.78113 67.67431 -292.60443 72.314575 -237.29771 128.42657 -212.1045
-49.865807 -250.76459 2.4602 -147.58511 144.81258 -345.65445 163.24727 -312.79483
-61.0076 -269.39752 -72.23522 -364.50497 -105.40041 -181.53441 145.61502 -284.7972
-67.157684 -177.47586 89.528 -420.6405 -56.317326 -288.5592 75.99243 -406.22296
52.500614 -172.31891 -41.754963 -385.9452 -70.13491 -281.4592 165.97229 -334.32736
38.380997 -232.50253 117.8911 -198.1762 37.814453 -213.84218 51.52722 -201.864
-7.423375 -281.16058 90.42577 -123.82635 -35.168438 -177.03596 87.641754 -193.89662
158.2512 -333.56787 107.80615 -229.01938 89.88887 -206.49957 -94.92145 -290.09213
-92.25662 -210.43745 -82.37488 -477.33298 -53.11773 -298.24588 -16.737211 -169.91298
-60.346703 -302.71432 -87.80486 -374.6731 -70.80813 -313.69022 36.780804 -119.5113
-39.822407 -353.3113 -11.1711645 -302.6491 95.31682 -255.90326 -54.40386 -251.31734
82.86692 -204.13551 37.1758 -370.61444 67.0697 -109.115395 -22.357847 -239.38461
-25.353235 -265.71613 96.132515 -267.7442 35.13364 -329.09076 -95.09181 -201.20267

variational_strategy._variational_distribution.variational_mean f4 [300]
00000000: ed33 65c1 2ee8 65c1 fb5b 44c1 623d 4fc1
00000010: 82c2 58c1 5e8a 50c1 9bc0 12c1 8a74 51c1
00000020: 5ad5 5cc1 ec60 5dc1 1117 3ec1 6be8 55c1
00000030: 6273 46c1 2088 40c1 817f 56c1 73f8 41c1
00000040: dddc 2fc1 7711 3bc1 10e6 3cc1 9bbd 0fc1
00000050: bcb7 32c1 beb3 39c1 8a23 60c1 dce5 29c1
00000060: 3fc0 65c1 298d 14c1 e6c5 59c1 8928 4ac1
00000070: a59b 3bc1 91ee 49c1 133a 46c1 37dd 4cc1
00000080: d931 51c1 c086 a4c0 6787 2dc1 e6b0 27c1
00000090: 7a63 40c1 78c5 1ac1 d634 51c1 d7e5 62c1
000000a0: 05d1 34c1 1eef 4cc1 a056 4bc1 7095 37c1
000000b0: 2e19 47c1 8535 f4c0 279d 2ac1 b78f 37c1
000000c0: d707 5ac1 4f93 0ec1 572b 45c1 aec8 f5c0
000000d0: 7176 96c0 44f7 21c1 127e 26c1 d302 13c1
000000e0: 134f 44c1 f6e3 34c1 b2a7 1cc1 f4f5 06c1
000000f0: 85da 43c1 6441 1dc1 66d0 05c1 b7d7 5fc0
00000100: 6a7f 19c1 5ea8 00c1 9577 0ac1 cdc3 dcc0
00000110: 5cb7 21c1 ca1e a9c0 376b b6c0 bf77 15c1
00000120: c021 ecc0 8890 04c1 b9b7 04c1 5848 2fc1
00000130: 89e2 cbc0 854d c8c0 33ab dfc0 1c00 f4c0
00000140: 40f9 02c1 0094 47c1 010f 1fc1 3ec5 40c1
00000150: 19bf b9c0 c45e 3ac1 8326 90c0 4f13 34c1
00000160: 7676 03c1 6cc4 0fc1 938f 17c1 9a28 0dc1
00000170: efff 34c1 95a9 23c1 770d 45c0 85ff 16c1
00000180: 3cbb 25c1 f6b0 87c0 1f39 c9bf 685f fcc0
00000190: f48f 20c1 548f 12c1 2339 20c1 b295 f8c0
000001a0: 10d1 89c0 3679 00c1 9f90 e9c0 f841 14c1
000001b0: 20e5 0cc1 d4f1 f8c0 7722 17c1 b14e 08c1
000001c0: 4c5c f6c0 ebf2 17c1 ec78 14c1 40e3 18c1
000001d0: 2be6 19c1 d2b1 28c1 9240 27c1 da4e 93c0
000001e0: 0489 89c0 f855 03c1 ae8d d6c0 ac23 30c1
000001f0: b732 dcc0 504a c5c0 3de2 3cc1 4032 99c0
00000200: 5bb5 83c0 1640 fdc0 2e1b 09c1 75c8 de3f
00000210: fb19 1ac1 fd9c 35c0 5a77 a0c0 026a 0fc1
00000220: 2770 dbc0 dfd7 dec0 ebc8 d0c0 ad90 41c0
00000230: 40df d2c0 12aa 98c0 b044 6ac0 60b4 e1c0
00000240: 0414 0ec1 26e2 6ec0 95dc d1c0 8dd6 a1bf
00000250: fa90 1ec1 a690 20c1 4942 ddc0 f2e8 eec0
00000260: 7e5f 56c0 8060 11c1 73c1 f6c0 107a 34c1
00000270: e7c0 c1c0 0e8c dfc0 0603 aec0 3fc6 f8c0
00000280: cac9 b6c0 b151 b4c0 1e7f 00c1 df25 c8c0
00000290: bbad ccc0 f1b6 83c0 15d6 13c1 8005 e0c0
000002a0: e1c5 00c1 2f33 bcc0 8872 adc0 831a 03c1
000002b0: ff5d 15c1 657d 8ac0 f7b6 02bf a0e8 05c1
000002c0: feb9 b6c0 5f0c a8c0 98d0 e5c0 c803 f5c0
000002d0: 5907 2ac0 3641 d2c0 95f0 75c0 3b6e a7c0
000002e0: cc8a 00c1 fb0c c1bf 11c7 2cc1 e8f9 5ac0
000002f0: 1ec7 21c1 33ef e3c0 ec9a 7ec0 5681 cc3d
00000300: e485 e8c0 a7ae c1c0 bf46 96c0 3be4 15c1
00000310: e590 f5c0 04e5 f9c0 2222 d4c0 55e3 05c1
00000320: ff73 e8c0 80b4 91c0 d9df c8c0 9849 87c0
00000330: 47d8 933f 5c6b cec0 7217 bcc0 b2f2 01c1
00000340: 19f5 d3c0 f0f6 d2c0 a482 f3c0 d936 64c0
00000350: 05a6 8dc0 c608 8bc0 7d64 0ac1 0f53 c5c0
00000360: dfe3 d8c0 a1d1 06c1 a86e 37c0 8951 edc0
00000370: 98a6 bebf 6a25 e8c0 0d5a 11c1 25a3 e6c0
00000380: bc6d 34bf b036 d8c0 4d49 7ac0 4247 e3c0
00000390: 18ed 1cc1 54c6 d8c0 97d1 17c0 d199 3bc0
000003a0: d455 f6c0 fe5e 34c1 15b9 e2c0 2c57 8dbe
000003b0: 8458 17c1 7a73 dcc0 3f68 d3c0 3a55 87c0
000003c0: 3571 cfc0 dc3a d1c0 63b4 11c0 f630 f7c0
000003d0: d622 9fc0 ea8f f1c0 7aaa 9ac0 1edd dac0
000003e0: 3ee5 c3c0 3300 8ac0 5d0a b7c0 865a 7dc0
000003f0: 5631 9ac0 5e25 f7c0 5227 afc0 bc7e 2bc1
-14.325177 -14.3691845 -12.272456 -12.952486 -13.547487 -13.033781 -9.172023 -13.090952
-13.802088 -13.836163 -11.880631 -13.369243 -12.40317 -12.033234 -13.406129 -12.123157
-10.991422 -11.691764 -11.806168 -8.98379 -11.169857 -11.606382 -14.008677 -10.618618
-14.359435 -9.284463 -13.610815 -12.634896 -11.725499 -12.620744 -12.389178 -12.804008
-13.07467 -5.141449 -10.845557 -10.480688 -12.024286 -9.67321 -13.075399 -14.181113
-11.30103 -12.808378 -12.708649 -11.473984 -12.443647 -7.631533 -10.663367 -11.472587
-13.626914 -8.910964 -12.323081 -7.680747 -4.701958 -10.122868 -10.405779 -9.1881895
-12.269305 -11.305655 -9.790941 -8.435047 -12.2408495 -9.8284645 -8.363379 -3.4975412
-9.593607 -8.041105 -8.654195 -6.8989015 -10.107265 -5.2850084 -5.7005877 -9.341735
-7.37912 -8.285286 -8.294854 -10.955162 -6.371403 -6.259463 -6.9896483 -7.6250134
-8.185852 -12.473633 -9.941163 -12.048155 -5.8045774 -11.648136 -4.504701 -11.254714
-8.216421 -8.985455 -9.472552 -8.8224125 -11.312484 -10.228902 -3.0789468 -9.437383
-10.3582115 -4.2403517 -1.5720557 -7.8866463 -10.035145 -9.159992 -10.013949 -7.7682734
-4.3067703 -8.0295925 -7.298904 -9.266106 -8.805939 -7.77952 -9.445914 -8.519212
-7.6987667 -9.496806 -9.279522 -9.555481 -9.618693 -10.543413 -10.453264 -4.6033754
-4.2979755 -8.208488 -6.704795 -11.008709 -6.881191 -6.1653214 -11.805234 -4.787384
-4.115888 -7.914073 -8.569136 1.7404925 -9.631343 -2.8377068 -5.0145693 -8.963381
-6.8574405 -6.9638515 -6.524526 -3.0244553 -6.589752 -4.7707605 -3.6604424 -7.0532684
-8.879887 -3.732553 -6.5581765 -1.2643601 -9.910395 -10.035315 -6.9143414 -7.4659357
-3.3495784 -9.08606 -7.7111144 -11.2798 -6.0547976 -6.9858465 -5.437869 -7.7742
-5.7121325 -5.634972 -8.031034 -6.254623 -6.3962073 -4.1160817 -9.239766 -7.0006714
-8.04831 -5.881248 -5.420231 -8.193973 -9.335448 -4.327807 -0.5106043 -8.369293
-5.710204 -5.25151 -7.181713 -7.6567116 -2.6566985 -6.5704603 -3.842809 -5.232206
-8.033886 -1.5082086 -10.7986 -3.421503 -10.111113 -7.122949 -3.9782057 0.09985606
-7.266344 -6.05257 -4.696136 -9.36822 -7.6739373 -7.809206 -6.6291666 -8.368001
-7.2641597 -4.5532837 -6.277325 -4.2277336 1.1550378 -6.4506054 -5.877862 -8.121752
-6.623669 -6.5926437 -7.6096973 -3.5658476 -4.426516 -4.344821 -8.649533 -6.166389
-6.7778163 -8.426179 -2.866129 -7.416203 -1.489459 -7.254567 -9.084485 -7.207415
-0.7047994 -6.7566757 -3.910724 -7.1024485 -9.807884 -6.77421 -2.3721673 -2.9312632
-7.697977 -11.273191 -7.085093 -0.2760557 -9.45911 -6.8890963 -6.6064754 -4.2291536
-6.482569 -6.538435 -2.276635 -7.7247267 -4.9730024 -7.5488176 -4.83331 -6.839492
-6.1217337 -4.3125243 -5.720015 -3.95865 -4.8185225 -7.7233114 -5.47355 -10.718441

variational_strategy._variational_distribution.chol_variational_covar f4 [300, 300]
00000000: 0252 e73e 0000 0000 0000 0000 0000 0000
00000010: 0000 0000 0000 0000 0000 0000 0000 0000
00000020: 0000 0000 0000 0000 0000 0000 0000 0000
00000030: 0000 0000 0000 0000 0000 0000 0000 0000
00000040: 0000 0000 0000 0000 0000 0000 0000 0000
00000050: 0000 0000 0000 0000 0000 0000 0000 0000
00000060: 0000 0000 0000 0000 0000 0000 0000 0000
00000070: 0000 0000 0000 0000 0000 0000 0000 0000
00000080: 0000 0000 0000 0000 0000 0000 0000 0000
00000090: 0000 0000 0000 0000 0000 0000 0000 0000
000000a0: 0000 0000 0000 0000 0000 0000 0000 0000
000000b0: 0000 0000 0000 0000 0000 0000 0000 0000
000000c0: 0000 0000 0000 0000 0000 0000 0000 0000
000000d0: 0000 0000 0000 0000 0000 0000 0000 0000
000000e0: 0000 0000 0000 0000 0000 0000 0000 0000
000000f0: 0000 0000 0000 0000 0000 0000 0000 0000
00000100: 0000 0000 0000 0000 0000 0000 0000 0000
00000110: 0000 0000 0000 0000 0000 0000 0000 0000
00000120: 0000 0000 0000 0000 0000 0000 0000 0000
00000130: 0000 0000 0000 0000 0000 0000 0000 0000
00000140: 0000 0000 0000 0000 0000 0000 0000 0000
00000150: 0000 0000 0000 0000 0000 0000 0000 0000
00000160: 0000 0000 0000 0000 0000 0000 0000 0000
00000170: 0000 0000 0000 0000 0000 0000 0000 0000
00000180: 0000 0000 0000 0000 0000 0000 0000 0000
00000190: 0000 0000 0000 0000 0000 0000 0000 0000
000001a0: 0000 0000 0000 0000 0000 0000 0000 0000
000001b0: 0000 0000 0000 0000 0000 0000 0000 0000
000001c0: 0000 0000 0000 0000 0000 0000 0000 0000
000001d0: 0000 0000 0000 0000 0000 0000 0000 0000
000001e0: 0000 0000 0000 0000 0000 0000 0000 0000
000001f0: 0000 0000 0000 0000 0000 0000 0000 0000
00000200: 0000 0000 0000 0000 0000 0000 0000 0000
00000210: 0000 0000 0000 0000 0000 0000 0000 0000
00000220: 0000 0000 0000 0000 0000 0000 0000 0000
00000230: 0000 0000 0000 0000 0000 0000 0000 0000
00000240: 0000 0000 0000 0000 0000 0000 0000 0000
00000250: 0000 0000 0000 0000 0000 0000 0000 0000
00000260: 0000 0000 0000 0000 0000 0000 0000 0000
00000270: 0000 0000 0000 0000 0000 0000 0000 0000
00000280: 0000 0000 0000 0000 0000 0000 0000 0000
00000290: 0000 0000 0000 0000 0000 0000 0000 0000
000002a0: 0000 0000 0000 0000 0000 0000 0000 0000
000002b0: 0000 0000 0000 0000 0000 0000 0000 0000
000002c0: 0000 0000 0000 0000 0000 0000 0000 0000
000002d0: 0000 0000 0000 0000 0000 0000 0000 0000
000002e0: 0000 0000 0000 0000 0000 0000 0000 0000
000002f0: 0000 0000 0000 0000 0000 0000 0000 0000
00000300: 0000 0000 0000 0000 0000 0000 0000 0000
00000310: 0000 0000 0000 0000 0000 0000 0000 0000
00000320: 0000 0000 0000 0000 0000 0000 0000 0000
00000330: 0000 0000 0000 0000 0000 0000 0000 0000
00000340: 0000 0000 0000 0000 0000 0000 0000 0000
00000350: 0000 0000 0000 0000 0000 0000 0000 0000
00000360: 0000 0000 0000 0000 0000 0000 0000 0000
00000370: 0000 0000 0000 0000 0000 0000 0000 0000
00000380: 0000 0000 0000 0000 0000 0000 0000 0000
00000390: 0000 0000 0000 0000 0000 0000 0000 0000
000003a0: 0000 0000 0000 0000 0000 0000 0000 0000
000003b0: 0000 0000 0000 0000 0000 0000 0000 0000
000003c0: 0000 0000 0000 0000 0000 0000 0000 0000
000003d0: 0000 0000 0000 0000 0000 0000 0000 0000
000003e0: 0000 0000 0000 0000 0000 0000 0000 0000
000003f0: 0000 0000 0000 0000 0000 0000 0000 0000
0.45179754 0.0 0.0 0.0 0.0 0.0 0.0 0.0
0.0 0.0 0.0 0.0 0.0 0.0 0.0 0.0
0.0 0.0 0.0 0.0 0.0 0.0 0.0 0.0
0.0 0.0 0.0 0.0 0.0 0.0 0.0 0.0
0.0 0.0 0.0 0.0 0.0 0.0 0.0 0.0
0.0 0.0 0.0 0.0 0.0 0.0 0.0 0.0
0.0 0.0 0.0 0.0 0.0 0.0 0.0 0.0
0.0 0.0 0.0 0.0 0.0 0.0 0.0 0.0
0.0 0.0 0.0 0.0 0.0 0.0 0.0 0.0
0.0 0.0 0.0 0.0 0.0 0.0 0.0 0.0
0.0 0.0 0.0 0.0 0.0 0.0 0.0 0.0
0.0 0.0 0.0 0.0 0.0 0.0 0.0 0.0
0.0 0.0 0.0 0.0 0.0 0.0 0.0 0.0
0.0 0.0 0.0 0.0 0.0 0.0 0.0 0.0
0.0 0.0 0.0 0.0 0.0 0.0 0.0 0.0
0.0 0.0 0.0 0.0 0.0 0.0 0.0 0.0
0.0 0.0 0.0 0.0 0.0 0.0 0.0 0.0
0.0 0.0 0.0 0.0 0.0 0.0 0.0 0.0
0.0 0.0 0.0 0.0 0.0 0.0 0.0 0.0
0.0 0.0 0.0 0.0 0.0 0.0 0.0 0.0
0.0 0.0 0.0 0.0 0.0 0.0 0.0 0.0
0.0 0.0 0.0 0.0 0.0 0.0 0.0 0.0
0.0 0.0 0.0 0.0 0.0 0.0 0.0 0.0
0.0 0.0 0.0 0.0 0.0 0.0 0.0 0.0
0.0 0.0 0.0 0.0 0.0 0.0 0.0 0.0
0.0 0.0 0.0 0.0 0.0 0.0 0.0 0.0
0.0 0.0 0.0 0.0 0.0 0.0 0.0 0.0
0.0 0.0 0.0 0.0 0.0 0.0 0.0 0.0
0.0 0.0 0.0 0.0 0.0 0.0 0.0 0.0
0.0 0.0 0.0 0.0 0.0 0.0 0.0 0.0
0.0 0.0 0.0 0.0 0.0 0.0 0.0 0.0
0.0 0.0 0.0 0.0 0.0 0.0 0.0 0.0

cov.base_kernel.raw_lengthscale f4 [1, 2]
00000000: 0e83 8d41 121d 8b41
17.688992 17.389194
