slam/rbpf_slam/data/results/svgp_particle2.pth (torch, 367369 bytes, 4 tensors)

variational_strategy.inducing_points f4 [300, 2]
87.65164 -97.09259 244.93925 -112.56286 316.5878 -141.20087 151.50674 -38.68756
159.14432 -146.87404 205.52133 -145.38599 217.57697 -162.41371 219.36758 -247.34422
288.8632 -112.83825 217.4159 -205.20464 235.65366 -72.81153 265.128 -45.288006
263.1625 -92.54296 129.26195 -183.08337 293.7235 -177.5683 375.44086 -57.868702
178.67265 -110.2725 267.24762 -166.91353 328.4167 -146.45567 202.17754 -256.39264
129.57912 -188.8628 220.66177 -139.62267 297.41 -53.47716 408.22708 -121.8975
132.1694 -74.43024 227.9261 -75.783844 281.23303 -120.75597 270.07968 -239.76782
113.89999 -153.71556 71.282906 -105.3023 243.45128 -43.70389 244.07823 -145.85474
255.28943 -255.25726 181.87582 -204.05402 237.84099 -239.51459 240.26086 -38.9773
318.4104 -90.07476 241.8028 -170.76208 321.66534 -30.949791 306.3209 -209.45856
188.2798 -230.21017 379.93155 -250.66637 259.53586 -212.42134 203.06204 -113.66511
224.80533 -205.60265 237.54945 -50.806522 357.25543 -158.02803 243.05325 -71.540565
180.95195 -236.56578 323.57886 -93.752945 151.19351 -76.802666 175.80788 -199.69078
127.031105 -181.26831 188.18639 -82.28925 221.48901 -181.10277 239.59387 -131.23918
280.74136 -234.31978 184.59224 -120.393875 286.55035 -128.13162 314.24005 -131.13974
193.79347 -46.807438 118.00451 -121.6177 153.13847 -93.56999 348.28705 -76.53529
177.58223 -224.98035 326.25653 -44.123672 134.05167 -167.65405 211.012 -243.00183
213.11 -37.136173 181.13464 -41.221947 293.78708 -260.81064 247.61449 -57.846813
241.23218 -253.36775 133.2209 -72.99419 166.17755 -190.76703 67.43787 -102.01591
353.92123 -220.07089 235.24025 -83.08596 105.78696 -151.65633 273.27203 -183.85785
241.09216 -266.28363 236.64558 -294.9393 76.15222 -116.19358 91.05438 -137.07887
234.01962 -292.28607 152.32356 -193.6529 309.08835 -298.39062 203.32417 -85.895096
213.07336 -201.4703 311.8815 -92.10441 86.55839 -133.38908 370.08014 -83.454865
377.44333 -210.15207 211.42815 -199.8496 412.68784 -94.85978 188.16962 -125.01512
170.54678 -173.53111 201.74075 -82.889404 345.85028 -33.479324 148.64035 -56.711475
213.27773 -242.79332 190.5688 -223.33707 180.16599 -118.44113 342.76147 -72.97491
175.4447 -159.92244 303.0573 -134.7851 98.25632 -151.43951 214.83029 -90.94836
392.0511 -171.79713 260.41125 -237.97418 218.05551 -257.1637 244.62117 -134.91824
200.59807 -32.880936 195.99121 -182.78018 243.05966 -133.46031 327.46432 -56.575535
202.28983 -211.2803 369.71765 -194.50897 318.28348 -129.29523 317.5938 -68.91275
320.0321 -128.86708 412.7364 -152.6744 177.87976 -39.07849 147.66725 -51.09893
307.88312 -192.21341 347.34146 -77.91669 194.93604 -131.52715 275.29626 -29.257336
00000000: a44d af42 682f c2c2 73f0 7443 2f20 e1c2
00000010: 3d4b 9e43 6c33 0dc3 ba81 1743 10c0 1ac2
00000020: f224 1f43 c1df 12c3 7685 4d43 d062 11c3
00000030: b493 5943 e969 22c3 1a5e 5b43 1f58 77c3
00000040: 7d6e 9043 2fad e1c2 786a 5943 6334 4dc3
00000050: 56a7 6b43 819f 91c2 6290 8443 eb26 35c2
00000060: cd94 8343 ff15 b9c2 0f43 0143 5815 37c3
00000070: 9cdc 9243 7c91 31c3 6eb8 bb43 8d79 67c2
00000080: 33ac 3243 858b dcc2 b29f 8543 dde9 26c3
00000090: 5635 a443 a774 12c3 732d 4a43 4232 80c3
000000a0: 4194 0143 e0dc 3cc3 6aa9 5c43 679f 0bc3
000000b0: 7bb4 9443 9de8 55c2 111d cc43 85cb f3c2
000000c0: 5e2b 0443 48dc 94c2 15ed 6343 5491 97c2
000000d0: d49d 8c43 0e83 f1c2 330a 8743 90c4 6fc3
000000e0: cbcc e342 2fb7 19c3 d990 8e42 c79a d2c2
000000f0: 8773 7343 c9d0 2ec2 0714 7443 d0da 11c3
00000100: 184a 7f43 dc41 7fc3 36e0 3543 d40d 4cc3
00000110: 4bd7 6d43 bc83 6fc3 c842 7043 c1e8 1bc2
00000120: 8834 9f43 4726 b4c2 84cd 7143 18c3 2ac3
00000130: 2ad5 a043 2c99 f7c1 1329 9943 6475 51c3
00000140: a147 3c43 ce35 66c3 3df7 bd43 97aa 7ac3
00000150: 97c4 8143 dd6b 54c3 e20f 4b43 8954 e3c2
00000160: 2ace 6043 479a 4dc3 a98c 6d43 e139 4bc2
00000170: b2a0 b243 2d07 1ec3 a20d 7343 c514 8fc2
00000180: b3f3 3443 d790 6cc3 18ca a143 8281 bbc2
00000190: 8a31 1743 f79a 99c2 d1ce 2f43 d7b0 47c3
000001a0: ed0f fe42 b044 35c3 b72f 3c43 1994 a4c2
000001b0: 307d 5d43 4f1a 35c3 0898 6f43 3b3d 03c3
000001c0: e55e 8c43 dd51 6ac3 9d97 3843 aac9 f0c2
000001d0: 7246 8f43 b221 00c3 ba1e 9d43 c623 03c3
000001e0: 21cb 4143 d13a 3bc2 4f02 ec42 433c f3c2
000001f0: 7323 1943 d623 bbc2 be24 ae43 1212 99c2
00000200: 0d95 3143 f8fa 60c3 d620 a343 a47e 30c2
00000210: 3a0d 0643 70a7 27c3 1203 5343 7800 73c3
00000220: 291c 5543 718b 14c2 7822 3543 46e3 24c2
00000230: bfe4 9243 c367 82c3 4f9d 7743 2363 67c2
00000240: 703b 7143 255e 7dc3 8d38 0543 06fd 91c2
00000250: 742d 2643 5cc4 3ec3 30e0 8642 2508 ccc2
00000260: ebf5 b043 2612 5cc3 813d 6b43 032c a6c2
00000270: ec92 d342 05a8 17c3 d2a2 8843 9cdb 37c3
00000280: 9817 7143 4e24 85c3 45a5 6c43 3b78 93c3
00000290: f04d 9842 1d63 e8c2 d81b b642 3114 09c3
000002a0: 0605 6a43 9e24 92c3 d552 1843 24a7 41c3
000002b0: 4f8b 9a43 0032 95c3 fd52 4b43 4aca abc2
000002c0: c812 5543 6678 49c3 d5f0 9b43 7535 b8c2
000002d0: e51d ad42 9b63 05c3 420a b943 e4e8 a6c2
000002e0: bfb8 bc43 ee26 52c3 9b6d 5343 7fd9 47c3
000002f0: 0b58 ce43 35b8 bdc2 6c2b 3c43 be07 fac2
00000300: fa8b 2a43 f787 2dc3 a2bd 4943 60c7 a5c2
00000310: d6ec ac43 d4ea 05c2 eea3 1443 8dd8 62c2
00000320: 1947 5543 17cb 72c3 9d91 3e43 4a56 5fc3
00000330: 7e2a 3443 dce1 ecc2 7861 ab43 27f3 91c2
00000340: d871 2f43 25ec 1fc3 5687 9743 fcc8 06c3
00000350: 3c83 c442 8470 17c3 8ed4 5643 8fe5 b5c2
00000360: 8a06 c443 11cc 2bc3 a434 8243 64f9 6dc3
00000370: 360e 5a43 f494 80c3 059f 7443 12eb 06c3
00000380: 1b99 4843 1486 03c2 c0fd 4343 bac7 36c3
00000390: 460f 7343 d775 05c3 6fbb a343 594d 62c2
000003a0: 324a 4a43 c247 53c3 dcdb b843 4c82 42c3
000003b0: 4924 9f43 944b 01c3 02cc 9e43 54d3 89c2
000003c0: 1c04 a043 f9dd 00c3 425e ce43 a5ac 18c3
000003d0: 38e1 3143 6050 1cc2 d1aa 1343 4e65 4cc2
000003e0: 0af1 9943 a236 40c3 b5ab ad43 58d5 9bc2
000003f0: a0ef 4243 f386 03c3 eca5 8943 060f eac1

variational_strategy._variational_distribution.variational_mean f4 [300]
-11.9811325 -13.467959 -14.599626 -12.147362 -13.387702 -10.809357 -8.26783 -14.751065
-9.105069 -10.301774 -10.905436 -10.875166 -4.077414 -12.897067 -11.951828 -11.555888
-9.939314 -6.879464 -6.3322716 -9.696693 -2.7564745 -4.082333 -8.70284 -12.344927
-7.7984147 -4.3024535 -1.7658017 -12.727917 -10.182997 -6.312931 -6.315002 -3.1931372
-6.8509307 -8.851194 -4.151642 -4.726838 -8.102928 -2.861448 -6.5040374 -11.15729
-4.6437716 -8.988057 -3.8722372 -3.8951056 -2.474014 -2.5142756 -10.265752 -4.796049
-3.8916156 -2.6420913 -3.5668068 -3.608774 -2.1780598 -4.4659944 -3.1506271 -4.262851
-3.8836873 -1.4486405 -1.6406727 -1.6786406 -6.340065 -6.4724836 -2.9864013 -5.047466
-2.4667242 -2.1109807 -3.2372572 -0.20175779 -2.5400555 -3.5123458 -9.623115 -0.88312906
-3.410201 -0.3829781 -3.5969412 -0.07352986 -8.295308 -2.4198203 -3.9657805 -2.9765894
-6.8351097 -9.169864 -3.276593 -1.6767035 -0.24258813 -2.1679583 -11.399451 -1.5341856
-3.9262445 -2.0839584 -0.67028093 -4.1958094 -5.442988 -2.5386252 -6.9190354 -3.0090585
-3.4710608 -0.41184482 -3.356101 -1.0350066 -2.1449656 -3.638459 -2.6804776 -0.8674612
-2.8736184 -0.5921254 -1.4005675 -0.779542 -9.764646 -1.4684901 -2.0208554 -2.3074698
-1.7624767 -1.0774128 0.31830943 -1.2578406 -1.700948 -1.7789564 -2.3823104 -0.6341382
-0.81624144 -5.851045 -1.4457127 0.2871461 -2.0112987 -1.0963911 0.02699947 -3.939054
-0.9906031 -2.8461926 -0.89873105 -1.8249894 -1.8634641 -1.1917578 -5.9271846 -0.8628089
-1.2887586 -2.4091184 -2.536215 -4.806105 -0.7032951 -1.6827635 -6.379841 0.094234616
-1.1563569 -0.8620814 -1.9130821 -0.91842294 -1.2176001 -0.59161586 -0.15399967 -1.759021
-0.23980007 -1.4837931 -1.3100933 -0.8952351 -0.7634645 -0.20090225 -1.682071 -0.70165676
-1.0824614 -0.43525338 -0.3137636 -0.5589011 -3.5166 -1.9873867 -0.42983043 -0.37451357
-1.1662309 -2.0554745 -1.6567198 0.2974934 -7.4672503 -3.5050085 -2.3396852 -0.52172714
-7.518393 -0.2787498 -0.15439005 -0.53655094 -1.1190125 -4.923572 -4.2550898 -2.9734838
-0.5610749 0.041818816 -0.1704706 -0.1354612 -1.5733367 -1.923276 -0.032896973 -0.872134
-0.78686494 -0.7861615 -0.82369846 -2.1395118 -1.1531656 -0.14402549 -2.731721 -0.20281513
0.054483797 -0.46423993 -0.707881 -0.21650195 -6.960742 -5.5752354 -1.5596762 -0.6814832
-0.046776175 -0.17653276 -1.4053551 -1.1340129 0.022116011 -0.08680347 -0.49290678 -0.39624703
-1.0054172 -0.41425207 -0.68995774 -0.42264402 -1.6036068 -0.14244735 -0.4014212 -0.42788926
-0.22639221 -4.8950477 -0.41702393 -0.33778885 -0.4701512 -0.5993647 -6.326434 0.1844378
-3.3382456 -1.82821 -0.07472998 -0.4781635 -0.7850995 -0.16420743 -1.0173333 -2.5082755
-0.062427215 -0.28716126 -0.13758732 -1.4961795 0.018155918 -0.015357822 -2.1143467 -0.63472104
-7.0680118 -1.2642095 -0.22019476 -0.61485803 -2.0939848 -0.34156296 -0.13596393 -0.318583
00000000: b8b2 3fc1 c37c 57c1 1198 69c1 985b 42c1
00000010: 0734 56c1 20f3 2cc1 0849 04c1 5d04 6cc1
00000020: 5dae 11c1 11d4 24c1 aa7c 2ec1 ae00 2ec1
00000030: 2d7a 82c0 635a 4ec1 b03a 3fc1 ebe4 38c1
00000040: 6e07 1fc1 9224 dcc0 f8a1 cac0 a825 1bc1
00000050: 146a 30c0 79a2 82c0 d53e 0bc1 d284 45c1
00000060: 9d8c f9c0 b3ad 89c0 ca05 e2bf 8ca5 4bc1
00000070: 8eed 22c1 8803 cac0 7f14 cac0 5c5c 4cc0
00000080: d33a dbc0 7e9e 0dc1 40da 84c0 4242 97c0
00000090: 98a5 01c1 f721 37c0 1321 d0c0 4384 32c1
000000a0: c799 94c0 15cf 0fc1 bcd2 77c0 6949 79c0
000000b0: 3f56 1ec0 e4e9 20c0 8540 24c1 3c79 99c0
000000c0: 3b10 79c0 0618 29c0 9046 64c0 27f6 66c0
000000d0: 5565 0bc0 6de9 8ec0 e0a3 49c0 4769 88c0
000000e0: 558e 78c0 0d6d b9bf 9001 d2bf b2dd d6bf
000000f0: d0e1 cac0 961e cfc0 3321 3fc0 d784 a1c0
00000100: cfde 1dc0 4f1a 07c0 392f 4fc0 9899 4ebe
00000110: 4590 22c0 46ca 60c0 47f8 19c1 bf14 62bf
00000120: bc40 5ac0 b515 c4be 4934 66c0 d396 96bd
00000130: 95b9 04c1 56de 1ac0 59cf 7dc0 7180 3ec0
00000140: 38b9 dac0 c3b7 12c1 b3b3 51c0 389e d6bf
00000150: 0669 78be d4bf 0ac0 2764 36c1 3260 c4bf
00000160: 9747 7bc0 935f 05c0 8897 2bbf 1244 86c0
00000170: f52c aec0 d678 22c0 bd68 ddc0 6a94 40c0
00000180: dc25 5ec0 53dd d2be 5cca 56c0 197b 84bf
00000190: 1e47 09c0 83dc 68c0 f28c 2bc0 f011 5ebf
000001a0: 5de9 37c0 8895 17bf cc45 b3bf 1190 47bf
000001b0: fd3b 1cc1 7cf7 bbbf b255 01c0 96ad 13c0
000001c0: d698 e1bf aae8 89bf 74f9 a23e ec00 a1bf
000001d0: aab8 d9bf d8b4 e3bf c677 18c0 e256 22bf
000001e0: 33f5 50bf c33b bbc0 1d0d b9bf d004 933e
000001f0: 1eb9 00c0 8b56 8cbf fe2d dd3c 7619 7cc0
00000200: 2a98 7dbf 0528 36c0 3d13 66bf 4199 e9bf
00000210: fe85 eebf 858b 98bf 7fab bdc0 0be1 5cbf
00000220: 0bf6 a4bf ff2e 1ac0 5951 22c0 9dcb 99c0
00000230: 260b 34bf cb64 d7bf a827 ccc0 14fe c03d
00000240: 8103 94bf 5eb1 5cbf e0df f4bf c41d 6bbf
00000250: 52da 9bbf 2374 17bf 17b2 1dbe 9a27 e1bf
00000260: 268e 75be efec bdbf 23b1 a7bf 212e 65bf
00000270: 6972 43bf 52b9 4dbe 1a4e d7bf c79f 33bf
00000280: 188e 8abf 88d9 debe 9fa5 a0be 2414 0fbf
00000290: f90f 61c0 b062 febf bc12 dcbe 3ec0 bfbe
000002a0: 0e47 95bf e58c 03c0 650f d4bf 0e51 983e
000002b0: b7f3 eec0 0f52 60c0 67bd 15c0 e98f 05bf
000002c0: ad96 f0c0 4bb8 8ebe 6d18 1ebe 675b 09bf
000002d0: cd3b 8fbf e78d 9dc0 b229 88c0 8f4d 3ec0
000002e0: 9ba2 0fbf 354a 2b3d d88f 2ebe 57b6 0abe
000002f0: 1963 c9bf e82d f6bf fabe 06bd 2c44 5fbf
00000300: fb6f 49bf e141 49bf e7dd 52bf c3ed 08c0
00000310: ee9a 93bf 6b7b 13be 84d4 2ec0 c5ae 4fbe
00000320: 672a 5f3d dbb0 edbe b037 35bf b0b2 5dbe
00000330: 66be dec0 5468 b2c0 78a3 c7bf af75 2ebf
00000340: 6098 3fbd 01c5 34be ade2 b3bf 5627 91bf
00000350: a32c b53c 05c6 b1bd 475e fcbe e4e0 cabe
00000360: 83b1 80bf d918 d4be 12a1 30bf cc64 d8be
00000370: fd42 cdbf b8dd 11be 1487 cdbe 4d14 dbbe
00000380: 5cd3 67be 3ba4 9cc0 2984 d5be a9f2 acbe
00000390: a8b7 f0be f76f 19bf 2672 cac0 43dd 3c3e
000003a0: d1a5 55c0 c902 eabf 080c 99bd d9d1 f4be
000003b0: 48fc 48bf fe25 28be fa37 82bf 9687 20c0
000003c0: aeb3 7fbd cd06 93be b1e3 0cbe cf82 bfbf
000003d0: b8bb 943c 609f 7bbc 7551 07c0 147d 22bf
000003e0: 272d e2c0 9ed1 a1bf bc7a 61be 5667 1dbf
000003f0: d903 06c0 57e1 aebe 213a 0bbe 501d a3be

variational_strategy._variational_distribution.chol_variational_covar f4 [300, 300]
0.60968494 0.0 0.0 0.0 0.0 0.0 0.0 0.0
0.0 0.0 0.0 0.0 0.0 0.0 0.0 0.0
0.0 0.0 0.0 0.0 0.0 0.0 0.0 0.0
0.0 0.0 0.0 0.0 0.0 0.0 0.0 0.0
0.0 0.0 0.0 0.0 0.0 0.0 0.0 0.0
0.0 0.0 0.0 0.0 0.0 0.0 0.0 0.0
0.0 0.0 0.0 0.0 0.0 0.0 0.0 0.0
0.0 0.0 0.0 0.0 0.0 0.0 0.0 0.0
0.0 0.0 0.0 0.0 0.0 0.0 0.0 0.0
0.0 0.0 0.0 0.0 0.0 0.0 0.0 0.0
0.0 0.0 0.0 0.0 0.0 0.0 0.0 0.0
0.0 0.0 0.0 0.0 0.0 0.0 0.0 0.0
0.0 0.0 0.0 0.0 0.0 0.0 0.0 0.0
0.0 0.0 0.0 0.0 0.0 0.0 0.0 0.0
0.0 0.0 0.0 0.0 0.0 0.0 0.0 0.0
0.0 0.0 0.0 0.0 0.0 0.0 0.0 0.0
0.0 0.0 0.0 0.0 0.0 0.0 0.0 0.0
0.0 0.0 0.0 0.0 0.0 0.0 0.0 0.0
0.0 0.0 0.0 0.0 0.0 0.0 0.0 0.0
0.0 0.0 0.0 0.0 0.0 0.0 0.0 0.0
0.0 0.0 0.0 0.0 0.0 0.0 0.0 0.0
0.0 0.0 0.0 0.0 0.0 0.0 0.0 0.0
0.0 0.0 0.0 0.0 0.0 0.0 0.0 0.0
0.0 0.0 0.0 0.0 0.0 0.0 0.0 0.0
0.0 0.0 0.0 0.0 0.0 0.0 0.0 0.0
0.0 0.0 0.0 0.0 0.0 0.0 0.0 0.0
0.0 0.0 0.0 0.0 0.0 0.0 0.0 0.0
0.0 0.0 0.0 0.0 0.0 0.0 0.0 0.0
0.0 0.0 0.0 0.0 0.0 0.0 0.0 0.0
0.0 0.0 0.0 0.0 0.0 0.0 0.0 0.0
0.0 0.0 0.0 0.0 0.0 0.0 0.0 0.0
0.0 0.0 0.0 0.0 0.0 0.0 0.0 0.0
00000000: 5014 1c3f 0000 0000 0000 0000 0000 0000
00000010: 0000 0000 0000 0000 0000 0000 0000 0000
00000020: 0000 0000 0000 0000 0000 0000 0000 0000
00000030: 0000 0000 0000 0000 0000 0000 0000 0000
00000040: 0000 0000 0000 0000 0000 0000 0000 0000
00000050: 0000 0000 0000 0000 0000 0000 0000 0000
00000060: 0000 0000 0000 0000 0000 0000 0000 0000
00000070: 0000 0000 0000 0000 0000 0000 0000 0000
00000080: 0000 0000 0000 0000 0000 0000 0000 0000
00000090: 0000 0000 0000 0000 0000 0000 0000 0000
000000a0: 0000 0000 0000 0000 0000 0000 0000 0000
000000b0: 0000 0000 0000 0000 0000 0000 0000 0000
000000c0: 0000 0000 0000 0000 0000 0000 0000 0000
000000d0: 0000 0000 0000 0000 0000 0000 0000 0000
000000e0: 0000 0000 0000 0000 0000 0000 0000 0000
000000f0: 0000 0000 0000 0000 0000 0000 0000 0000
00000100: 0000 0000 0000 0000 0000 0000 0000 0000
00000110: 0000 0000 0000 0000 0000 0000 0000 0000
00000120: 0000 0000 0000 0000 0000 0000 0000 0000
00000130: 0000 0000 0000 0000 0000 0000 0000 0000
00000140: 0000 0000 0000 0000 0000 0000 0000 0000
00000150: 0000 0000 0000 0000 0000 0000 0000 0000
00000160: 0000 0000 0000 0000 0000 0000 0000 0000
00000170: 0000 0000 0000 0000 0000 0000 0000 0000
00000180: 0000 0000 0000 0000 0000 0000 0000 0000
00000190: 0000 0000 0000 0000 0000 0000 0000 0000
000001a0: 0000 0000 0000 0000 0000 0000 0000 0000
000001b0: 0000 0000 0000 0000 0000 0000 0000 0000
000001c0: 0000 0000 0000 0000 0000 0000 0000 0000
000001d0: 0000 0000 0000 0000 0000 0000 0000 0000
000001e0: 0000 0000 0000 0000 0000 0000 0000 0000
000001f0: 0000 0000 0000 0000 0000 0000 0000 0000
00000200: 0000 0000 0000 0000 0000 0000 0000 0000
00000210: 0000 0000 0000 0000 0000 0000 0000 0000
00000220: 0000 0000 0000 0000 0000 0000 0000 0000
00000230: 0000 0000 0000 0000 0000 0000 0000 0000
00000240: 0000 0000 0000 0000 0000 0000 0000 0000
00000250: 0000 0000 0000 0000 0000 0000 0000 0000
00000260: 0000 0000 0000 0000 0000 0000 0000 0000
00000270: 0000 0000 0000 0000 0000 0000 0000 0000
00000280: 0000 0000 0000 0000 0000 0000 0000 0000
00000290: 0000 0000 0000 0000 0000 0000 0000 0000
000002a0: 0000 0000 0000 0000 0000 0000 0000 0000
000002b0: 0000 0000 0000 0000 0000 0000 0000 0000
000002c0: 0000 0000 0000 0000 0000 0000 0000 0000
000002d0: 0000 0000 0000 0000 0000 0000 0000 0000
000002e0: 0000 0000 0000 0000 0000 0000 0000 0000
000002f0: 0000 0000 0000 0000 0000 0000 0000 0000
00000300: 0000 0000 0000 0000 0000 0000 0000 0000
00000310: 0000 0000 0000 0000 0000 0000 0000 0000
00000320: 0000 0000 0000 0000 0000 0000 0000 0000
00000330: 0000 0000 0000 0000 0000 0000 0000 0000
00000340: 0000 0000 0000 0000 0000 0000 0000 0000
00000350: 0000 0000 0000 0000 0000 0000 0000 0000
00000360: 0000 0000 0000 0000 0000 0000 0000 0000
00000370: 0000 0000 0000 0000 0000 0000 0000 0000
00000380: 0000 0000 0000 0000 0000 0000 0000 0000
00000390: 0000 0000 0000 0000 0000 0000 0000 0000
000003a0: 0000 0000 0000 0000 0000 0000 0000 0000
000003b0: 0000 0000 0000 0000 0000 0000 0000 0000
000003c0: 0000 0000 0000 0000 0000 0000 0000 0000
000003d0: 0000 0000 0000 0000 0000 0000 0000 0000
000003e0: 0000 0000 0000 0000 0000 0000 0000 0000
000003f0: 0000 0000 0000 0000 0000 0000 0000 0000

cov.base_kernel.raw_lengthscale f4 [1, 2]
25.467249 25.025465
00000000: edbc cb41 2734 c841
