slam/rbpf_slam/data/results/svgp_particle4.pth (torch, 367369 bytes, 4 tensors)

variational_strategy.inducing_points f4 [300, 2]
000000 93 bb a7 42 df 9d 60 c3 ec 73 08 c1 aa de 96 c3
       83.866356 -224.61668 -8.528301 -301.73956
000010 e5 c3 47 42 f9 d0 83 c3 9e a4 22 42 5c 2c d0 c3
       49.941303 -263.6326 40.66076 -416.34656
000020 37 79 82 c2 3c 67 85 c3 f2 2d 3e c2 fc 35 c7 c3
       -65.23675 -266.80652 -47.54487 -398.42175
000030 6b 2f 62 42 81 77 5f c3 33 62 d9 42 ea d4 b9 c3
       56.546307 -223.46681 108.691795 -371.6634
000040 f4 08 2d 43 74 a5 9f c3 3e 00 f8 42 2a 88 56 c3
       173.03497 -319.2926 124.00047 -214.53189
000050 32 dd 33 42 b7 02 20 c3 7d 9f 5f c2 aa 6a a6 c3
       44.96601 -160.0106 -55.90575 -332.8333
000060 21 a6 0c 43 21 71 b3 c3 7e 86 db 42 7a fb 94 c3
       140.64894 -358.88382 109.76268 -297.96466
000070 2d fa b4 c2 1c fd 62 c3 33 22 1b 43 ea df ae c3
       -90.488625 -226.98871 155.13359 -349.74933
000080 19 72 81 c2 c0 e5 42 c3 83 1d 86 42 ad ac 7f c3
       -64.72285 -194.89746 67.05764 -255.67451
000090 49 1c e9 c1 24 a9 52 c3 e4 d0 36 c1 4b d9 a5 c3
       -29.138811 -210.6607 -11.425999 -331.6976
0000a0 d2 90 e4 42 fa ba 7d c3 9f bb c7 42 26 ef 98 c3
       114.28285 -253.73038 99.86645 -305.86835
0000b0 4b ed 94 c1 62 66 4c c3 ab b8 d3 42 8c a1 42 c3
       -18.615866 -204.39993 105.86068 -194.63104
0000c0 8c 7f 8c 42 34 3a d9 c3 6a 3e 96 42 15 9c 05 c3
       70.249115 -434.4547 75.1219 -133.6097
0000d0 e4 13 45 42 fe 3f 5a c3 4f af 80 c2 59 09 32 c3
       49.269424 -218.24997 -64.3424 -178.03651
0000e0 a2 05 1b c0 34 6e 8d c3 14 ac c3 42 32 70 8e c3
       -2.4222188 -282.86096 97.83609 -284.87653
0000f0 b5 6a ee c0 14 9c 74 c3 7e 91 53 42 42 99 85 c3
       -7.4505258 -244.60968 52.892082 -267.19733
000100 57 d1 f2 42 b2 68 be c3 bd 5c 65 c2 04 14 80 c3
       121.40887 -380.81793 -57.340565 -256.15637
000110 d1 0c 8e c2 46 30 8c c3 81 ca e3 c1 49 19 a2 c3
       -71.02503 -280.37714 -28.473879 -324.19754
000120 14 cd 30 42 1c 7d c5 c3 63 50 56 42 72 c8 65 c3
       44.20027 -394.97742 53.578503 -229.78299
000130 a2 df 0e 42 a5 67 25 c3 b7 69 8a 42 f9 6d 8b c3
       35.71839 -165.40486 69.206474 -278.85916
000140 2d 37 7b c2 63 ff b4 c3 90 2c 55 c2 20 b1 42 c3
       -62.803883 -361.9952 -53.293518 -194.6919
000150 8d 5f 9d 42 10 fc 6b c3 d6 eb d4 41 8f 71 67 c3
       78.68662 -235.98462 26.615154 -231.44359
000160 80 8c 38 42 ef 69 87 c3 13 81 81 c2 89 44 90 c3
       46.137207 -270.8276 -64.7521 -288.53543
000170 84 d7 d3 42 8e bc 0e c3 4e 17 76 bd 36 a8 a2 c3
       105.92093 -142.73654 -0.06008082 -325.31415
000180 ce a8 7f c2 cf c0 96 c3 db 60 30 42 e0 a0 44 c3
       -63.91485 -301.50632 44.094585 -196.62842
000190 f5 aa 92 42 7b 98 8f c3 3f da 8a c2 0f 81 a4 c3
       73.3339 -287.19125 -69.42626 -329.00827
0001a0 5c fb 00 43 ff 59 5b c3 2d 43 5f bf 7d d7 7c c3
       128.98187 -219.35155 -0.8721188 -252.84175
0001b0 0d 1f d4 42 92 80 8c c3 47 0f 2e c2 55 ea 38 c3
       106.060646 -281.00446 -43.51492 -184.91536
0001c0 34 c5 ab c1 c5 0b 19 c3 d7 36 87 3f 7d 1f 4e c3
       -21.47129 -153.04597 1.0563611 -206.123
0001d0 2a 6b 93 42 d5 a8 cb c2 85 03 b1 41 69 b7 26 c3
       73.709305 -101.82975 22.126719 -166.71645
0001e0 78 eb 60 c2 44 f8 e9 c3 b6 40 f3 42 c8 17 52 c3
       -56.22995 -467.93958 121.62639 -210.0929
0001f0 61 1c 4d 42 bd 6d 6e c3 a8 d2 84 42 69 17 0e c3
       51.277714 -238.42867 66.41144 -142.09145
000200 69 4a 12 c2 84 e2 e5 c3 1a 76 b2 c2 f6 39 97 c3
       -36.572666 -459.76965 -89.23067 -302.45282
000210 f3 30 2b 42 b7 ff b8 c3 c3 b8 aa 42 c0 be 5c c3
       42.797802 -369.99777 85.36086 -220.74512
000220 1b f5 47 c2 ac dc 82 c3 0d 97 bd c2 58 8f 4a c3
       -49.98936 -261.724 -94.79502 -202.55994
000230 a9 04 1a 43 e5 0d 85 c3 1e 64 0f 43 91 a4 90 c3
       154.0182 -266.10855 143.39108 -289.28568
000240 8d b1 2d 3f 9a 6b 83 c3 aa 42 97 c2 20 9c bb c3
       0.67849046 -262.84064 -75.6302 -375.21973
000250 b0 74 7d 42 2a 15 f7 c2 da 5d 59 42 ce f4 79 c3
       63.363953 -123.541336 54.341652 -249.95627
000260 66 04 33 c1 9d 75 68 c3 e5 ac 89 42 0a 6e c4 c3
       -11.188574 -232.45943 68.837685 -392.85968
000270 98 b3 56 42 14 00 9d c3 4d 5a f4 c0 21 30 8f c3
       53.675385 -314.0006 -7.636023 -286.376
000280 af 55 16 c1 a5 eb 88 c3 6b 3a ac 40 46 4f 0d c3
       -9.395919 -273.84097 5.382131 -141.30966
000290 fd 86 51 c2 99 a4 9e c3 0a d9 f8 3f 79 d5 9d c3
       -52.381824 -317.28592 1.9441235 -315.66776
0002a0 15 bd 59 42 8c db 4e c3 80 5d b1 c2 1f 1d 55 c3
       54.43465 -206.8576 -88.68262 -213.11375
0002b0 84 a2 b2 41 11 a1 0e c3 cc 31 2f 42 f8 e7 74 c3
       22.329353 -142.62917 43.79863 -244.90613
0002c0 4e 5d ee 41 a9 6f b6 c3 d3 3b ce 42 ca 6c c2 c3
       29.795559 -364.87234 103.116844 -388.8499
0002d0 c1 6f bb c2 7d f6 a3 c3 a1 d7 b1 c2 8c f5 a8 c3
       -93.71827 -327.9257 -88.92115 -337.91833
0002e0 1a 38 38 42 29 c9 7d c3 bd 89 92 40 70 bb 87 c3
       46.054787 -253.78578 4.5793138 -271.46436
0002f0 56 66 9c c2 4b b6 4f c3 f6 08 b9 c2 bb 3b c2 c3
       -78.199875 -207.71208 -92.5175 -388.46664
000300 9d f3 d5 c1 37 aa 66 c3 34 86 96 42 4a da 63 c3
       -26.743952 -230.6649 75.262115 -227.85269
000310 ba 6b 94 c2 bb 0e ab c3 91 6c c7 c2 dd f3 54 c3
       -74.2104 -342.11508 -99.71204 -212.95259
000320 fe f0 c1 c2 6f 4b 66 c3 d2 4a 47 41 40 ca 2b c3
       -96.97069 -230.29466 12.455767 -171.79004
000330 ce 88 01 43 70 e4 b8 c3 d1 25 6f c2 95 df 19 c3
       129.5344 -369.78467 -59.78693 -153.87337
000340 44 80 31 43 81 04 b6 c3 91 d4 6c 42 68 d0 16 c3
       177.50104 -364.0352 59.207584 -150.81409
000350 b8 e2 1a 42 a8 3e 42 c3 1f 12 1c 43 72 42 96 c3
       38.721405 -194.24475 156.07079 -300.5191
000360 bd ed bd 42 f2 90 3d c3 21 4f 8f c1 c2 3c c6 c3
       94.96433 -189.5662 -17.913637 -396.47467
000370 8e cd 61 42 8e ea 91 c3 44 f4 ff c1 1e a5 85 c3
       56.450737 -291.83246 -31.99427 -267.28998
000380 38 d3 d3 42 6d 4c 4f c3 a7 49 94 c2 c1 c7 cd c3
       105.91254 -207.29854 -74.14385 -411.56058
000390 55 33 07 42 57 6a 4b c3 c5 e1 9d 42 c3 3a 34 c3
       33.80013 -203.41539 78.940956 -180.22954
0003a0 f4 4d e3 42 de 56 5a c3 c2 dc 76 c2 bf b8 a9 c3
       113.65225 -218.33932 -61.715584 -339.44333
0003b0 0c 2f e6 42 ee db 8b c3 8a 75 17 42 51 23 2a c3
       115.09189 -279.7182 37.864784 -170.13795
0003c0 1c 9b b9 42 4a bc 88 c3 51 74 5e 42 b3 35 0e c3
       92.80295 -273.471 55.61359 -142.20976
0003d0 16 81 28 bf 1a 33 5a c3 fb 05 15 40 87 b9 96 c3
       -0.6582197 -218.19962 2.32849 -301.44943
0003e0 23 bc bc c2 00 85 33 c3 69 c1 c9 42 3f cc 83 c3
       -94.367455 -179.51953 100.877754 -263.59567
0003f0 13 2c d1 42 09 5b 9d c3 7c 55 aa c1 dd 0f 8e c3
       104.58608 -314.7112 -21.29174 -284.12393

variational_strategy._variational_distribution.variational_mean f4 [300]
000000 b5 66 64 c1 75 0d 6d c1 ba 40 62 c1 8a 54 2e c1
       -14.275075 -14.815785 -14.140802 -10.895639
000010 30 0d 5b c1 16 32 48 c1 ce c2 50 c1 df 07 24 c1
       -13.69072 -12.512228 -13.04756 -10.251922
000020 9f b0 53 c1 b1 51 66 c1 86 a9 5a c1 f4 f6 66 c1
       -13.23062 -14.394944 -13.666388 -14.435291
000030 5c 72 28 c1 d8 a0 5e c1 bf 82 49 c1 d7 df 1b c1
       -10.52792 -13.9142685 -12.59442 -9.742148
000040 8a 77 51 c1 ee 96 47 c1 26 35 4a c1 e2 eb 36 c1
       -13.091684 -12.474348 -12.637976 -11.432589
000050 83 7f 53 c1 48 64 2d c1 23 c8 2c c1 a1 22 5a c1
       -13.218631 -10.836983 -10.7988615 -13.633454
000060 c1 59 2b c1 22 55 43 c1 86 aa 15 c1 d7 ea 2d c1
       -10.709413 -12.208284 -9.354132 -10.869834
000070 74 20 47 c1 64 e7 2e c1 5c 61 4e c1 02 f2 df c0
       -12.445423 -10.931492 -12.898769 -6.998292
000080 21 65 f0 c0 5b 19 fa c0 29 4b 4d c1 66 1d 47 c1
       -7.512345 -7.815595 -12.83085 -12.444677
000090 36 b4 64 c1 0f 37 15 c1 cd 7e 18 c1 24 55 2e c1
       -14.293997 -9.325942 -9.530957 -10.895786
0000a0 66 08 62 c1 91 29 04 c1 de eb 0c c1 10 9c 39 c1
       -14.12705 -8.260148 -8.807585 -11.600601
0000b0 14 bb 1f c1 45 d4 15 c1 b9 2e 0f c1 04 eb 2f c1
       -9.983173 -9.364324 -8.948907 -10.994877
0000c0 3c ce 40 c1 d3 87 31 c1 20 7f e3 c0 75 d5 3c c1
       -12.05035 -11.09566 -7.109268 -11.802114
0000d0 5c 5c eb c0 72 85 e7 c0 6c 75 14 c1 f1 55 e3 c0
       -7.3550243 -7.2350397 -9.278667 -7.104241
0000e0 2b fc 0d c1 44 f0 16 c1 3c 85 00 c1 89 73 18 c1
       -8.874064 -9.433659 -8.032528 -9.528207
0000f0 bf f6 28 c1 b9 a8 14 c1 d7 e6 12 c1 10 38 07 c1
       -10.560241 -9.291192 -9.181357 -8.451187
000100 17 a8 17 c1 d4 42 30 c1 98 5f 5e c1 d0 39 21 c1
       -9.478538 -11.016315 -13.898338 -10.076614
000110 5f f7 04 c1 5b c7 2f c1 f1 19 46 c1 57 c5 48 c1
       -8.310393 -10.986171 -12.381333 -12.548179
000120 62 fa 0c c1 e8 31 38 c1 2b b3 17 c1 d2 55 b8 c0
       -8.811129 -11.512184 -9.481242 -5.760476
000130 90 73 16 c1 1d 27 3e c1 d6 de 5b c1 4e 55 e4 c0
       -9.4032135 -11.884549 -13.741903 -7.135413
000140 be 70 a2 c0 76 da 11 c1 d4 f6 cf c0 16 01 1b c1
       -5.0762625 -9.115835 -6.4988804 -9.687765
000150 44 8a 0f c1 85 04 4a c0 c8 91 10 c1 3d 99 ef c0
       -8.971256 -3.1565259 -9.035591 -7.487456
000160 e7 92 33 c1 d9 70 b1 c0 51 3e 1d c1 15 2c 1d c1
       -11.223365 -5.5450253 -9.827714 -9.823262
000170 3a b9 9a c0 fb 48 ed c0 d5 55 b5 c0 d8 33 11 c1
       -4.8351107 -7.4151587 -5.6667275 -9.075157
000180 14 1f 0b c1 4c ec ca c0 33 81 06 c1 18 09 9d c0
       -8.695087 -6.341345 -8.406543 -4.90736
000190 d8 d9 00 c1 14 68 e8 c0 2d a1 a0 c0 a8 9d c2 c0
       -8.0531845 -7.262705 -5.019675 -6.081745
0001a0 99 48 21 c1 09 ac ed c0 7c 71 b0 c0 05 4d 17 c1
       -10.080224 -7.4272504 -5.513853 -9.456304
0001b0 95 19 13 c1 4d 05 22 c1 3b cd 0b c1 7b 4b 22 c1
       -9.193746 -10.126294 -8.737605 -10.143428
0001c0 52 96 f8 c0 84 fb 39 c1 02 c2 e2 c0 d6 7f 2a c1
       -7.7683496 -11.623905 -7.0861826 -10.65621
0001d0 06 7a e1 c0 aa 09 8d c0 31 e9 0a c1 73 31 da c0
       -7.0461454 -4.4074297 -8.6819315 -6.8185363
0001e0 f2 8f 12 c1 ec d8 6f c0 61 24 d2 c0 de 43 10 c1
       -9.160143 -3.7476149 -6.566941 -9.016569
0001f0 a2 f5 0b c1 95 54 9b c0 60 91 20 c1 7c 4e 05 c1
       -8.747469 -4.854075 -10.035492 -8.331661
000200 73 e8 f4 c0 27 e1 bc c0 07 43 a8 c0 5a da 10 c1
       -7.653375 -5.9024844 -5.258182 -9.0533085
000210 1a d9 33 c1 ac 12 ba c0 6f 22 e2 c0 b9 78 97 c0
       -11.240503 -5.8147793 -7.0667033 -4.7334867
000220 8b ce 02 c1 17 ee f5 c0 f3 0f f9 c0 99 f0 40 c1
       -8.175426 -7.6853137 -7.783197 -12.05874
000230 ef 89 2d c1 49 e2 05 c1 48 d1 88 c0 99 f9 1f c0
       -10.846175 -8.367745 -4.275547 -2.4996092
000240 a9 26 14 c1 f2 d8 8b c0 d7 ee 18 c0 97 c0 31 c1
       -9.2594385 -4.3702326 -2.3895776 -11.109519
000250 7e 9d b8 c0 ab 74 ad c0 8d fa d1 c0 87 7c bc c0
       -5.769225 -5.4204917 -6.561835 -5.890201
000260 d6 da 2e c1 47 fc 27 c0 20 f2 e5 c0 ca d6 e7 c0
       -10.928427 -2.6247728 -7.1858063 -7.2449694
000270 cc 76 19 c1 80 b5 31 c0 69 5c b0 c0 4f e4 14 c1
       -9.591503 -2.776703 -5.5112805 -9.305739
000280 b4 aa 2f c0 2e 97 fa c0 db e9 05 c1 d6 85 7a c0
       -2.744794 -7.8309546 -8.369594 -3.9144187
000290 b3 59 8e c0 64 17 02 c1 b4 52 0d c1 c8 65 94 c0
       -4.4484496 -8.130711 -8.832691 -4.6374245
0002a0 f8 a8 dd c0 1c 36 09 c1 41 dd f8 c0 70 8a d1 c0
       -6.926876 -8.57571 -7.7770085 -6.548149
0002b0 9f 81 28 c1 85 fb a3 c0 ec ab 7b c0 27 94 cc c0
       -10.531646 -5.124453 -3.9323683 -6.393085
0002c0 c4 59 47 c0 d1 be b6 c0 f0 03 23 c1 d9 b4 00 c1
       -3.1148539 -5.710793 -10.188461 -8.044152
0002d0 eb c9 da c0 d0 f4 19 bf d3 c5 00 c1 20 63 99 c0
       -6.837148 -0.6013918 -8.048297 -4.79335
0002e0 3c 05 0b c1 47 d1 f8 c0 00 d3 5f c0 c8 9b f4 c0
       -8.688778 -7.7755466 -3.4972534 -7.6440163
0002f0 37 9a b4 c0 a2 b7 d5 c0 d8 65 b7 c0 2c c6 96 c0
       -5.643825 -6.678666 -5.731182 -4.711691
000300 ee 5e e5 c0 44 ed d4 c0 34 e0 c8 c0 13 a2 da c0
       -7.167838 -6.653963 -6.2773685 -6.8322845
000310 79 23 7d c0 0b b7 e2 c0 98 4a 33 c0 38 5a c6 c0
       -3.95529 -7.084844 -2.8014278 -6.198513
000320 18 e8 68 c0 0e 25 35 c1 0f 58 e5 c0 bb 7c 14 c1
       -3.6391659 -11.321547 -7.1669993 -9.280452
000330 7f 4b a0 c0 99 92 0c c1 cf 31 4a c0 cb aa 3d c1
       -5.009216 -8.78579 -3.15929 -11.8541975
000340 d2 08 cb c0 b9 53 22 c1 af 57 d6 c0 81 82 92 c0
       -6.3448267 -10.14544 -6.6982036 -4.5784307
000350 78 50 6b c0 9c 3c fa bf db 8f b3 c0 60 a1 f5 c0
       -3.6767864 -1.9549747 -5.6113105 -7.675949
000360 1d a4 4b c0 64 59 19 c1 98 bd 9c c0 fc 37 02 c1
       -3.1818917 -9.584324 -4.898144 -8.138668
000370 e8 01 b5 c0 ff 38 00 c0 52 ac b7 c0 66 10 93 c0
       -5.6564827 -2.0034788 -5.739785 -4.595752
000380 08 61 b1 c0 11 5c 07 c1 17 18 8e c0 8c 90 d9 c0
       -5.5430946 -8.459977 -4.4404407 -6.798895
000390 27 94 46 c0 63 e8 02 c1 25 5c b1 c0 3d c3 cd c0
       -3.1027925 -8.181735 -5.542498 -6.430083
0003a0 39 c2 d3 c0 db cb 7f c0 b1 63 0f c1 e0 36 d3 c0
       -6.617459 -3.9968174 -8.961839 -6.6004486
0003b0 28 ae d0 c0 0b 07 04 c1 75 cc e9 c0 9b d7 dc c0
       -6.5212593 -8.251719 -7.306208 -6.901319
0003c0 c6 13 83 c0 3a f5 2e c1 ce eb c9 c0 d3 a3 19 c1
       -4.0961637 -10.93487 -6.3100348 -9.602496
0003d0 73 95 a8 c0 5b 7d bb c0 cd 60 80 c0 8f 36 2c c0
       -5.2682433 -5.859052 -4.0118165 -2.69083
0003e0 81 7e 8a c0 5a 63 87 c0 5b b6 72 c0 99 ec 1f c1
       -4.3279424 -4.230878 -3.79238 -9.995263
0003f0 fb 2d 8c c0 1d fa 46 c0 6d 00 a9 c0 5b 2d fb c0
       -4.380613 -3.1090157 -5.281302 -7.8492866

variational_strategy._variational_distribution.chol_variational_covar f4 [300, 300]
000000 cb 96 db 3e 00 00 00 00 00 00 00 00 00 00 00 00
       0.42888483 0.0 0.0 0.0
000010 00 00 00 00 00 00 00 00 00 00 00 00 00 00 00 00
       0.0 0.0 0.0 0.0
000020 00 00 00 00 00 00 00 00 00 00 00 00 00 00 00 00
       0.0 0.0 0.0 0.0
000030 00 00 00 00 00 00 00 00 00 00 00 00 00 00 00 00
       0.0 0.0 0.0 0.0
000040 00 00 00 00 00 00 00 00 00 00 00 00 00 00 00 00
       0.0 0.0 0.0 0.0
000050 00 00 00 00 00 00 00 00 00 00 00 00 00 00 00 00
       0.0 0.0 0.0 0.0
000060 00 00 00 00 00 00 00 00 00 00 00 00 00 00 00 00
       0.0 0.0 0.0 0.0
000070 00 00 00 00 00 00 00 00 00 00 00 00 00 00 00 00
       0.0 0.0 0.0 0.0
000080 00 00 00 00 00 00 00 00 00 00 00 00 00 00 00 00
       0.0 0.0 0.0 0.0
000090 00 00 00 00 00 00 00 00 00 00 00 00 00 00 00 00
       0.0 0.0 0.0 0.0
0000a0 00 00 00 00 00 00 00 00 00 00 00 00 00 00 00 00
       0.0 0.0 0.0 0.0
0000b0 00 00 00 00 00 00 00 00 00 00 00 00 00 00 00 00
       0.0 0.0 0.0 0.0
0000c0 00 00 00 00 00 00 00 00 00 00 00 00 00 00 00 00
       0.0 0.0 0.0 0.0
0000d0 00 00 00 00 00 00 00 00 00 00 00 00 00 00 00 00
       0.0 0.0 0.0 0.0
0000e0 00 00 00 00 00 00 00 00 00 00 00 00 00 00 00 00
       0.0 0.0 0.0 0.0
0000f0 00 00 00 00 00 00 00 00 00 00 00 00 00 00 00 00
       0.0 0.0 0.0 0.0
000100 00 00 00 00 00 00 00 00 00 00 00 00 00 00 00 00
       0.0 0.0 0.0 0.0
000110 00 00 00 00 00 00 00 00 00 00 00 00 00 00 00 00
       0.0 0.0 0.0 0.0
000120 00 00 00 00 00 00 00 00 00 00 00 00 00 00 00 00
       0.0 0.0 0.0 0.0
000130 00 00 00 00 00 00 00 00 00 00 00 00 00 00 00 00
       0.0 0.0 0.0 0.0
000140 00 00 00 00 00 00 00 00 00 00 00 00 00 00 00 00
       0.0 0.0 0.0 0.0
000150 00 00 00 00 00 00 00 00 00 00 00 00 00 00 00 00
       0.0 0.0 0.0 0.0
000160 00 00 00 00 00 00 00 00 00 00 00 00 00 00 00 00
       0.0 0.0 0.0 0.0
000170 00 00 00 00 00 00 00 00 00 00 00 00 00 00 00 00
       0.0 0.0 0.0 0.0
000180 00 00 00 00 00 00 00 00 00 00 00 00 00 00 00 00
       0.0 0.0 0.0 0.0
000190 00 00 00 00 00 00 00 00 00 00 00 00 00 00 00 00
       0.0 0.0 0.0 0.0
0001a0 00 00 00 00 00 00 00 00 00 00 00 00 00 00 00 00
       0.0 0.0 0.0 0.0
0001b0 00 00 00 00 00 00 00 00 00 00 00 00 00 00 00 00
       0.0 0.0 0.0 0.0
0001c0 00 00 00 00 00 00 00 00 00 00 00 00 00 00 00 00
       0.0 0.0 0.0 0.0
0001d0 00 00 00 00 00 00 00 00 00 00 00 00 00 00 00 00
       0.0 0.0 0.0 0.0
0001e0 00 00 00 00 00 00 00 00 00 00 00 00 00 00 00 00
       0.0 0.0 0.0 0.0
0001f0 00 00 00 00 00 00 00 00 00 00 00 00 00 00 00 00
       0.0 0.0 0.0 0.0
000200 00 00 00 00 00 00 00 00 00 00 00 00 00 00 00 00
       0.0 0.0 0.0 0.0
000210 00 00 00 00 00 00 00 00 00 00 00 00 00 00 00 00
       0.0 0.0 0.0 0.0
000220 00 00 00 00 00 00 00 00 00 00 00 00 00 00 00 00
       0.0 0.0 0.0 0.0
000230 00 00 00 00 00 00 00 00 00 00 00 00 00 00 00 00
       0.0 0.0 0.0 0.0
000240 00 00 00 00 00 00 00 00 00 00 00 00 00 00 00 00
       0.0 0.0 0.0 0.0
000250 00 00 00 00 00 00 00 00 00 00 00 00 00 00 00 00
       0.0 0.0 0.0 0.0
000260 00 00 00 00 00 00 00 00 00 00 00 00 00 00 00 00
       0.0 0.0 0.0 0.0
000270 00 00 00 00 00 00 00 00 00 00 00 00 00 00 00 00
       0.0 0.0 0.0 0.0
000280 00 00 00 00 00 00 00 00 00 00 00 00 00 00 00 00
       0.0 0.0 0.0 0.0
000290 00 00 00 00 00 00 00 00 00 00 00 00 00 00 00 00
       0.0 0.0 0.0 0.0
0002a0 00 00 00 00 00 00 00 00 00 00 00 00 00 00 00 00
       0.0 0.0 0.0 0.0
0002b0 00 00 00 00 00 00 00 00 00 00 00 00 00 00 00 00
       0.0 0.0 0.0 0.0
0002c0 00 00 00 00 00 00 00 00 00 00 00 00 00 00 00 00
       0.0 0.0 0.0 0.0
0002d0 00 00 00 00 00 00 00 00 00 00 00 00 00 00 00 00
       0.0 0.0 0.0 0.0
0002e0 00 00 00 00 00 00 00 00 00 00 00 00 00 00 00 00
       0.0 0.0 0.0 0.0
0002f0 00 00 00 00 00 00 00 00 00 00 00 00 00 00 00 00
       0.0 0.0 0.0 0.0
000300 00 00 00 00 00 00 00 00 00 00 00 00 00 00 00 00
       0.0 0.0 0.0 0.0
000310 00 00 00 00 00 00 00 00 00 00 00 00 00 00 00 00
       0.0 0.0 0.0 0.0
000320 00 00 00 00 00 00 00 00 00 00 00 00 00 00 00 00
       0.0 0.0 0.0 0.0
000330 00 00 00 00 00 00 00 00 00 00 00 00 00 00 00 00
       0.0 0.0 0.0 0.0
000340 00 00 00 00 00 00 00 00 00 00 00 00 00 00 00 00
       0.0 0.0 0.0 0.0
000350 00 00 00 00 00 00 00 00 00 00 00 00 00 00 00 00
       0.0 0.0 0.0 0.0
000360 00 00 00 00 00 00 00 00 00 00 00 00 00 00 00 00
       0.0 0.0 0.0 0.0
000370 00 00 00 00 00 00 00 00 00 00 00 00 00 00 00 00
       0.0 0.0 0.0 0.0
000380 00 00 00 00 00 00 00 00 00 00 00 00 00 00 00 00
       0.0 0.0 0.0 0.0
000390 00 00 00 00 00 00 00 00 00 00 00 00 00 00 00 00
       0.0 0.0 0.0 0.0
0003a0 00 00 00 00 00 00 00 00 00 00 00 00 00 00 00 00
       0.0 0.0 0.0 0.0
0003b0 00 00 00 00 00 00 00 00 00 00 00 00 00 00 00 00
       0.0 0.0 0.0 0.0
0003c0 00 00 00 00 00 00 00 00 00 00 00 00 00 00 00 00
       0.0 0.0 0.0 0.0
0003d0 00 00 00 00 00 00 00 00 00 00 00 00 00 00 00 00
       0.0 0.0 0.0 0.0
0003e0 00 00 00 00 00 00 00 00 00 00 00 00 00 00 00 00
       0.0 0.0 0.0 0.0
0003f0 00 00 00 00 00 00 00 00 00 00 00 00 00 00 00 00
       0.0 0.0 0.0 0.0

cov.base_kernel.raw_lengthscale f4 [1, 2]
000000 57 c7 8d 41 fd ca 89 41
       17.722334 17.224115
