slam/rbpf_slam/data/results/svgp_particle7.pth (torch, 367369 bytes, 4 tensors)

variational_strategy.inducing_points f4 [300, 2]
000000 81 5b 39 c2 3f 91 bc c3 d5 fc f3 42 f2 e5 b0 c3
       -46.33936 -377.13474 121.99381 -353.79645
000010 4d 3c d3 42 ff f5 4a c3 f6 27 ac c2 e6 25 8b c3
       105.617775 -202.96092 -86.07805 -278.29608
000020 32 db c1 c2 bc 33 73 c3 1d ee 1f c2 e8 22 8c c3
       -96.928116 -243.20209 -39.982533 -280.2727
000030 b3 c8 a4 c2 53 91 61 c3 ec 4c 82 c2 fe 0d 6d c3
       -82.39199 -225.56767 -65.15024 -237.05466
000040 c3 76 80 42 b8 f1 83 c3 98 fb 39 c2 07 11 90 c3
       64.23196 -263.88843 -46.495697 -288.13303
000050 d0 2b 28 42 ff b3 42 c3 bb dc 28 c1 24 81 4f c3
       42.042786 -194.70311 -10.553889 -207.50446
000060 7f 8b 99 c2 87 88 6c c3 f8 67 26 41 fd 5e 30 c3
       -76.77245 -236.53331 10.400383 -176.37105
000070 ed 2a 9e 42 76 0e 3f c3 0e b4 1e c1 b0 68 5a c3
       79.08384 -191.05649 -9.918959 -218.40894
000080 d8 b5 db 42 99 6e 75 c3 15 aa cc c2 ea 8b 30 c3
       109.85516 -245.43202 -102.33219 -176.54654
000090 62 a9 a7 42 5c 45 3b c3 16 42 8e 42 f1 2f 88 c3
       83.830826 -187.27094 71.129074 -272.37454
0000a0 ad 9a 99 40 da c1 85 c3 00 e9 0a 41 c9 19 16 c3
       4.8001313 -267.51447 8.681885 -150.10072
0000b0 3a 9c 92 42 4b 61 0c c3 25 58 b8 c2 d2 4d 39 c3
       73.30513 -140.38005 -92.17216 -185.30399
0000c0 06 ce 89 42 09 e2 7d c3 cb 85 20 42 de ef 9c c3
       68.90239 -253.88295 40.130657 -313.87396
0000d0 ea e1 08 43 c1 e7 c4 c3 49 5c 9a 42 27 3d 8d c3
       136.88248 -393.81058 77.180244 -282.47775
0000e0 ed 1f ed c1 d8 a6 4a c3 5f 64 8f c2 bc 2e 80 c3
       -29.640589 -202.65173 -71.69604 -256.3651
0000f0 08 c1 3b 42 8a 5a 07 c3 c7 3d fa c0 5a ff 93 c3
       46.938507 -135.35367 -7.820041 -295.99493
000100 9c 70 5c 42 e7 4f 31 c3 9e c4 91 41 f3 e3 ff c2
       55.10997 -177.31212 18.221004 -127.94521
000110 d6 f7 d7 c1 2d dd 5c c3 4f 09 8c 42 9e 0b 76 c3
       -26.996014 -220.86397 70.01818 -246.04538
000120 78 b1 83 c2 da 5d a2 c3 bd f4 92 42 7e 06 ae c3
       -65.84662 -324.73322 73.478004 -348.05072
000130 5e b4 2b 42 ab fe 48 c3 f2 52 a3 c2 32 12 59 c3
       42.92614 -200.9948 -81.662 -217.07108
000140 25 d3 92 c2 03 ef 85 c3 1f 92 21 41 7e f5 97 c3
       -73.41239 -267.86728 10.098174 -303.9179
000150 c8 a7 de 42 a5 a1 51 c3 09 62 a3 c2 de 96 7c c3
       111.3277 -209.63142 -81.691475 -252.58932
000160 81 bd 69 42 df 54 90 c3 69 0b 87 42 de cf 66 c3
       58.435062 -288.66306 67.522285 -230.81198
000170 cc 70 59 c2 58 ab c2 c3 11 fa 25 43 db 09 a2 c3
       -54.360153 -389.33862 165.97682 -324.077
000180 83 5f 8b 42 52 a3 b4 c3 57 0f 92 bf 48 a6 b6 c3
       69.68655 -361.27594 -1.1410931 -365.29907
000190 ea 00 55 42 c0 04 98 c3 9d 59 3b 43 4a fa b4 c3
       53.250893 -304.0371 187.35005 -361.95538
0001a0 26 5d d6 41 56 4d 9c c3 8a bd 5f 42 ee 6e 5a c3
       26.795483 -312.6042 55.935097 -218.43332
0001b0 eb 77 21 41 0d 1a 22 c3 3b 8b b5 42 9e d7 86 c3
       10.091777 -162.10176 90.771935 -269.6845
0001c0 a4 23 43 42 1c 58 5f c3 61 ae 72 42 b3 8d 27 c3
       48.784805 -223.34418 60.67029 -167.55351
0001d0 e2 4a 6c 41 59 33 75 c3 cd f4 a2 c0 01 2c 89 c3
       14.768282 -245.20058 -5.092383 -274.34378
0001e0 53 e4 9b 42 f4 ac 64 c3 a9 ac 74 42 ad 0d 65 c3
       77.945946 -228.6756 61.168613 -229.05342
0001f0 54 fc 0e 42 01 be 4a c3 a1 b8 51 c2 1f 71 3c c3
       35.746414 -202.7422 -52.4303 -188.44188
000200 b6 fb c9 c1 71 52 2f c3 24 59 02 43 cc 23 a4 c3
       -25.247906 -175.32204 130.3482 -328.27966
000210 d5 26 b5 42 5b e4 8b c3 e1 0e a7 42 5e 1b ac c3
       90.57584 -279.78403 83.52906 -344.2138
000220 10 d1 dd 42 8a 0a 47 c3 c0 da c5 42 28 6c 36 c3
       110.908325 -199.04117 98.927246 -182.42249
000230 92 86 2e c1 e9 0c 86 c3 c3 31 2f 42 92 55 5c c3
       -10.907854 -268.10086 43.798595 -220.33426
000240 55 10 dc 41 1c 49 b1 c3 9b 6f c4 c2 c5 74 95 c3
       27.507975 -354.57117 -98.21798 -298.91226
000250 f8 30 8d 42 c1 dc 45 c3 ac 7e 3d c1 58 4d 7f c3
       70.59564 -197.86232 -11.843426 -255.30212
000260 fa 38 a9 c2 59 92 5c c3 83 97 34 42 71 0f 26 c3
       -84.61128 -220.57167 45.14796 -166.06032
000270 b7 c7 6d 42 25 84 0f c3 f5 a2 48 42 87 60 02 c3
       59.445034 -143.51619 50.159138 -130.37706
000280 42 48 3b c2 17 b9 94 c3 97 6c 48 c2 c7 84 8a c3
       -46.820564 -297.446 -50.106045 -277.03732
000290 e0 8d b1 41 d1 76 41 c3 31 d8 a2 41 4d a5 d0 c3
       22.194275 -193.46413 20.355562 -417.2914
0002a0 06 2d 83 42 3d 61 97 c3 05 d7 4f 42 26 f6 6a c3
       65.58794 -302.75967 51.95998 -234.96152
0002b0 ec 55 ac 42 e9 15 64 c3 a3 10 ab 42 17 45 5d c3
       86.167816 -228.08559 85.53249 -221.26988
0002c0 61 3f 65 42 ee d5 bd c3 34 03 4c 42 90 09 91 c3
       57.311893 -379.67133 51.003128 -290.0747
0002d0 8e 1f d7 42 a2 12 81 c3 fc 28 7b c2 af 82 65 c3
       107.56163 -258.14557 -62.790024 -229.51048
0002e0 94 c0 e4 c1 f1 d8 88 c3 c7 f6 88 c2 cc 68 50 c3
       -28.594032 -273.69485 -68.48199 -208.40936
0002f0 ca 69 91 42 e9 eb 6d c3 76 17 77 42 73 9c 4f c3
       72.70662 -237.92152 61.77291 -207.61113
000300 00 1a bd 42 a7 0b 1b c3 4b 84 c4 42 36 02 55 c3
       94.55078 -155.04552 98.258385 -213.00864
000310 c8 cf b7 42 48 93 b4 c3 9e 0f bc c2 e0 bb 80 c3
       91.90582 -361.15063 -94.0305 -257.46777
000320 1c b5 ce c1 e2 dc c7 c3 d7 1b 5e 42 0d 89 1c c3
       -25.838432 -399.72565 55.527187 -156.53535
000330 7e e3 12 43 9d 51 93 c3 d7 91 37 42 63 d7 56 c3
       146.88864 -294.6376 45.89242 -214.84135
000340 d8 ba 92 41 8a 71 c0 c3 37 e4 ec 42 6b 93 58 c3
       18.341232 -384.88702 118.44573 -216.57585
000350 0e 2b 53 42 eb fa 8e c3 18 53 66 c2 31 59 a7 c3
       52.792046 -285.9603 -57.581146 -334.6968
000360 06 2a f2 42 a5 fc ba c3 34 1e 33 c2 cf ff 52 c3
       121.08208 -373.9738 -44.779495 -210.99925
000370 06 ff ba c1 e5 d2 4f c3 f5 02 26 41 cf 83 81 c3
       -23.374523 -207.8238 10.375722 -259.02975
000380 f0 c8 dd 42 2b f2 c6 c3 dc 79 81 42 7f 91 a3 c3
       110.892456 -397.89194 64.73801 -327.1367
000390 fc d5 8b 42 67 9e 1d c3 d1 f1 1b 42 f7 3d 89 c3
       69.91794 -157.61876 38.98615 -274.4841
0003a0 6d 3d 92 41 b8 8f 0b c3 1f bc 31 42 79 bf 0f c3
       18.279993 -139.5614 44.433712 -143.74794
0003b0 19 25 73 c2 90 40 2b c3 e2 42 71 42 26 22 18 c3
       -60.78623 -171.2522 60.315315 -152.13339
0003c0 f8 2b 17 42 4e d5 9f c3 92 a0 c6 c2 bd a3 71 c3
       37.79294 -319.66644 -99.313614 -241.6396
0003d0 ae be 8c c0 9e dd a0 c3 06 9a 18 43 2d 17 97 c3
       -4.3982763 -321.73138 152.60165 -302.18106
0003e0 44 00 5b c2 02 c3 6a c3 5a 21 bd c2 f1 50 9e c3
       -54.75026 -234.76175 -94.56514 -316.63235
0003f0 4b ce 7c c2 1f 1c 88 c3 33 3b ab c2 0f e0 59 c3
       -63.201458 -272.2197 -85.61562 -217.87523

variational_strategy._variational_distribution.variational_mean f4 [300]
000000 ce 70 61 c1 03 f4 58 c1 c0 4f 4c c1 cc ed 5e c1
       -14.09004 -13.559573 -12.76947 -13.933056
000010 50 a1 3a c1 5a 82 5f c1 d5 12 40 c1 73 cf 27 c1
       -11.664383 -13.969324 -12.004598 -10.488147
000020 de 7d 5d c1 7a 91 1e c1 33 6b 5f c1 0e e4 48 c1
       -13.843229 -9.910517 -13.963672 -12.555677
000030 70 a1 b3 c0 b6 9f 3e c1 1e 57 54 c1 4b 25 1b c1
       -5.6134567 -11.913992 -13.271269 -9.696605
000040 22 ea 53 c1 5e a6 12 c1 e9 f1 06 c1 da 99 49 c1
       -13.244661 -9.165617 -8.43406 -12.600061
000050 4a 52 63 c1 4c f9 1e c1 c5 4b 4f c1 d1 1c 15 c1
       -14.20759 -9.9358635 -12.955998 -9.319535
000060 ef 72 3c c1 75 15 5f c1 26 f9 25 c1 39 05 3f c1
       -11.77806 -13.942739 -10.373327 -11.938775
000070 61 cd 3b c1 2b 6d 20 c1 4a f1 44 c1 eb 5d 58 c1
       -11.737641 -10.026652 -12.308908 -13.522929
000080 fd c6 1b c1 c8 e2 15 c1 00 d5 01 c1 e9 d6 13 c1
       -9.736081 -9.3678665 -8.114502 -9.239968
000090 16 3f 6a c1 62 19 55 c1 67 2f 15 c1 f3 1f d7 c0
       -14.640402 -13.318697 -9.324073 -6.72265
0000a0 d9 da 93 c0 57 5d 3e c1 31 76 18 c1 97 a9 de c0
       -4.620465 -11.897788 -9.528855 -6.958202
0000b0 5b 0c 40 c1 64 e7 2e c1 e0 63 10 c1 90 14 4e c1
       -12.003016 -10.931492 -9.024384 -12.88002
0000c0 fd bb 3b c1 19 e7 39 c1 de d9 0e c1 ec ac 13 c1
       -11.733396 -11.61892 -8.92819 -9.229717
0000d0 65 74 29 c1 f5 b1 1e c1 32 d7 84 c0 8a 93 39 c1
       -10.590917 -9.918447 -4.151269 -11.59852
0000e0 aa 3b c1 c0 df 0b 02 c1 39 fe 3e c1 05 7e 20 c1
       -6.038533 -8.127898 -11.937066 -10.0307665
0000f0 30 4d 14 c1 dd 68 cf c0 8c 6b 06 c1 50 88 29 c1
       -9.268845 -6.4815507 -8.401257 -10.595779
000100 72 25 3b c1 89 70 3b c1 78 3b c5 c0 31 0b 39 c1
       -11.696642 -11.714974 -6.1635094 -11.565232
000110 d9 18 cd c0 8e 71 18 c1 53 d2 14 c1 c3 c4 b4 c0
       -6.409283 -9.527723 -9.301349 -5.649019
000120 f6 0d 34 c1 39 65 32 c1 a2 61 1b c1 e5 73 ff c0
       -11.253408 -11.149713 -9.711336 -7.9828973
000130 24 43 c8 c0 6b b9 e8 c0 5d c7 3f c0 58 92 f1 c0
       -6.258196 -7.272634 -2.9965432 -7.549114
000140 84 e4 28 c1 c0 f3 02 c1 53 21 17 c1 49 00 22 c1
       -10.55579 -8.184509 -9.445636 -10.12507
000150 4e b2 0c c1 15 e3 08 c1 47 b0 02 c1 5b ba 7a c0
       -8.793531 -8.55544 -8.168036 -3.9176242
000160 e9 03 23 c1 f0 66 de c0 98 ad 1d c1 01 b3 03 c1
       -10.188455 -6.9500656 -9.854881 -8.231202
000170 21 61 08 c1 8b 9a 01 c1 18 23 82 c0 a3 df da c0
       -8.523713 -8.10023 -4.066784 -6.8397994
000180 81 da f6 c0 37 4f d2 c0 6b 51 22 c1 0b d5 ce c0
       -7.714173 -6.57217 -10.144877 -6.463506
000190 66 4c 42 c1 8d d1 47 c0 7b 4d 44 c1 f9 e9 b9 c0
       -12.143652 -3.122165 -12.268916 -5.809811
0001a0 0a 8c 17 c1 6b 88 22 c1 d7 c4 04 c1 a4 8c 44 c1
       -9.471689 -10.158305 -8.298057 -12.284336
0001b0 fa d6 04 c1 06 ac dd c0 dd 07 46 c0 fd ca 25 c1
       -8.3024845 -6.927249 -3.09423 -10.362058
0001c0 95 32 43 c1 b2 77 33 c1 f1 13 8f c0 ff 03 26 c1
       -12.199849 -11.2167225 -4.4711843 -10.375976
0001d0 52 2d 88 c0 eb 7b ae c0 84 91 21 c1 7d cc 58 bf
       -4.2555323 -5.4526267 -10.098026 -0.84687024
0001e0 2d 74 16 c1 f8 7b a7 c0 c5 4f 3d c1 f0 2d c2 c0
       -9.403363 -5.233883 -11.831975 -6.0681076
0001f0 ec d8 fd c0 2f ca 28 c1 89 42 c8 c0 18 9c 80 c0
       -7.9327297 -10.549361 -6.258122 -4.0190544
000200 07 13 13 c1 65 b6 e2 c0 21 fa ee c0 fc e6 dd c0
       -9.192145 -7.084765 -7.4680333 -6.9344463
000210 2a 22 3c c1 b7 99 02 c1 f4 21 27 c1 47 2e f4 c0
       -11.758341 -8.162528 -10.445789 -7.630649
000220 01 4a 1e c1 e4 61 ff c0 e1 4a f8 c0 7f cc 13 c1
       -9.893067 -7.9806995 -7.7591405 -9.237426
000230 20 97 7c c0 a2 71 c1 c0 9b 40 97 c0 84 58 29 c1
       -3.946724 -6.045121 -4.7266364 -10.58411
000240 1e f1 1e c1 ac ed 17 bf a8 33 a2 c0 8e d3 bf c0
       -9.9338665 -0.59347034 -5.0688057 -5.9945745
000250 f4 60 23 c1 74 85 21 c1 ed 44 b8 c0 45 00 cd c0
       -10.21117 -10.095081 -5.758414 -6.406283
000260 44 e8 80 c0 9c 09 de c0 d5 f3 04 c1 13 e0 f4 c0
       -4.0283527 -6.938673 -8.309529 -7.652353
000270 b0 5e e3 c0 c7 a2 d1 c0 2f 3d d1 c0 92 97 45 3f
       -7.1053085 -6.5511203 -6.5387187 0.771844
000280 f6 d5 2e c0 66 44 0e c1 d8 a0 ba c0 67 03 9c c0
       -2.7318091 -8.891699 -5.8321342 -4.8754153
000290 d4 63 19 c1 40 a5 24 c1 a6 1e 91 c0 5d dd 9b c0
       -9.586872 -10.290344 -4.5349913 -4.870772
0002a0 f2 65 06 c1 76 79 e5 c0 cd b0 d2 c0 66 55 2d bf
       -8.399889 -7.171077 -6.584082 -0.6770843
0002b0 c7 f7 39 c1 3c 6e 10 c1 c9 a5 19 c1 12 8d 04 c1
       -11.6229925 -9.026913 -9.602975 -8.284441
0002c0 44 d4 a7 c0 8f 71 04 c1 71 4a f2 c0 0f 75 eb c0
       -5.2446613 -8.277724 -7.571587 -7.3580394
0002d0 57 ed b8 c0 c4 2e c7 c0 b0 d8 c0 c0 22 2d b7 c0
       -5.778972 -6.2244587 -6.026451 -5.7242594
0002e0 24 3b 88 c0 ab 0a b4 c0 33 5d 02 c1 ae 34 da c0
       -4.2572193 -5.6263022 -8.147754 -6.8189306
0002f0 59 85 d7 c0 9b 50 bc c0 72 65 d9 c0 b9 cf df c0
       -6.735028 -5.8848395 -6.7936335 -6.994107
000300 a2 eb 85 bf ed c0 bc c0 0c 6a 20 c0 8e 74 58 c0
       -1.0462534 -5.8985505 -2.5064726 -3.382114
000310 04 83 98 c0 ed 1a 21 c1 8a b4 02 c0 2c 98 91 bf
       -4.765993 -10.069074 -2.0422692 -1.1374564
000320 14 10 a6 c0 f0 35 9c c0 4c 4e ef c0 bc ec ba c0
       -5.1894627 -4.881584 -7.4783077 -5.8413982
000330 8e 02 93 c0 a8 94 dd c0 4c ee 26 c0 c7 03 9c c0
       -4.594062 -6.9243965 -2.6082945 -4.875461
000340 54 fc 33 c0 1d d9 ae c0 a7 c0 0c c1 dc 5f 6e c0
       -2.812276 -5.464003 -8.797034 -3.7246008
000350 7e 7c 97 c0 02 7e 18 c0 44 74 ea c0 3b 69 f0 c0
       -4.733947 -2.382691 -7.3266926 -7.5128455
000360 64 36 06 c1 2b 88 b8 c0 a5 e6 66 c0 cd 4f ce c0
       -8.388279 -5.766622 -3.6078274 -6.4472413
000370 b4 31 72 c0 d4 6c 80 c0 f8 02 45 c0 46 98 f6 c0
       -3.7842836 -4.0132847 -3.0783062 -7.706088
000380 41 71 a7 c0 78 2d f0 c0 c8 d5 c7 c0 ea da 85 c0
       -5.232575 -7.5055504 -6.2448463 -4.182973
000390 79 6c a2 c0 ab 8b 91 c0 87 bd 27 c1 e7 e8 c5 c0
       -5.0757413 -4.5482993 -10.483771 -6.1846805
0003a0 69 49 bf c0 9f bb dc c0 7f f4 aa c0 c5 3d cd c0
       -5.977711 -6.897903 -5.3423457 -6.41379
0003b0 81 1b e3 c0 f8 c5 0a c1 b9 cd f9 c0 a2 a7 87 c0
       -7.0971074 -8.673332 -7.8063626 -4.239213
0003c0 3f f3 d6 c0 36 c3 2d c0 2f 32 58 c0 87 71 56 c0
       -6.717193 -2.7150397 -3.378063 -3.3506792
0003d0 66 02 9d c0 2e 81 8e c0 ed dc 53 c0 e7 0d e8 c0
       -4.906543 -4.453269 -3.3103592 -7.251697
0003e0 6f 04 e4 c0 b4 e7 de c0 f5 93 46 c0 d6 9d 33 c1
       -7.125541 -6.965784 -3.1027806 -11.226034
0003f0 96 d4 13 c0 42 01 27 c0 a3 d8 e9 c0 5e f1 82 c0
       -2.3098502 -2.6094518 -7.307695 -4.091964

variational_strategy._variational_distribution.chol_variational_covar f4 [300, 300]
000000 6c e0 cc 3e 00 00 00 00 00 00 00 00 00 00 00 00
       0.4001497 0.0 0.0 0.0
000010 00 00 00 00 00 00 00 00 00 00 00 00 00 00 00 00
       0.0 0.0 0.0 0.0
000020 00 00 00 00 00 00 00 00 00 00 00 00 00 00 00 00
       0.0 0.0 0.0 0.0
000030 00 00 00 00 00 00 00 00 00 00 00 00 00 00 00 00
       0.0 0.0 0.0 0.0
000040 00 00 00 00 00 00 00 00 00 00 00 00 00 00 00 00
       0.0 0.0 0.0 0.0
000050 00 00 00 00 00 00 00 00 00 00 00 00 00 00 00 00
       0.0 0.0 0.0 0.0
000060 00 00 00 00 00 00 00 00 00 00 00 00 00 00 00 00
       0.0 0.0 0.0 0.0
000070 00 00 00 00 00 00 00 00 00 00 00 00 00 00 00 00
       0.0 0.0 0.0 0.0
000080 00 00 00 00 00 00 00 00 00 00 00 00 00 00 00 00
       0.0 0.0 0.0 0.0
000090 00 00 00 00 00 00 00 00 00 00 00 00 00 00 00 00
       0.0 0.0 0.0 0.0
0000a0 00 00 00 00 00 00 00 00 00 00 00 00 00 00 00 00
       0.0 0.0 0.0 0.0
0000b0 00 00 00 00 00 00 00 00 00 00 00 00 00 00 00 00
       0.0 0.0 0.0 0.0
0000c0 00 00 00 00 00 00 00 00 00 00 00 00 00 00 00 00
       0.0 0.0 0.0 0.0
0000d0 00 00 00 00 00 00 00 00 00 00 00 00 00 00 00 00
       0.0 0.0 0.0 0.0
0000e0 00 00 00 00 00 00 00 00 00 00 00 00 00 00 00 00
       0.0 0.0 0.0 0.0
0000f0 00 00 00 00 00 00 00 00 00 00 00 00 00 00 00 00
       0.0 0.0 0.0 0.0
000100 00 00 00 00 00 00 00 00 00 00 00 00 00 00 00 00
       0.0 0.0 0.0 0.0
000110 00 00 00 00 00 00 00 00 00 00 00 00 00 00 00 00
       0.0 0.0 0.0 0.0
000120 00 00 00 00 00 00 00 00 00 00 00 00 00 00 00 00
       0.0 0.0 0.0 0.0
000130 00 00 00 00 00 00 00 00 00 00 00 00 00 00 00 00
       0.0 0.0 0.0 0.0
000140 00 00 00 00 00 00 00 00 00 00 00 00 00 00 00 00
       0.0 0.0 0.0 0.0
000150 00 00 00 00 00 00 00 00 00 00 00 00 00 00 00 00
       0.0 0.0 0.0 0.0
000160 00 00 00 00 00 00 00 00 00 00 00 00 00 00 00 00
       0.0 0.0 0.0 0.0
000170 00 00 00 00 00 00 00 00 00 00 00 00 00 00 00 00
       0.0 0.0 0.0 0.0
000180 00 00 00 00 00 00 00 00 00 00 00 00 00 00 00 00
       0.0 0.0 0.0 0.0
000190 00 00 00 00 00 00 00 00 00 00 00 00 00 00 00 00
       0.0 0.0 0.0 0.0
0001a0 00 00 00 00 00 00 00 00 00 00 00 00 00 00 00 00
       0.0 0.0 0.0 0.0
0001b0 00 00 00 00 00 00 00 00 00 00 00 00 00 00 00 00
       0.0 0.0 0.0 0.0
0001c0 00 00 00 00 00 00 00 00 00 00 00 00 00 00 00 00
       0.0 0.0 0.0 0.0
0001d0 00 00 00 00 00 00 00 00 00 00 00 00 00 00 00 00
       0.0 0.0 0.0 0.0
0001e0 00 00 00 00 00 00 00 00 00 00 00 00 00 00 00 00
       0.0 0.0 0.0 0.0
0001f0 00 00 00 00 00 00 00 00 00 00 00 00 00 00 00 00
       0.0 0.0 0.0 0.0
000200 00 00 00 00 00 00 00 00 00 00 00 00 00 00 00 00
       0.0 0.0 0.0 0.0
000210 00 00 00 00 00 00 00 00 00 00 00 00 00 00 00 00
       0.0 0.0 0.0 0.0
000220 00 00 00 00 00 00 00 00 00 00 00 00 00 00 00 00
       0.0 0.0 0.0 0.0
000230 00 00 00 00 00 00 00 00 00 00 00 00 00 00 00 00
       0.0 0.0 0.0 0.0
000240 00 00 00 00 00 00 00 00 00 00 00 00 00 00 00 00
       0.0 0.0 0.0 0.0
000250 00 00 00 00 00 00 00 00 00 00 00 00 00 00 00 00
       0.0 0.0 0.0 0.0
000260 00 00 00 00 00 00 00 00 00 00 00 00 00 00 00 00
       0.0 0.0 0.0 0.0
000270 00 00 00 00 00 00 00 00 00 00 00 00 00 00 00 00
       0.0 0.0 0.0 0.0
000280 00 00 00 00 00 00 00 00 00 00 00 00 00 00 00 00
       0.0 0.0 0.0 0.0
000290 00 00 00 00 00 00 00 00 00 00 00 00 00 00 00 00
       0.0 0.0 0.0 0.0
0002a0 00 00 00 00 00 00 00 00 00 00 00 00 00 00 00 00
       0.0 0.0 0.0 0.0
0002b0 00 00 00 00 00 00 00 00 00 00 00 00 00 00 00 00
       0.0 0.0 0.0 0.0
0002c0 00 00 00 00 00 00 00 00 00 00 00 00 00 00 00 00
       0.0 0.0 0.0 0.0
0002d0 00 00 00 00 00 00 00 00 00 00 00 00 00 00 00 00
       0.0 0.0 0.0 0.0
0002e0 00 00 00 00 00 00 00 00 00 00 00 00 00 00 00 00
       0.0 0.0 0.0 0.0
0002f0 00 00 00 00 00 00 00 00 00 00 00 00 00 00 00 00
       0.0 0.0 0.0 0.0
000300 00 00 00 00 00 00 00 00 00 00 00 00 00 00 00 00
       0.0 0.0 0.0 0.0
000310 00 00 00 00 00 00 00 00 00 00 00 00 00 00 00 00
       0.0 0.0 0.0 0.0
000320 00 00 00 00 00 00 00 00 00 00 00 00 00 00 00 00
       0.0 0.0 0.0 0.0
000330 00 00 00 00 00 00 00 00 00 00 00 00 00 00 00 00
       0.0 0.0 0.0 0.0
000340 00 00 00 00 00 00 00 00 00 00 00 00 00 00 00 00
       0.0 0.0 0.0 0.0
000350 00 00 00 00 00 00 00 00 00 00 00 00 00 00 00 00
       0.0 0.0 0.0 0.0
000360 00 00 00 00 00 00 00 00 00 00 00 00 00 00 00 00
       0.0 0.0 0.0 0.0
000370 00 00 00 00 00 00 00 00 00 00 00 00 00 00 00 00
       0.0 0.0 0.0 0.0
000380 00 00 00 00 00 00 00 00 00 00 00 00 00 00 00 00
       0.0 0.0 0.0 0.0
000390 00 00 00 00 00 00 00 00 00 00 00 00 00 00 00 00
       0.0 0.0 0.0 0.0
0003a0 00 00 00 00 00 00 00 00 00 00 00 00 00 00 00 00
       0.0 0.0 0.0 0.0
0003b0 00 00 00 00 00 00 00 00 00 00 00 00 00 00 00 00
       0.0 0.0 0.0 0.0
0003c0 00 00 00 00 00 00 00 00 00 00 00 00 00 00 00 00
       0.0 0.0 0.0 0.0
0003d0 00 00 00 00 00 00 00 00 00 00 00 00 00 00 00 00
       0.0 0.0 0.0 0.0
0003e0 00 00 00 00 00 00 00 00 00 00 00 00 00 00 00 00
       0.0 0.0 0.0 0.0
0003f0 00 00 00 00 00 00 00 00 00 00 00 00 00 00 00 00
       0.0 0.0 0.0 0.0

cov.base_kernel.raw_lengthscale f4 [1, 2]
000000 7e 74 88 41 c2 d7 8a 41
       17.05688 17.35535
