slam/rbpf_slam/data/results/svgp_particle9.pth (torch, 367369 bytes, 4 tensors)

variational_strategy.inducing_points f4 [300, 2]
000000 98 10 af 42 3f f7 a3 c3 81 a9 cf c1 48 48 c6 c3
       87.53241 -327.9316 -25.957766 -396.5647
000010 3e b0 ba 42 d0 d7 37 c3 08 db 7a 42 35 81 81 c3
       93.34422 -183.84302 62.713898 -259.00943
000020 ee f7 42 42 b3 46 07 c3 77 17 e3 c1 c1 36 6d c3
       48.74212 -135.27617 -28.386457 -237.21388
000030 51 37 8e 42 5f 66 0f c3 96 cb eb 42 0b 90 a0 c3
       71.10804 -143.39989 117.89763 -321.12534
000040 86 72 4e c2 56 f3 8e c3 60 59 be c2 b0 cc 97 c3
       -51.61184 -285.90106 -95.17456 -303.59912
000050 48 ac a1 c2 17 3c 69 c3 05 e0 3a 40 66 45 e6 c3
       -80.83649 -233.23473 2.919923 -460.54218
000060 c2 d1 7c c2 f2 31 bb c3 54 b0 cf 42 1a 58 64 c3
       -63.20484 -374.3902 103.84439 -228.34415
000070 1d c9 11 43 3a da 6a c3 b3 3e 8f 41 9e 12 1e c3
       145.7856 -234.85245 17.905615 -158.07272
000080 f1 b6 cf 41 d5 c3 59 c3 a6 8e 81 41 44 7c fc c2
       25.964327 -217.76497 16.194653 -126.24271
000090 5f a5 a3 42 03 43 a9 c3 21 63 16 42 bb 56 8d c3
       81.82299 -338.52353 37.596806 -282.67758
0000a0 fa cd bf c2 f0 16 4d c3 2b a8 98 42 07 94 bc c3
       -95.9023 -205.0896 76.32845 -377.15646
0000b0 c5 95 99 42 af a5 88 c3 35 33 82 c2 e3 2e 4b c3
       76.79252 -273.2944 -65.10001 -203.18315
0000c0 38 b6 95 c2 7e fd 97 c3 95 37 aa c2 2d 2e 92 c3
       -74.855896 -303.9804 -85.10856 -292.36075
0000d0 d2 e6 2c 42 db dd d8 c2 32 dd 86 c1 fd 53 89 c3
       43.22541 -108.43331 -16.858006 -274.65616
0000e0 89 ce 15 c2 e3 96 9a c3 88 49 92 c1 14 1c 77 c3
       -37.451694 -309.1788 -18.285904 -247.10968
0000f0 78 05 0e 3e 46 37 15 c3 5e c1 73 42 c4 83 7b c3
       0.13869274 -149.21591 60.938835 -251.51471
000100 ec 27 9c 42 0a e3 19 c3 a1 c4 fd 41 56 8f b1 c3
       78.07797 -153.88687 31.72101 -355.1198
000110 4b 9e 98 c2 73 7d 98 c3 2c 8f 9c 42 d6 e9 8f c3
       -76.309166 -304.98007 78.27963 -287.82684
000120 d3 f3 49 c2 f0 a5 89 c3 9b b6 8d 42 47 da 94 c3
       -50.48811 -275.2964 70.85665 -297.7053
000130 ec e9 86 c2 c1 1d 37 c3 88 77 83 42 48 69 be c3
       -67.45688 -183.11623 65.73346 -380.8225
000140 cb 60 bd c2 06 71 9a c3 2c 79 4b c2 9c b0 d9 c3
       -94.68905 -308.883 -50.868332 -435.37976
000150 95 d8 3f c2 86 cf 83 c3 6b 5f b4 42 74 35 ac c3
       -47.961506 -263.62128 90.18636 -344.4176
000160 03 03 32 42 68 99 58 c3 da 89 96 c2 53 ea a9 c3
       44.50294 -216.59924 -75.26924 -339.83066
000170 51 57 24 c2 b0 2e c1 c3 1b 68 65 42 29 e1 16 c3
       -41.08527 -386.36475 57.351665 -150.87953
000180 f1 68 59 c2 f2 dd 4f c3 92 fa b1 c2 20 ba 43 c3
       -54.35248 -207.86697 -88.989395 -195.72705
000190 5b ce 20 c2 d8 05 d1 c3 3a be 3a 42 8c 0f 64 c3
       -40.20152 -418.04565 46.68577 -228.06073
0001a0 bb 78 3a 42 52 90 1a c3 fd de 90 c1 c6 3c 6c c3
       46.6179 -154.56375 -18.108881 -236.2374
0001b0 4e 86 ab c2 b7 d4 28 c3 92 eb ae 42 c3 0a 0d c3
       -85.762314 -168.83092 87.4601 -141.04204
0001c0 b5 c0 a0 41 a5 71 60 c3 45 90 c9 41 d7 d9 ad c3
       20.094095 -224.44392 25.195444 -347.70187
0001d0 4f 50 a5 41 00 95 02 c3 ba 70 ad c2 82 99 4c c3
       20.664213 -130.58203 -86.72017 -204.59964
0001e0 e5 f4 8e c2 b2 31 26 c3 f8 5a e8 42 2d 15 4b c3
       -71.47831 -166.19412 116.17767 -203.08272
0001f0 ff 2e 9a 42 42 97 d2 c3 bc 16 90 c2 75 01 53 c3
       77.09179 -421.1817 -72.0444 -211.00569
000200 f3 31 7c c2 00 15 7f c3 77 48 39 c2 88 9a 89 c3
       -63.04878 -255.08203 -46.320766 -275.20728
000210 2f 88 c4 c2 c9 0b db c3 8b e5 06 43 3e 9d 1c c3
       -98.26598 -438.09207 134.89665 -156.61423
000220 8c 33 fc 41 ea 4e a8 c3 2f 3e 3e 42 bf 99 bd c3
       31.52517 -336.61652 47.560726 -379.20114
000230 55 2e 80 41 85 3c 28 c3 f6 ff 94 42 2e 1b bf c3
       16.022623 -168.2364 74.49992 -382.21234
000240 eb 69 6a c2 f3 e9 91 c3 1b 16 ba 42 03 20 89 c3
       -58.603436 -291.82773 93.043175 -274.2501
000250 9b 7c b5 c2 10 ec 91 c3 54 36 34 42 05 9b a6 c3
       -90.74337 -291.84424 45.053055 -333.2111
000260 ff e9 b7 42 f1 fe 98 c3 74 46 86 c0 68 61 67 c3
       91.95702 -305.99173 -4.1961 -231.3805
000270 55 24 a3 41 14 b1 cc c3 b1 ba a6 c2 fe 15 8c c3
       20.39274 -409.38342 -83.36463 -280.1718
000280 14 d7 ee 42 62 fd 84 c3 40 48 ac 41 e4 2d 86 c3
       119.420074 -265.97955 21.535278 -268.35852
000290 9b 43 95 42 86 7e 28 c3 1d 50 87 c2 4e 4f 3f c3
       74.63204 -168.49423 -67.65647 -191.30978
0002a0 51 b1 38 41 7f fb 56 c3 9c 4b 4c 42 47 00 53 c3
       11.54329 -214.9824 51.073837 -211.00108
0002b0 0a 9a 74 42 53 1b 6c c3 e5 9b 24 42 c4 0a a1 c3
       61.15043 -236.10674 41.15224 -322.0841
0002c0 f5 a9 ff 42 83 d0 80 c3 02 d5 5d c2 f7 35 44 c3
       127.83195 -257.629 -55.458015 -196.2108
0002d0 39 9a 05 43 ad 15 61 c3 fa d4 8e 42 db d3 9c c3
       133.60243 -225.08467 71.41597 -313.65512
0002e0 dc f4 fe 42 e5 54 6e c3 f7 f5 1a 42 19 c8 7b c3
       127.47824 -238.33162 38.7402 -251.78163
0002f0 dc 77 41 c2 25 90 51 c3 b7 ed 2c c1 f7 ce d3 c3
       -48.36705 -209.56306 -10.808036 -423.6169
000300 2e 5b 0f 42 e5 4b 86 c3 d9 ac 21 42 62 1f a6 c3
       35.839043 -268.59293 40.418797 -332.24518
000310 c5 95 a7 42 4d 1b 5a c3 ae d2 19 43 24 54 9d c3
       83.79252 -218.10664 153.82297 -314.65735
000320 f8 fc c7 42 15 75 8b c3 d2 19 b2 c2 fb 00 3a c3
       99.99408 -278.9147 -89.05043 -186.00383
000330 f2 c0 02 43 b2 bb 8a c3 f3 4e 8a 3e 7f 80 9e c3
       130.7537 -277.46637 0.27013358 -317.00388
000340 bc f9 b4 42 54 98 61 c3 43 d5 00 43 a2 8f 95 c3
       90.48776 -225.59503 128.83305 -299.12213
000350 d8 29 1e 43 90 b0 b3 c3 0f c8 1b 42 53 70 5e c3
       158.16345 -359.3794 38.94537 -222.43877
000360 40 c7 0f 43 75 88 9b c3 b1 e0 f9 42 3c 2e 48 c3
       143.77832 -311.06607 124.93885 -200.1806
000370 72 48 8a 42 3b 75 02 c3 2e 83 dd 42 35 c0 36 c3
       69.141495 -130.45793 110.75621 -182.75081
000380 32 a0 c9 42 0c 4e 5b c3 4b d8 ac c2 50 05 8b c3
       100.81288 -219.30487 -86.42245 -278.0415
000390 5a 8d 63 c1 10 66 8e c3 00 6b 99 42 27 31 6f c3
       -14.22201 -284.79736 76.708984 -239.192
0003a0 63 bc be 42 5e 0b 19 c3 fb 15 95 40 57 bd a4 c3
       95.36794 -153.0444 4.658933 -329.47922
0003b0 27 ac fb bf 84 ca a6 c3 f4 f2 b0 42 7b e1 cd c3
       -1.9661912 -333.58215 88.47452 -411.76157
0003c0 86 64 80 c2 c4 de a7 c3 60 08 c0 42 bb 97 52 c3
       -64.196335 -335.74036 96.01636 -210.5927
0003d0 11 75 19 c2 cd 60 83 c3 46 30 9f 42 eb 13 55 c3
       -38.364323 -262.75626 79.594284 -213.0778
0003e0 25 17 5a 42 1d 17 39 c3 1b 5d a1 42 06 75 64 c3
       54.522602 -185.09029 80.68185 -228.45712
0003f0 f3 aa 15 43 11 c2 b1 c3 1d d9 88 c2 92 3e b0 c3
       149.66777 -355.51614 -68.42405 -352.48883

variational_strategy._variational_distribution.variational_mean f4 [300]
000000 21 21 5f c1 04 4c 3c c1 fa 85 60 c1 bc a4 68 c1
       -13.945588 -11.7685585 -14.032709 -14.540218
000010 fc d2 3d c1 9b 7d 5b c1 0c 87 43 c1 a4 80 5b c1
       -11.86401 -13.718165 -12.22047 -13.718906
000020 ff e2 6b c1 52 ff 52 c1 ec 38 4b c1 72 26 e7 c0
       -14.742919 -13.187334 -12.701397 -7.223443
000030 ed 9d 5a c1 7c 77 63 c1 b6 36 3d c1 06 5e 3a c1
       -13.663556 -14.216671 -11.825857 -11.647955
000040 a2 33 4f c1 58 dc 17 c1 76 57 28 c1 4f 51 67 c1
       -12.950106 -9.491295 -10.521353 -14.457351
000050 4f 10 35 c1 6d 49 66 c1 ca 69 50 c1 5c 7d 44 c1
       -11.316482 -14.392926 -13.025827 -12.280605
000060 dd bd 3a c1 58 f6 01 c1 75 9c 13 c1 81 b3 59 c1
       -11.671353 -8.1226425 -9.2256975 -13.606324
000070 a8 c8 58 c1 f5 96 37 c1 ad 5b 1f c1 7c 78 28 c1
       -13.548988 -11.474355 -9.959882 -10.529415
000080 a5 84 07 c1 a2 04 57 c1 1a 8e 84 c0 9f 5d 38 c1
       -8.469884 -13.438631 -4.1423464 -11.522857
000090 4c 9f 23 c1 4c 3e 22 c1 b7 bc 2c c1 ec d0 19 c1
       -10.226391 -10.140209 -10.796073 -9.613506
0000a0 a7 fa 01 c1 7c 62 34 c1 3a 41 21 c1 c0 81 1b c1
       -8.123694 -11.274044 -10.078424 -9.719177
0000b0 c1 6f 40 c1 fb 9d 48 c1 73 a7 16 c1 ea c3 ed c0
       -12.027284 -12.538569 -9.415881 -7.4301653
0000c0 e0 e0 0b c1 fe ea d0 c0 db 93 17 c1 4e 9a 0d c1
       -8.742401 -6.5286856 -9.473598 -8.850172
0000d0 d1 cd 0c c1 42 9d 1a c1 62 14 f8 c0 02 c2 26 c1
       -8.800248 -9.663393 -7.752488 -10.422365
0000e0 73 d9 0f c1 95 09 14 c1 ae 2a 5a c0 d8 07 45 c0
       -8.990588 -9.252339 -3.408855 -3.0786037
0000f0 bd 24 a4 c0 67 a2 4b c1 b8 50 37 c1 36 b2 b4 c0
       -5.1294847 -12.727149 -11.457207 -5.6467543
000100 ce 18 0d c1 40 96 ce c0 3d e1 08 c1 67 fc 21 c1
       -8.818556 -6.455841 -8.55499 -10.124122
000110 43 f9 2c c1 2d 72 39 c1 f4 5f 08 c1 b6 70 0e c0
       -10.810855 -11.590375 -8.523426 -2.2256293
000120 1a ba 1a c1 37 71 3d c1 5e 4d ee c0 64 bc 1a c1
       -9.670435 -11.84014 -7.446944 -9.670994
000130 70 67 2f c1 72 0e 0e c1 c2 85 33 c1 52 95 04 c1
       -10.962753 -8.878527 -11.220156 -8.286455
000140 64 fe 4e c1 2a 28 4a c1 ba 30 13 c1 b4 72 c0 c0
       -12.937107 -12.634806 -9.199396 -6.014002
000150 20 03 13 c1 d2 c9 12 c1 c0 86 04 c1 bf 2f 17 c1
       -9.188263 -9.174273 -8.282898 -9.449157
000160 ab b5 14 c1 c8 8e 01 c1 b9 13 33 c1 13 b0 f6 c0
       -9.294353 -8.097359 -11.192315 -7.7089934
000170 b2 99 ea c0 89 29 1f c1 60 a5 e7 c0 9a 30 e7 c0
       -7.3312616 -9.94764 -7.2389374 -7.224683
000180 fa c1 b2 c0 b2 2f 12 40 a3 08 31 c1 bc fd 23 c1
       -5.586179 2.284161 -11.064609 -10.249447
000190 58 1e ec c0 c5 2d bc c0 f2 2d 42 c1 73 fa 55 c1
       -7.378704 -5.880587 -12.136217 -13.373645
0001a0 92 c7 cc c0 e2 69 20 c1 e9 b0 3e c1 27 c7 d3 c0
       -6.3993616 -10.02585 -11.918191 -6.6180606
0001b0 75 e8 ce c0 e5 1d e2 c0 02 a6 0d c1 df 6f 29 c1
       -6.465876 -7.066149 -8.853029 -10.589812
0001c0 7a 55 eb c0 80 cd 83 c0 db c3 35 c1 dd 52 14 c1
       -7.354184 -4.1188354 -11.360316 -9.27023
0001d0 fa aa fd c0 ca cc 1c c1 8a d7 06 c1 6a 5d 0c c1
       -7.927121 -9.799997 -8.427622 -8.772806
0001e0 92 31 15 c1 ae 25 09 c1 1a e6 fe c0 2f 70 04 c1
       -9.324602 -8.571699 -7.9655886 -8.277389
0001f0 48 26 22 c1 b9 41 11 c0 06 92 1d c1 1c 1b 11 c1
       -10.134346 -2.2696364 -9.84815 -9.0691185
000200 a2 55 aa c0 02 1e e6 c0 17 c4 12 c1 5c fd 29 c1
       -5.322953 -7.191163 -9.1728735 -10.624355
000210 ba 67 1c c1 a4 ad 1b c1 37 15 bb c0 a9 4d 14 c1
       -9.775324 -9.729893 -5.8463397 -9.26896
000220 5a e8 59 c0 cc 20 41 c1 94 10 ff c0 de 82 09 c1
       -3.4048066 -12.070507 -7.9707737 -8.59445
000230 86 a6 9f c0 05 8a fa c0 d6 e0 fd c0 74 c5 0b c1
       -4.9890776 -7.829348 -7.933696 -8.735706
000240 50 5a ba c0 26 6e bf c0 ee f9 15 c1 7b ac d5 c0
       -5.8235245 -5.982196 -9.373518 -6.6773047
000250 8f 29 eb c0 97 39 04 c1 2b 80 f9 c0 62 b6 2e c0
       -7.348823 -8.26406 -7.7968955 -2.7298818
000260 bf 5c 10 c1 99 f8 0a c1 ab 07 20 c1 0a 03 06 c1
       -9.022643 -8.685693 -10.001872 -8.375742
000270 8b ae 1b c1 4e 60 4e c0 6e 96 f5 c0 4c 02 0c c1
       -9.730113 -3.224628 -7.674613 -8.750561
000280 6d 58 03 c1 90 09 f5 c0 9d 71 f1 c0 f3 4e fd c0
       -8.209088 -7.6574173 -7.545119 -7.9158874
000290 5a 31 10 c1 96 06 c9 c0 01 c1 17 c1 14 12 ce c0
       -9.012049 -6.282054 -9.48462 -6.439707
0002a0 13 18 f5 c0 32 5f 83 c0 69 8f f1 c0 de 89 c5 c0
       -7.6591887 -4.1053705 -7.548756 -6.1730795
0002b0 34 cf 21 c1 9a c7 17 c1 f4 76 bb c0 1d 8d 06 c1
       -10.113087 -9.486231 -5.8582706 -8.4094515
0002c0 59 bf 0b c1 77 73 e6 c0 d0 c4 95 c0 06 9b 06 c1
       -8.734216 -7.201595 -4.680275 -8.4128475
0002d0 e8 cd 40 c1 35 8c f2 c0 0c 1e 0c c0 66 a7 7f 3f
       -12.05027 -7.579615 -2.189334 0.99864805
0002e0 4f e1 24 c1 b4 78 01 c1 4c 72 c3 c0 30 dd f1 c0
       -10.305007 -8.091969 -6.1077023 -7.5582504
0002f0 a7 15 96 c0 8a ed a4 c0 7b b4 04 c1 fb 3e 80 c0
       -4.690143 -5.1539965 -8.294063 -4.007688
000300 ab 9e 13 c1 32 cd d2 c0 38 2e a6 c0 5a 92 d3 c0
       -9.226237 -6.5875483 -5.193142 -6.611615
000310 88 4e 09 c1 0c 98 ff c0 c1 b6 02 c1 48 4a bb c0
       -8.581673 -7.9873104 -8.169618 -5.8528175
000320 15 84 e8 c0 2a 7b a1 c0 b6 41 fe bf bb 75 fb c0
       -7.2661233 -5.0462847 -1.9863803 -7.8581214
000330 19 f2 01 c1 43 98 b6 c0 dc 53 9e c0 a7 a7 2f c1
       -8.121606 -5.7060866 -4.9477367 -10.978431
000340 8e 8b d9 c0 13 78 11 c1 49 b7 17 c1 f0 1c eb c0
       -6.7982855 -9.091815 -9.482247 -7.3472824
000350 2e 7a b2 c0 09 08 ee c0 5a c7 08 c0 08 16 f8 c0
       -5.5774145 -7.438481 -2.1371675 -7.7526894
000360 74 39 d4 c0 49 d1 7c c0 f2 8a d9 c0 a1 01 98 c0
       -6.6320133 -3.9502738 -6.798211 -4.750199
000370 4f 72 05 c1 12 57 aa c0 08 7d 44 c0 01 7e 07 c1
       -8.340407 -5.3231287 -3.0701313 -8.468263
000380 15 b5 e2 bf f3 ab e3 c0 51 79 95 c0 ac e5 0f c1
       -1.7711512 -7.11474 -4.671059 -8.993572
000390 0e 24 aa c0 ff a9 af bf ae 07 37 bf 21 79 7b c0
       -5.316901 -1.3723754 -0.71496093 -3.9292681
0003a0 ed 27 cd c0 8f 62 5f c0 b3 2e c6 c0 3c e4 e6 c0
       -6.4111238 -3.4903905 -6.1932006 -7.2153606
0003b0 18 ff cb c0 96 c2 a4 c0 be da 9e c0 df 25 dc c0
       -6.3748894 -5.148753 -4.964202 -6.879623
0003c0 36 50 f9 c0 dd 60 7b c0 ad 30 8d c0 14 b6 8c c0
       -7.7910414 -3.927787 -4.412192 -4.3972263
0003d0 dc 95 65 c0 b1 a8 23 c1 61 da 5d c0 83 a4 72 c0
       -3.5872717 -10.228684 -3.4664538 -3.791291
0003e0 e6 41 02 c1 ad 4e a3 c0 8e ea fb c0 ef 84 dd c0
       -8.1410885 -5.103354 -7.872382 -6.9224772
0003f0 4f e1 29 c0 d0 26 02 c1 58 40 78 40 2e b6 8e c0
       -2.6543767 -8.134476 3.8789272 -4.4597387

variational_strategy._variational_distribution.chol_variational_covar f4 [300, 300]
000000 f3 50 1c 3f 00 00 00 00 00 00 00 00 00 00 00 00
       0.6106102 0.0 0.0 0.0
000010 00 00 00 00 00 00 00 00 00 00 00 00 00 00 00 00
       0.0 0.0 0.0 0.0
000020 00 00 00 00 00 00 00 00 00 00 00 00 00 00 00 00
       0.0 0.0 0.0 0.0
000030 00 00 00 00 00 00 00 00 00 00 00 00 00 00 00 00
       0.0 0.0 0.0 0.0
000040 00 00 00 00 00 00 00 00 00 00 00 00 00 00 00 00
       0.0 0.0 0.0 0.0
000050 00 00 00 00 00 00 00 00 00 00 00 00 00 00 00 00
       0.0 0.0 0.0 0.0
000060 00 00 00 00 00 00 00 00 00 00 00 00 00 00 00 00
       0.0 0.0 0.0 0.0
000070 00 00 00 00 00 00 00 00 00 00 00 00 00 00 00 00
       0.0 0.0 0.0 0.0
000080 00 00 00 00 00 00 00 00 00 00 00 00 00 00 00 00
       0.0 0.0 0.0 0.0
000090 00 00 00 00 00 00 00 00 00 00 00 00 00 00 00 00
       0.0 0.0 0.0 0.0
0000a0 00 00 00 00 00 00 00 00 00 00 00 00 00 00 00 00
       0.0 0.0 0.0 0.0
0000b0 00 00 00 00 00 00 00 00 00 00 00 00 00 00 00 00
       0.0 0.0 0.0 0.0
0000c0 00 00 00 00 00 00 00 00 00 00 00 00 00 00 00 00
       0.0 0.0 0.0 0.0
0000d0 00 00 00 00 00 00 00 00 00 00 00 00 00 00 00 00
       0.0 0.0 0.0 0.0
0000e0 00 00 00 00 00 00 00 00 00 00 00 00 00 00 00 00
       0.0 0.0 0.0 0.0
0000f0 00 00 00 00 00 00 00 00 00 00 00 00 00 00 00 00
       0.0 0.0 0.0 0.0
000100 00 00 00 00 00 00 00 00 00 00 00 00 00 00 00 00
       0.0 0.0 0.0 0.0
000110 00 00 00 00 00 00 00 00 00 00 00 00 00 00 00 00
       0.0 0.0 0.0 0.0
000120 00 00 00 00 00 00 00 00 00 00 00 00 00 00 00 00
       0.0 0.0 0.0 0.0
000130 00 00 00 00 00 00 00 00 00 00 00 00 00 00 00 00
       0.0 0.0 0.0 0.0
000140 00 00 00 00 00 00 00 00 00 00 00 00 00 00 00 00
       0.0 0.0 0.0 0.0
000150 00 00 00 00 00 00 00 00 00 00 00 00 00 00 00 00
       0.0 0.0 0.0 0.0
000160 00 00 00 00 00 00 00 00 00 00 00 00 00 00 00 00
       0.0 0.0 0.0 0.0
000170 00 00 00 00 00 00 00 00 00 00 00 00 00 00 00 00
       0.0 0.0 0.0 0.0
000180 00 00 00 00 00 00 00 00 00 00 00 00 00 00 00 00
       0.0 0.0 0.0 0.0
000190 00 00 00 00 00 00 00 00 00 00 00 00 00 00 00 00
       0.0 0.0 0.0 0.0
0001a0 00 00 00 00 00 00 00 00 00 00 00 00 00 00 00 00
       0.0 0.0 0.0 0.0
0001b0 00 00 00 00 00 00 00 00 00 00 00 00 00 00 00 00
       0.0 0.0 0.0 0.0
0001c0 00 00 00 00 00 00 00 00 00 00 00 00 00 00 00 00
       0.0 0.0 0.0 0.0
0001d0 00 00 00 00 00 00 00 00 00 00 00 00 00 00 00 00
       0.0 0.0 0.0 0.0
0001e0 00 00 00 00 00 00 00 00 00 00 00 00 00 00 00 00
       0.0 0.0 0.0 0.0
0001f0 00 00 00 00 00 00 00 00 00 00 00 00 00 00 00 00
       0.0 0.0 0.0 0.0
000200 00 00 00 00 00 00 00 00 00 00 00 00 00 00 00 00
       0.0 0.0 0.0 0.0
000210 00 00 00 00 00 00 00 00 00 00 00 00 00 00 00 00
       0.0 0.0 0.0 0.0
000220 00 00 00 00 00 00 00 00 00 00 00 00 00 00 00 00
       0.0 0.0 0.0 0.0
000230 00 00 00 00 00 00 00 00 00 00 00 00 00 00 00 00
       0.0 0.0 0.0 0.0
000240 00 00 00 00 00 00 00 00 00 00 00 00 00 00 00 00
       0.0 0.0 0.0 0.0
000250 00 00 00 00 00 00 00 00 00 00 00 00 00 00 00 00
       0.0 0.0 0.0 0.0
000260 00 00 00 00 00 00 00 00 00 00 00 00 00 00 00 00
       0.0 0.0 0.0 0.0
000270 00 00 00 00 00 00 00 00 00 00 00 00 00 00 00 00
       0.0 0.0 0.0 0.0
000280 00 00 00 00 00 00 00 00 00 00 00 00 00 00 00 00
       0.0 0.0 0.0 0.0
000290 00 00 00 00 00 00 00 00 00 00 00 00 00 00 00 00
       0.0 0.0 0.0 0.0
0002a0 00 00 00 00 00 00 00 00 00 00 00 00 00 00 00 00
       0.0 0.0 0.0 0.0
0002b0 00 00 00 00 00 00 00 00 00 00 00 00 00 00 00 00
       0.0 0.0 0.0 0.0
0002c0 00 00 00 00 00 00 00 00 00 00 00 00 00 00 00 00
       0.0 0.0 0.0 0.0
0002d0 00 00 00 00 00 00 00 00 00 00 00 00 00 00 00 00
       0.0 0.0 0.0 0.0
0002e0 00 00 00 00 00 00 00 00 00 00 00 00 00 00 00 00
       0.0 0.0 0.0 0.0
0002f0 00 00 00 00 00 00 00 00 00 00 00 00 00 00 00 00
       0.0 0.0 0.0 0.0
000300 00 00 00 00 00 00 00 00 00 00 00 00 00 00 00 00
       0.0 0.0 0.0 0.0
000310 00 00 00 00 00 00 00 00 00 00 00 00 00 00 00 00
       0.0 0.0 0.0 0.0
000320 00 00 00 00 00 00 00 00 00 00 00 00 00 00 00 00
       0.0 0.0 0.0 0.0
000330 00 00 00 00 00 00 00 00 00 00 00 00 00 00 00 00
       0.0 0.0 0.0 0.0
000340 00 00 00 00 00 00 00 00 00 00 00 00 00 00 00 00
       0.0 0.0 0.0 0.0
000350 00 00 00 00 00 00 00 00 00 00 00 00 00 00 00 00
       0.0 0.0 0.0 0.0
000360 00 00 00 00 00 00 00 00 00 00 00 00 00 00 00 00
       0.0 0.0 0.0 0.0
000370 00 00 00 00 00 00 00 00 00 00 00 00 00 00 00 00
       0.0 0.0 0.0 0.0
000380 00 00 00 00 00 00 00 00 00 00 00 00 00 00 00 00
       0.0 0.0 0.0 0.0
000390 00 00 00 00 00 00 00 00 00 00 00 00 00 00 00 00
       0.0 0.0 0.0 0.0
0003a0 00 00 00 00 00 00 00 00 00 00 00 00 00 00 00 00
       0.0 0.0 0.0 0.0
0003b0 00 00 00 00 00 00 00 00 00 00 00 00 00 00 00 00
       0.0 0.0 0.0 0.0
0003c0 00 00 00 00 00 00 00 00 00 00 00 00 00 00 00 00
       0.0 0.0 0.0 0.0
0003d0 00 00 00 00 00 00 00 00 00 00 00 00 00 00 00 00
       0.0 0.0 0.0 0.0
0003e0 00 00 00 00 00 00 00 00 00 00 00 00 00 00 00 00
       0.0 0.0 0.0 0.0
0003f0 00 00 00 00 00 00 00 00 00 00 00 00 00 00 00 00
       0.0 0.0 0.0 0.0

cov.base_kernel.raw_lengthscale f4 [1, 2]
000000 f4 a9 8b 41 8c 27 8e 41
       17.457985 17.76931
