slam/rbpf_slam/data/results/svgp_particle1.pth (torch, 367369 bytes, 4 tensors)

variational_strategy.inducing_points f4 [300, 2]
264.30255 -44.91533 164.76721 -68.61776 119.84966 -173.8414 270.3046 -113.62801
302.0056 -21.774725 57.05055 -130.77563 158.25897 -20.799875 150.18054 -96.00645
143.95871 -68.23303 179.11896 -88.79222 203.52768 -225.7178 289.77533 -133.3168
249.96457 -245.47443 296.40662 -119.26183 311.81888 -245.8623 195.242 -183.528
210.7217 -106.975494 231.7495 -218.62497 253.97742 -92.11422 151.79193 -77.23424
201.0169 -231.60669 307.81906 -245.66087 224.72273 -120.71829 216.29422 -157.81284
151.29887 -238.0663 164.1323 -109.279686 279.22925 -42.36639 194.20244 -258.22232
230.52011 -86.55576 221.44899 -49.74157 220.08957 -18.77778 200.80466 -162.0708
346.6779 -151.27013 232.74905 -132.82637 143.27205 -194.41968 371.66745 -131.5535
336.06992 -57.037037 241.64874 -208.62796 195.34631 -46.294933 106.62955 -172.67218
371.1537 -259.25076 364.1799 -87.82716 168.78958 -160.76186 192.15471 -94.640785
173.15262 -69.96099 196.14436 -225.23154 255.02402 -188.34769 369.82843 -152.3931
288.0741 -138.08002 239.16508 -92.24292 196.70634 -19.557783 228.57437 -73.84829
195.8495 -165.37328 230.56058 -106.49443 161.33171 -234.25708 226.55093 -242.14345
226.58292 -24.797102 349.6368 -55.08144 288.12405 -97.802986 326.69934 -271.9576
127.33167 -197.40404 263.41263 -183.768 349.76993 -229.58476 271.41336 -95.00982
186.37698 -11.189004 150.6182 -77.612595 300.67972 -158.7281 353.00485 -107.84723
95.01735 -155.57756 69.37383 -115.00814 190.09842 -127.51757 168.68834 -171.20056
298.30054 -96.94723 197.95242 -130.11409 226.68901 -29.292559 280.74033 -22.034817
313.35638 -154.82118 256.37256 -50.08386 264.9217 -67.4467 210.27228 -261.43204
187.78984 -132.197 259.66562 -46.083366 213.06934 -128.34563 141.59894 -147.70763
195.95854 -126.84704 364.6552 -190.05272 308.1347 -56.922066 215.13351 -242.40993
275.53137 -193.4406 203.06702 -56.034527 259.1 -93.21265 309.4153 -305.0855
127.207016 -58.129143 233.85371 -208.95834 187.04527 -280.7815 141.70306 -118.53259
162.41438 -161.5715 201.42264 -179.19008 316.72687 -35.874218 244.11975 -272.8475
202.97049 -237.88106 216.07686 -234.96231 281.83862 -132.94768 236.05016 -297.24725
180.9921 -143.97583 307.80887 -137.3882 374.24792 -195.20227 403.35214 -35.007374
229.23485 -104.00438 278.19086 -37.06505 272.8538 -130.14343 203.36467 -46.041405
229.1988 -289.72177 191.37138 -162.87086 199.07181 -112.0261 170.53593 -160.1246
321.10526 -205.68109 264.38626 -122.76089 200.86955 -117.73404 179.3371 -198.81577
96.086624 -143.75789 202.13812 -163.91983 269.02505 -265.37045 348.89346 -81.60947
309.7218 -59.0476 292.53586 -44.745964 204.57005 -187.58 168.7333 -87.694824
00000000: ba26 8443 4ca9 33c2 68c4 2443 4b3c 89c2
00000010: 07b3 ef42 66d7 2dc3 fd26 8743 8b41 e3c2
00000020: b800 9743 a332 aec1 c333 6442 90c6 02c3
00000030: 4c42 1e43 2566 a6c1 382e 1643 4d03 c0c2
00000040: 6ef5 0f43 5077 88c2 741e 3343 9e95 b1c2
00000050: 1687 4b43 c2b7 61c3 3ee3 9043 1a51 05c3
00000060: eef6 7943 7479 75c3 0c34 9443 0f86 eec2
00000070: d1e8 9b43 c0dc 75c3 f43d 4343 2b87 37c3
00000080: c1b8 5243 74f3 d5c2 dfbf 6743 fe9f 5ac3
00000090: 38fa 7d43 7b3a b8c2 bcca 1743 ee77 9ac2
000000a0: 5404 4943 509b 67c3 d7e8 9943 2fa9 75c3
000000b0: 05b9 6043 c46f f1c2 524b 5843 16d0 1dc3
000000c0: 834c 1743 f910 6ec3 de21 2443 338f dac2
000000d0: 589d 8b43 2f77 29c2 d333 4243 751c 81c3
000000e0: 2685 6643 8d1c adc2 f172 5d43 5ef7 46c2
000000f0: ee16 5c43 e538 96c1 fecd 4843 2012 22c3
00000100: c556 ad43 2745 17c3 c2bf 6843 8dd3 04c3
00000110: a545 0f43 706b 42c3 6fd5 b943 b28d 03c3
00000120: f308 a843 ed25 64c2 14a6 7143 c2a0 50c3
00000130: a858 4343 032e 39c2 5442 d542 14ac 2cc3
00000140: ac93 b943 19a0 81c3 0717 b643 82a7 afc2
00000150: 22ca 2843 09c3 20c3 9b27 4043 1548 bdc2
00000160: 1227 2d43 07ec 8bc2 f524 4443 463b 61c3
00000170: 2606 7f43 0259 3cc3 0aea b843 a264 18c3
00000180: 7c09 9043 7c14 0ac3 432a 6f43 607c b8c2
00000190: d3b4 4443 5776 9cc1 0a93 6443 53b2 93c2
000001a0: 79d9 4343 8f5f 25c3 828f 6643 26fd d4c2
000001b0: eb54 2143 d041 6ac3 0a8d 6243 b924 72c3
000001c0: 3a95 6243 7760 c6c1 83d1 ae43 6553 5cc2
000001d0: e10f 9043 219b c3c2 8459 a343 93fa 87c3
000001e0: d1a9 fe42 6f67 45c3 d1b4 8343 9cc4 37c3
000001f0: 8de2 ae43 b395 65c3 e9b4 8743 0705 bec2
00000200: 8260 3a43 2906 33c1 429e 1643 a639 9bc2
00000210: 0157 9643 65ba 1ec3 9f80 b043 c8b1 d7c2
00000220: e208 be42 db93 1bc3 67bf 8a42 2b04 e6c2
00000230: 3219 3e43 ff08 ffc2 37b0 2843 5833 2bc3
00000240: 7826 9543 fbe4 c1c2 d2f3 4543 351d 02c3
00000250: 63b0 6243 2957 eac1 c35e 8c43 4e47 b0c1
00000260: 9ead 9c43 39d2 1ac3 b02f 8043 df55 48c2
00000270: fa75 8443 b6e4 86c2 b445 5243 4db7 82c3
00000280: 33ca 3b43 6f32 04c3 33d5 8143 5e55 38c2
00000290: c011 5543 7b58 00c3 5499 0d43 27b5 13c3
000002a0: 63f5 4343 afb1 fdc2 de53 b643 7f0d 3ec3
000002b0: 3e11 9a43 32b0 63c2 2e22 5743 f168 72c3
000002c0: 04c4 8943 cb70 41c3 2811 4b43 5b23 60c2
000002d0: cd8c 8143 e06c bac2 29b5 9a43 f28a 98c3
000002e0: fe69 fe42 3e84 68c2 8dda 6943 56f5 50c3
000002f0: 970b 3b43 0864 8cc3 fcb3 0d43 b010 edc2
00000300: 156a 2243 4e92 21c3 326c 4943 a930 33c3
00000310: 0a5d 9e43 337f 0fc2 a81e 7443 7b6c 88c3
00000320: 72f8 4a43 8de1 6dc3 ad13 5843 5af6 6ac3
00000330: 58eb 8c43 9bf2 04c3 d70c 6c43 a69f 94c3
00000340: fafd 3443 d0f9 0fc3 89e7 9943 6163 09c3
00000350: bc1f bb43 c833 43c3 13ad c943 8d07 0cc2
00000360: 1f3c 6543 3e02 d0c2 6e18 8b43 9c42 14c2
00000370: 496d 8843 b824 02c3 5b5d 4b43 662a 38c2
00000380: e532 6543 63dc 90c3 135f 3f43 f1de 22c3
00000390: 6212 4743 5d0d e0c2 3389 2a43 e61f 20c3
000003a0: 798d a043 5cae 4dc3 7131 8443 9385 f5c2
000003b0: 9bde 4843 d477 ebc2 4c56 3343 d6d0 46c3
000003c0: 5a2c c042 05c2 0fc3 5c23 4a43 7aeb 23c3
000003d0: 3583 8643 6baf 84c3 5d72 ae43 0c38 a3c2
000003e0: 64dc 9a43 be30 6cc2 9744 9243 defb 32c2
000003f0: ef91 4c43 7b94 3bc3 babb 2843 c063 afc2

variational_strategy._variational_distribution.variational_mean f4 [300]
-12.914961 -12.7305975 -15.471672 -13.787246 -7.6499405 -11.8799515 -11.779334 -9.644916
-4.780446 -7.7009277 -16.18179 -9.358504 -13.443386 -4.006482 -13.954847 -11.972497
-9.107169 -5.7706485 -7.039507 0.38487527 -5.961115 -2.792409 -6.2582526 -7.6511097
-10.119614 -4.164912 -4.864157 -9.041552 -5.0481534 -8.767502 -6.958729 -1.9289037
-12.417855 -3.9207397 -7.7863407 -9.783506 -10.550531 -5.4712634 -4.890346 -5.6753783
-12.701256 -8.731912 -6.250627 -4.923312 -2.2101374 -2.4316533 -8.434823 -4.256314
-5.9580407 -0.39485148 -2.5288715 -3.823463 -0.36651203 -1.8024381 -2.9223464 -2.7787752
-4.108429 -4.6192737 -4.1018014 -8.237458 -3.5245705 -3.8476276 -12.043175 -1.8089497
-1.7966886 -3.6726518 -6.618961 -3.4929686 -6.503491 -5.7000504 -4.1101546 -1.5155531
-2.7097304 -2.266362 -0.51240283 -2.01463 -4.097271 -3.207638 -1.5392845 -3.616605
-0.63565 -2.6703138 -0.5254118 -5.9568753 -1.4193065 -9.619063 -4.3358464 -1.1441642
-4.7520905 -1.0752102 -2.5051975 -6.183074 -5.7315984 -1.6221253 -5.9883904 -5.7356997
-1.3064868 -1.354204 -3.9723914 -8.31674 -1.0166581 -0.19912423 -2.4565387 -10.278758
-1.3373201 -1.5530761 -7.0865746 -6.66466 -0.035132825 -0.74199253 -1.6173602 0.18539353
-0.45428485 -0.5773195 -0.19973457 -1.148176 -8.404075 -1.0166968 -2.6881588 -3.7216818
-2.047156 -0.107724346 -5.5964746 -2.2254171 -2.1712148 0.030237867 -2.1155958 -4.108789
-1.497174 -0.06798774 -1.319608 -1.9827394 -0.53252643 -1.2128979 -1.0018845 -0.654645
-4.425995 -1.3292091 -2.5628994 -1.6167513 -0.8903948 -0.386805 -1.8249792 0.3286745
-1.7626292 -0.031931102 -1.9188532 -0.40263522 -0.47866282 -0.15325023 -1.7681881 -3.2326267
-3.7364423 -3.5037744 -8.209626 -1.2040422 -0.7879411 -0.85146785 -1.2689114 -0.2355379
-0.038538888 -0.88859886 -2.7474346 -0.11762887 -0.1167554 -0.11634235 -0.0187527 -2.9362898
-0.19686408 -1.7590517 -1.0614735 -0.50899166 -0.075614505 -1.6045699 -0.077611715 -0.65502053
-0.7394805 -0.41977265 -1.3428948 -1.6835874 -1.6659642 -0.8121231 -1.8313704 -0.8932573
-0.65871054 -1.4721637 -0.103804186 -2.5394778 -0.0126493815 -2.1083512 0.06990862 -2.2309687
-0.3648582 -0.33863094 -0.8315643 -0.27427557 -0.27732605 -0.8755376 -6.5636687 0.19939004
-0.40161487 -5.095487 -1.1134621 -0.19014752 -0.06456647 -0.15896949 0.120960705 -0.050498836
-1.7755324 -0.61206746 0.5195768 -1.4410625 -8.484022 -0.20517437 -1.6842581 -0.122558154
-0.8312091 -0.3816813 0.026523584 0.12079707 -0.11016933 0.050452307 -1.1928245 -2.3688035
-0.11041929 -1.917428 -0.41396627 -1.6200371 -0.13737921 -1.2698629 -0.5518005 -0.37525308
0.36615184 -0.21377662 -0.34415352 -0.1863735 0.1655004 -1.6277233 -9.073539 -0.004596688
-0.6520422 -1.2859814 -0.89462924 -1.1501136 -0.1749501 -0.75144327 -1.1271156 0.01976487
-0.15748335 -0.8417924 -7.80658 -0.4200201 0.10699822 0.0015753349 0.034920014 0.007936031
00000000: aea3 4ec1 87b0 4bc1 f88b 77c1 8f98 5cc1
00000010: 50cc f4c0 4814 3ec1 2778 3cc1 9351 1ac1
00000020: 6af9 98c0 006e f6c0 4e74 81c1 6fbc 15c1
00000030: 1c18 57c1 1a35 80c0 0e47 5fc1 598f 3fc1
00000040: f7b6 11c1 27a9 b8c0 a443 e1c0 5f0e c53e
00000050: 74c1 bec0 d4b6 32c0 9b43 c8c0 e4d5 f4c0
00000060: f0e9 21c1 f646 85c0 2da7 9bc0 32aa 10c1
00000070: 798a a1c0 b047 0cc1 e8ad dec0 51e6 f6bf
00000080: 89af 46c1 66ed 7ac0 b429 f9c0 3e89 1cc1
00000090: face 28c1 9714 afc0 b77d 9cc0 b39c b5c0
000000a0: 5838 4bc1 e9b5 0bc1 2305 c8c0 c68b 9dc0
000000b0: e472 0dc0 35a0 1bc0 09f5 06c1 b933 88c0
000000c0: 45a8 bec0 f929 cabe 08d9 21c0 9eb3 74c0
000000d0: 77a7 bbbe 4bb6 e6bf b907 3bc0 74d7 31c0
000000e0: 4078 83c0 17d1 93c0 f541 83c0 a1cc 03c1
000000f0: 9092 61c0 883f 76c0 d8b0 40c1 aa8b e7bf
00000100: e4f9 e5bf ba0c 6bc0 87ce d3c0 cc8c 5fc0
00000110: 991c d0c0 d066 b6c0 6386 83c0 a5fd c1bf
00000120: 396c 2dc0 130c 11c0 d52c 03bf b3ef 00c0
00000130: d81c 83c0 f149 4dc0 4607 c5bf 7576 67c0
00000140: f5b9 22bf 6ce6 2ac0 6381 06bf b99e bec0
00000150: d6ab b5bf afe7 19c1 41bf 8ac0 f973 92bf
00000160: 2011 98c0 7da0 89bf 2855 20c0 bedb c5c0
00000170: 4169 b7c0 cda1 cfbf e5a0 bfc0 da8a b7c0
00000180: f63a a7bf 8f56 adbf a93b 7ec0 5e11 05c1
00000190: da21 82bf 39e7 4bbe ee37 1dc0 cb75 24c1
000001a0: 4e2d abbf 33cb c6bf 38c5 e2c0 e544 d5c0
000001b0: 70e7 0fbd 39f3 3dbf a905 cfbf cdd7 3d3e
000001c0: 0698 e8be 36cb 13bf 3887 4cbe 6ef7 92bf
000001d0: 1777 06c1 1f23 82bf cb0a 2cc0 0930 6ec0
000001e0: 9b04 03c0 959e dcbd 5216 b3c0 3c6d 0ec0
000001f0: 2ff5 0ac0 67b5 f73c ec65 07c0 337b 83c0
00000200: 66a3 bfbf 283d 8bbd eae8 a8bf 68ca fdbf
00000210: a753 08bf 3d40 9bbf c03d 80bf d196 27bf
00000220: c0a1 8dc0 8623 aabf 8b06 24c0 b5f1 cebf
00000230: eaf0 63bf 4e0b c6be eb98 e9bf 0648 a83e
00000240: d59d e1bf 30ca 02bd fb9c f5bf 3426 cebe
00000250: 4b13 f5be a1ed 1cbe fd53 e2bf 5be3 4ec0
00000260: df21 6fc0 d73d 60c0 a15a 03c1 0e1e 9abf
00000270: 82b6 49bf ccf9 59bf b06b a2bf d930 71be
00000280: f4da 1dbd 377b 63bf f8d5 2fc0 68e7 f0bd
00000290: 751d efbd e644 eebd 439f 99bc 2cec 3bc0
000002a0: bd96 49be 9b28 e1bf 5dde 87bf 474d 02bf
000002b0: c7db 9abd 8c62 cdbf e4f2 9ebd 6daf 27bf
000002c0: 984e 3dbf 71ec d6be fae3 abbf cb7f d7bf
000002d0: 513e d5bf 4de7 4fbf 586a eabf 83ac 64bf
000002e0: 41a1 28bf dc6f bcbf 4a97 d4bd ce86 22c0
000002f0: 5a3f 4fbc 3aef 06c0 402c 8f3d 31c8 0ec0
00000300: b2ce babe 0961 adbe 66e1 54bf d96d 8cbe
00000310: aefd 8dbe 3b23 60bf 9309 d2c0 e72c 4c3e
00000320: 77a0 cdbe 3b0e a3c0 ed85 8ebf 08b6 42be
00000330: 6d3b 84bd e6c8 22be 3fba f73d ded7 4ebd
00000340: a544 e3bf 74b0 1cbf fc02 053f bc74 b8bf
00000350: 8ebe 07c1 3b19 52be c595 d7bf c5ff fabd
00000360: 1fca 54bf bb6b c3be fd47 d93c 7464 f73d
00000370: 75a0 e1bd 14a7 4e3d 79ae 98bf 7a9a 17c0
00000380: 8223 e2bd 486e f5bf 63f3 d3be 605d cfbf
00000390: 23ad 0cbe de8a a2bf cc42 0dbf 2c21 c0be
000003a0: 4178 bb3e 42e8 5abe e434 b0be b2d8 3ebe
000003b0: f078 293e 3d59 d0bf 372d 11c1 d09f 96bb
000003c0: 3dec 26bf 0a9b a4bf 6c06 65bf ec36 93bf
000003d0: 1e26 33be 965e 40bf 5345 90bf f0e9 a13c
000003e0: 5143 21be b57f 57bf 81cf f9c0 e00c d7be
000003f0: e221 db3d 787b ce3a 4a08 0f3d 2006 023c

variational_strategy._variational_distribution.chol_variational_covar f4 [300, 300]
0.35732877 0.0 0.0 0.0 0.0 0.0 0.0 0.0
0.0 0.0 0.0 0.0 0.0 0.0 0.0 0.0
0.0 0.0 0.0 0.0 0.0 0.0 0.0 0.0
0.0 0.0 0.0 0.0 0.0 0.0 0.0 0.0
0.0 0.0 0.0 0.0 0.0 0.0 0.0 0.0
0.0 0.0 0.0 0.0 0.0 0.0 0.0 0.0
0.0 0.0 0.0 0.0 0.0 0.0 0.0 0.0
0.0 0.0 0.0 0.0 0.0 0.0 0.0 0.0
0.0 0.0 0.0 0.0 0.0 0.0 0.0 0.0
0.0 0.0 0.0 0.0 0.0 0.0 0.0 0.0
0.0 0.0 0.0 0.0 0.0 0.0 0.0 0.0
0.0 0.0 0.0 0.0 0.0 0.0 0.0 0.0
0.0 0.0 0.0 0.0 0.0 0.0 0.0 0.0
0.0 0.0 0.0 0.0 0.0 0.0 0.0 0.0
0.0 0.0 0.0 0.0 0.0 0.0 0.0 0.0
0.0 0.0 0.0 0.0 0.0 0.0 0.0 0.0
0.0 0.0 0.0 0.0 0.0 0.0 0.0 0.0
0.0 0.0 0.0 0.0 0.0 0.0 0.0 0.0
0.0 0.0 0.0 0.0 0.0 0.0 0.0 0.0
0.0 0.0 0.0 0.0 0.0 0.0 0.0 0.0
0.0 0.0 0.0 0.0 0.0 0.0 0.0 0.0
0.0 0.0 0.0 0.0 0.0 0.0 0.0 0.0
0.0 0.0 0.0 0.0 0.0 0.0 0.0 0.0
0.0 0.0 0.0 0.0 0.0 0.0 0.0 0.0
0.0 0.0 0.0 0.0 0.0 0.0 0.0 0.0
0.0 0.0 0.0 0.0 0.0 0.0 0.0 0.0
0.0 0.0 0.0 0.0 0.0 0.0 0.0 0.0
0.0 0.0 0.0 0.0 0.0 0.0 0.0 0.0
0.0 0.0 0.0 0.0 0.0 0.0 0.0 0.0
0.0 0.0 0.0 0.0 0.0 0.0 0.0 0.0
0.0 0.0 0.0 0.0 0.0 0.0 0.0 0.0
0.0 0.0 0.0 0.0 0.0 0.0 0.0 0.0
00000000: ccf3 b63e 0000 0000 0000 0000 0000 0000
00000010: 0000 0000 0000 0000 0000 0000 0000 0000
00000020: 0000 0000 0000 0000 0000 0000 0000 0000
00000030: 0000 0000 0000 0000 0000 0000 0000 0000
00000040: 0000 0000 0000 0000 0000 0000 0000 0000
00000050: 0000 0000 0000 0000 0000 0000 0000 0000
00000060: 0000 0000 0000 0000 0000 0000 0000 0000
00000070: 0000 0000 0000 0000 0000 0000 0000 0000
00000080: 0000 0000 0000 0000 0000 0000 0000 0000
00000090: 0000 0000 0000 0000 0000 0000 0000 0000
000000a0: 0000 0000 0000 0000 0000 0000 0000 0000
000000b0: 0000 0000 0000 0000 0000 0000 0000 0000
000000c0: 0000 0000 0000 0000 0000 0000 0000 0000
000000d0: 0000 0000 0000 0000 0000 0000 0000 0000
000000e0: 0000 0000 0000 0000 0000 0000 0000 0000
000000f0: 0000 0000 0000 0000 0000 0000 0000 0000
00000100: 0000 0000 0000 0000 0000 0000 0000 0000
00000110: 0000 0000 0000 0000 0000 0000 0000 0000
00000120: 0000 0000 0000 0000 0000 0000 0000 0000
00000130: 0000 0000 0000 0000 0000 0000 0000 0000
00000140: 0000 0000 0000 0000 0000 0000 0000 0000
00000150: 0000 0000 0000 0000 0000 0000 0000 0000
00000160: 0000 0000 0000 0000 0000 0000 0000 0000
00000170: 0000 0000 0000 0000 0000 0000 0000 0000
00000180: 0000 0000 0000 0000 0000 0000 0000 0000
00000190: 0000 0000 0000 0000 0000 0000 0000 0000
000001a0: 0000 0000 0000 0000 0000 0000 0000 0000
000001b0: 0000 0000 0000 0000 0000 0000 0000 0000
000001c0: 0000 0000 0000 0000 0000 0000 0000 0000
000001d0: 0000 0000 0000 0000 0000 0000 0000 0000
000001e0: 0000 0000 0000 0000 0000 0000 0000 0000
000001f0: 0000 0000 0000 0000 0000 0000 0000 0000
00000200: 0000 0000 0000 0000 0000 0000 0000 0000
00000210: 0000 0000 0000 0000 0000 0000 0000 0000
00000220: 0000 0000 0000 0000 0000 0000 0000 0000
00000230: 0000 0000 0000 0000 0000 0000 0000 0000
00000240: 0000 0000 0000 0000 0000 0000 0000 0000
00000250: 0000 0000 0000 0000 0000 0000 0000 0000
00000260: 0000 0000 0000 0000 0000 0000 0000 0000
00000270: 0000 0000 0000 0000 0000 0000 0000 0000
00000280: 0000 0000 0000 0000 0000 0000 0000 0000
00000290: 0000 0000 0000 0000 0000 0000 0000 0000
000002a0: 0000 0000 0000 0000 0000 0000 0000 0000
000002b0: 0000 0000 0000 0000 0000 0000 0000 0000
000002c0: 0000 0000 0000 0000 0000 0000 0000 0000
000002d0: 0000 0000 0000 0000 0000 0000 0000 0000
000002e0: 0000 0000 0000 0000 0000 0000 0000 0000
000002f0: 0000 0000 0000 0000 0000 0000 0000 0000
00000300: 0000 0000 0000 0000 0000 0000 0000 0000
00000310: 0000 0000 0000 0000 0000 0000 0000 0000
00000320: 0000 0000 0000 0000 0000 0000 0000 0000
00000330: 0000 0000 0000 0000 0000 0000 0000 0000
00000340: 0000 0000 0000 0000 0000 0000 0000 0000
00000350: 0000 0000 0000 0000 0000 0000 0000 0000
00000360: 0000 0000 0000 0000 0000 0000 0000 0000
00000370: 0000 0000 0000 0000 0000 0000 0000 0000
00000380: 0000 0000 0000 0000 0000 0000 0000 0000
00000390: 0000 0000 0000 0000 0000 0000 0000 0000
000003a0: 0000 0000 0000 0000 0000 0000 0000 0000
000003b0: 0000 0000 0000 0000 0000 0000 0000 0000
000003c0: 0000 0000 0000 0000 0000 0000 0000 0000
000003d0: 0000 0000 0000 0000 0000 0000 0000 0000
000003e0: 0000 0000 0000 0000 0000 0000 0000 0000
000003f0: 0000 0000 0000 0000 0000 0000 0000 0000

cov.base_kernel.raw_lengthscale f4 [1, 2]
25.319704 25.75753
00000000: c18e ca41 6c0f ce41
