slam/rbpf_slam/data/old_results/exp_as_target/svgp.pth (torch, 44874 bytes, 4 tensors)

variational_strategy.inducing_points f4 [100, 2]
149.75449 -405.9513 -12.409805 -272.1913 -45.653698 -261.93683 -23.487642 -389.77017
147.16956 -336.20825 -14.0588875 -281.45895 -87.51554 -491.44894 109.31163 -218.86053
99.2954 -302.21948 29.639029 -286.8469 -37.843132 -204.03519 98.5668 -321.39792
-13.810445 -243.10455 10.430397 -383.2372 -58.271454 -314.6452 -5.7839136 -401.95425
-71.87281 -321.1777 -60.827724 -209.57263 -79.5715 -316.57562 21.808735 -316.93143
55.01828 -311.02298 15.765588 -184.85161 -20.812038 -179.4991 55.994587 -288.56485
-77.464 -370.47708 -86.18161 -195.11253 147.28961 -272.01944 31.192595 -361.24225
55.386738 -238.01942 115.91984 -280.0384 36.554527 -319.1891 -57.319534 -328.17838
-10.121748 -186.84055 144.10265 -171.25345 132.6538 -201.49562 -77.89614 -198.01665
16.726282 -273.4844 28.98724 -338.03384 130.2177 -257.01233 -6.9161873 -264.83292
-67.19776 -302.9565 133.44467 -143.85344 24.051535 -298.01843 103.7631 -427.27664
18.507256 -152.04465 74.27841 -405.42825 121.18768 -375.8167 58.385178 -146.44641
-37.498653 -314.2723 -67.10963 -252.1875 136.32599 -318.37515 -48.9644 -336.243
-92.703316 -348.12558 -78.01039 -302.70306 30.1419 -263.69577 112.44303 -294.90793
-38.924248 -182.4738 10.1858635 -251.95988 20.871899 -174.69995 67.93864 -390.77167
-77.64143 -218.64027 135.33322 -304.827 -82.59329 -332.74875 -11.84665 -219.06816
0.47510886 -184.72314 69.59072 -230.0829 1.2282263 -326.42148 -93.29322 -290.37115
72.058815 -268.58505 138.09856 -373.14755 -83.49878 -437.26727 35.405956 -301.7521
71.1117 -352.3441 82.45922 -286.72415 -78.66282 -254.83195 39.736282 -154.9599
-84.0095 -273.18182 25.864853 -190.40732 -86.084 -177.52524 -71.36655 -282.1618
14.540722 -295.59286 -74.66931 -339.3772 -16.373352 -435.9145 -81.40187 -414.8639
-55.908066 -345.52966 52.934086 -189.2581 14.320536 -219.92792 115.710724 -312.35867
88.18794 -299.8129 19.183687 -165.08295 146.92169 -214.20355 103.6771 -445.0575
60.346783 -371.42218 60.013943 -255.54454 133.21518 -287.23587 -43.55487 -303.0265
131.23495 -445.21176 10.517033 -308.61307 -93.12589 -306.58633 -17.977045 -421.186
00000000: 26c1 1543 c4f9 cac3 908e 46c1 7d18 88c3
00000010: 639d 36c2 eaf7 82c3 b1e6 bbc1 95e2 c2c3
00000020: 682b 1343 a81a a8c3 34f1 60c1 bfba 8cc3
00000030: f507 afc2 77b9 f5c3 8e9f da42 4cdc 5ac3
00000040: 3f97 c642 181c 97c3 bb1c ed41 676c 8fc3
00000050: 5e5f 17c2 0209 4cc3 3422 c542 efb2 a0c3
00000060: 95f7 5cc1 c41a 73c3 e8e2 2641 5d9e bfc3
00000070: f815 69c2 9652 9dc3 d215 b9c0 25fa c8c3
00000080: e1be 8fc2 bf96 a0c3 974f 73c2 9892 51c3
00000090: 9c24 9fc2 ae49 9ec3 4a78 ae41 3977 9ec3
000000a0: b812 5c42 f182 9bc3 d93f 7c41 03da 38c3
000000b0: 0e7f a6c1 c57f 33c3 75fa 5f42 4d48 90c3
000000c0: 91ed 9ac2 113d b9c3 fc5c acc2 cf1c 43c3
000000d0: 244a 1343 7d02 88c3 6f8a f941 029f b4c3
000000e0: 058c 5d42 f904 6ec3 f5d6 e742 ea04 8cc3
000000f0: d637 1242 3498 9fc3 3447 65c2 d516 a4c3
00000100: aef2 21c1 2ed7 3ac3 471a 1043 e240 2bc3
00000110: 5fa7 0443 e17e 49c3 d3ca 9bc2 4304 46c3
00000120: 6dcf 8541 01be 88c3 dee5 e741 5504 a9c3
00000130: bb37 0243 9481 80c3 6851 ddc0 9d6a 84c3
00000140: 4165 86c2 6f7a 97c3 d671 0543 7bda 0fc3
00000150: 8b69 c041 5c02 95c3 b586 cf42 69a3 d5c3
00000160: dc0e 9441 6e0b 18c3 8c8e 9442 d1b6 cac3
00000170: 1860 f242 8ae8 bbc3 6c8a 6942 4872 12c3
00000180: 9ffe 15c2 db22 9dc3 2138 86c2 0030 7cc3
00000190: 7453 0843 0530 9fc3 8cdb 43c2 1b1f a8c3
000001a0: 1968 b9c2 1310 aec3 5205 9cc2 fe59 97c3
000001b0: 9c22 f141 0fd9 83c3 d5e2 e042 3774 93c3
000001c0: 6eb2 1bc2 4b79 36c3 4cf9 2241 bbf5 7bc3
000001d0: a6f9 a641 30b3 2ec3 95e0 8742 c662 c3c3
000001e0: 6a48 9bc2 e9a3 5ac3 4e55 0743 db69 98c3
000001f0: c42f a5c2 d75f a6c3 e18b 3dc1 7311 5bc3
00000200: 7841 f33e 20b9 38c3 732e 8b42 3915 66c3
00000210: 8536 9d3f f335 a3c3 2196 bac2 822f 91c3
00000220: 1d1e 9042 e34a 86c3 3b19 0a43 e392 bac3
00000230: 60ff a6c2 36a2 dac3 b39f 0d42 45e0 96c3
00000240: 3139 8e42 0b2c b0c3 1feb a442 b15c 8fc3
00000250: 5d53 9dc2 fbd4 7ec3 f4f1 1e42 bcf5 1ac3
00000260: dd04 a8c2 4697 88c3 38eb ce41 4668 3ec3
00000270: 022b acc2 7686 31c3 acbb 8ec2 b614 8dc3
00000280: cca6 6841 e3cb 93c3 b056 95c2 48b0 a9c3
00000290: a0fc 82c1 0ef5 d9c3 c2cd a2c2 946e cfc3
000002a0: dca1 5fc2 ccc3 acc3 81bc 5342 1342 3dc3
000002b0: ea20 6541 8ced 5bc3 e46b e742 e92d 9cc3
000002c0: 3a60 b042 0de8 95c3 3178 9941 3c15 25c3
000002d0: f4eb 1243 1c34 56c3 ad5a cf42 5c87 dec3
000002e0: 1b63 7142 0ab6 b9c3 470e 7042 678b 7fc3
000002f0: 1637 0543 319e 8fc3 3038 2ec2 6483 97c3
00000300: 263c 0343 1b9b dec3 c445 2841 794e 9ac3
00000310: 7540 bac2 0d4b 99c3 fdd0 8fc1 cf97 d2c3

variational_strategy._variational_distribution.variational_mean f4 [100]
-4.5117917 -8.166846 -7.8282695 -5.127067 -6.2760735 -5.26455 -4.770569 -6.986742
-7.7563033 -7.9554486 -6.637274 -6.809308 -7.482382 -4.898885 -8.334298 -5.390605
-8.536726 -6.3406425 -7.3670077 -5.591566 -7.0344462 -6.627343 -6.3995557 -7.048684
-8.056726 -4.9623337 -7.072994 -6.297577 -7.7310743 -7.086767 -6.6163936 -4.838719
-4.8505015 -4.199962 -4.663588 -4.287104 -7.833491 -6.446558 -7.693025 -5.749513
-8.36467 -3.9392474 -5.563523 -4.7770557 -5.931949 -5.442879 -7.190282 -2.5139835
-6.5535994 -8.8738575 -7.8858137 -5.027077 -5.523924 -5.7498636 -6.954082 -6.5469885
-3.7185907 -7.3255315 -4.2314224 -4.5558734 -7.223415 -6.4195094 -7.60575 -6.4418178
-3.6945121 -6.2350903 -7.36354 -5.760305 -8.045363 -4.9521985 -7.237421 -3.0958245
-7.3396044 -7.4204745 -6.9807215 -3.8393862 -7.793501 -5.6559772 -2.959268 -8.678426
-6.4042473 -5.8264823 -5.571612 -6.826133 -5.1434865 -6.4473653 -7.4399333 -6.096885
-4.738206 -4.7946362 -4.9268208 -4.8377166 -5.693329 -6.45393 -5.982285 -6.0711446
-3.8344367 -4.2225 -4.6464653 -3.948787
00000000: 9960 90c0 67ab 02c1 2f81 fac0 ef10 a4c0
00000010: 98d5 c8c0 3277 a8c0 80a8 98c0 6493 dfc0
00000020: a333 f8c0 0993 fec0 8c64 d4c0 dae5 d9c0
00000030: ac6f efc0 aac3 9cc0 4959 05c1 d67f acc0
00000040: 6e96 08c1 8be6 cac0 87be ebc0 1cee b2c0
00000050: 2f1a e1c0 3213 d4c0 29c9 ccc0 d28e e1c0
00000060: 5ae8 00c1 70cb 9ec0 f855 e2c0 c085 c9c0
00000070: f664 f7c0 ccc6 e2c0 7fb9 d3c0 c9d6 9ac0
00000080: 4f37 9bc0 1766 86c0 1d3c 95c0 f52f 89c0
00000090: f5ab fac0 344a cec0 432d f6c0 03fc b7c0
000000a0: b0d5 05c1 a11c 7cc0 6108 b2c0 a4dd 98c0
000000b0: 87d2 bdc0 112c aec0 ca16 e6c0 1be5 20c0
000000c0: 16b7 d1c0 52fb 0dc1 9658 fcc0 d1dd a0c0
000000d0: fcc3 b0c0 e2fe b7c0 d787 dec0 ee80 d1c0
000000e0: 64fd 6dc0 c16a eac0 d067 87c0 b7c9 91c0
000000f0: 3726 e7c0 9f6c cdc0 4e62 f3c0 5f23 cec0
00000100: e372 6cc0 dc85 c7c0 1fa2 ebc0 6b54 b8c0
00000110: cfb9 00c1 6978 9ec0 f498 e7c0 fd21 46c0
00000120: 0ade eac0 8774 edc0 1262 dfc0 81b8 75c0
00000130: 5c64 f9c0 c4fd b4c0 a664 3dc0 d5da 0ac1
00000140: 98ef ccc0 8b72 bac0 a54a b2c0 ae6f dac0
00000150: 7197 a4c0 d150 cec0 ef13 eec0 af19 c3c0
00000160: 629f 97c0 a96d 99c0 84a8 9dc0 93ce 9ac0
00000170: c02f b6c0 9886 cec0 e16e bfc0 d146 c2c0
00000180: 6967 75c0 b81e 87c0 d8af 94c0 edb8 7cc0

variational_strategy._variational_distribution.chol_variational_covar f4 [100, 100]
0.98798114 0.0 0.0 0.0 0.0 0.0 0.0 0.0
0.0 0.0 0.0 0.0 0.0 0.0 0.0 0.0
0.0 0.0 0.0 0.0 0.0 0.0 0.0 0.0
0.0 0.0 0.0 0.0 0.0 0.0 0.0 0.0
0.0 0.0 0.0 0.0 0.0 0.0 0.0 0.0
0.0 0.0 0.0 0.0 0.0 0.0 0.0 0.0
0.0 0.0 0.0 0.0 0.0 0.0 0.0 0.0
0.0 0.0 0.0 0.0 0.0 0.0 0.0 0.0
0.0 0.0 0.0 0.0 0.0 0.0 0.0 0.0
0.0 0.0 0.0 0.0 0.0 0.0 0.0 0.0
0.0 0.0 0.0 0.0 0.0 0.0 0.0 0.0
0.0 0.0 0.0 0.0 0.0 0.0 0.0 0.0
0.0 0.0 0.0 0.0 0.018244833 0.6874588 0.0 0.0
0.0 0.0 0.0 0.0 0.0 0.0 0.0 0.0
0.0 0.0 0.0 0.0 0.0 0.0 0.0 0.0
0.0 0.0 0.0 0.0 0.0 0.0 0.0 0.0
0.0 0.0 0.0 0.0 0.0 0.0 0.0 0.0
0.0 0.0 0.0 0.0 0.0 0.0 0.0 0.0
0.0 0.0 0.0 0.0 0.0 0.0 0.0 0.0
0.0 0.0 0.0 0.0 0.0 0.0 0.0 0.0
0.0 0.0 0.0 0.0 0.0 0.0 0.0 0.0
0.0 0.0 0.0 0.0 0.0 0.0 0.0 0.0
0.0 0.0 0.0 0.0 0.0 0.0 0.0 0.0
0.0 0.0 0.0 0.0 0.0 0.0 0.0 0.0
0.0 0.0 0.0 0.0 0.0 0.0 0.0 0.0
0.022092845 -0.13921532 0.6624009 0.0 0.0 0.0 0.0 0.0
0.0 0.0 0.0 0.0 0.0 0.0 0.0 0.0
0.0 0.0 0.0 0.0 0.0 0.0 0.0 0.0
0.0 0.0 0.0 0.0 0.0 0.0 0.0 0.0
0.0 0.0 0.0 0.0 0.0 0.0 0.0 0.0
0.0 0.0 0.0 0.0 0.0 0.0 0.0 0.0
0.0 0.0 0.0 0.0 0.0 0.0 0.0 0.0
00000000: 55ec 7c3f 0000 0000 0000 0000 0000 0000
00000010: 0000 0000 0000 0000 0000 0000 0000 0000
00000020: 0000 0000 0000 0000 0000 0000 0000 0000
00000030: 0000 0000 0000 0000 0000 0000 0000 0000
00000040: 0000 0000 0000 0000 0000 0000 0000 0000
00000050: 0000 0000 0000 0000 0000 0000 0000 0000
00000060: 0000 0000 0000 0000 0000 0000 0000 0000
00000070: 0000 0000 0000 0000 0000 0000 0000 0000
00000080: 0000 0000 0000 0000 0000 0000 0000 0000
00000090: 0000 0000 0000 0000 0000 0000 0000 0000
000000a0: 0000 0000 0000 0000 0000 0000 0000 0000
000000b0: 0000 0000 0000 0000 0000 0000 0000 0000
000000c0: 0000 0000 0000 0000 0000 0000 0000 0000
000000d0: 0000 0000 0000 0000 0000 0000 0000 0000
000000e0: 0000 0000 0000 0000 0000 0000 0000 0000
000000f0: 0000 0000 0000 0000 0000 0000 0000 0000
00000100: 0000 0000 0000 0000 0000 0000 0000 0000
00000110: 0000 0000 0000 0000 0000 0000 0000 0000
00000120: 0000 0000 0000 0000 0000 0000 0000 0000
00000130: 0000 0000 0000 0000 0000 0000 0000 0000
00000140: 0000 0000 0000 0000 0000 0000 0000 0000
00000150: 0000 0000 0000 0000 0000 0000 0000 0000
00000160: 0000 0000 0000 0000 0000 0000 0000 0000
00000170: 0000 0000 0000 0000 0000 0000 0000 0000
00000180: 0000 0000 0000 0000 0000 0000 0000 0000
00000190: 3076 953c 4dfd 2f3f 0000 0000 0000 0000
000001a0: 0000 0000 0000 0000 0000 0000 0000 0000
000001b0: 0000 0000 0000 0000 0000 0000 0000 0000
000001c0: 0000 0000 0000 0000 0000 0000 0000 0000
000001d0: 0000 0000 0000 0000 0000 0000 0000 0000
000001e0: 0000 0000 0000 0000 0000 0000 0000 0000
000001f0: 0000 0000 0000 0000 0000 0000 0000 0000
00000200: 0000 0000 0000 0000 0000 0000 0000 0000
00000210: 0000 0000 0000 0000 0000 0000 0000 0000
00000220: 0000 0000 0000 0000 0000 0000 0000 0000
00000230: 0000 0000 0000 0000 0000 0000 0000 0000
00000240: 0000 0000 0000 0000 0000 0000 0000 0000
00000250: 0000 0000 0000 0000 0000 0000 0000 0000
00000260: 0000 0000 0000 0000 0000 0000 0000 0000
00000270: 0000 0000 0000 0000 0000 0000 0000 0000
00000280: 0000 0000 0000 0000 0000 0000 0000 0000
00000290: 0000 0000 0000 0000 0000 0000 0000 0000
000002a0: 0000 0000 0000 0000 0000 0000 0000 0000
000002b0: 0000 0000 0000 0000 0000 0000 0000 0000
000002c0: 0000 0000 0000 0000 0000 0000 0000 0000
000002d0: 0000 0000 0000 0000 0000 0000 0000 0000
000002e0: 0000 0000 0000 0000 0000 0000 0000 0000
000002f0: 0000 0000 0000 0000 0000 0000 0000 0000
00000300: 0000 0000 0000 0000 0000 0000 0000 0000
00000310: 0000 0000 0000 0000 0000 0000 0000 0000
00000320: 0efc b43c 768e 0ebe 1b93 293f 0000 0000
00000330: 0000 0000 0000 0000 0000 0000 0000 0000
00000340: 0000 0000 0000 0000 0000 0000 0000 0000
00000350: 0000 0000 0000 0000 0000 0000 0000 0000
00000360: 0000 0000 0000 0000 0000 0000 0000 0000
00000370: 0000 0000 0000 0000 0000 0000 0000 0000
00000380: 0000 0000 0000 0000 0000 0000 0000 0000
00000390: 0000 0000 0000 0000 0000 0000 0000 0000
000003a0: 0000 0000 0000 0000 0000 0000 0000 0000
000003b0: 0000 0000 0000 0000 0000 0000 0000 0000
000003c0: 0000 0000 0000 0000 0000 0000 0000 0000
000003d0: 0000 0000 0000 0000 0000 0000 0000 0000
000003e0: 0000 0000 0000 0000 0000 0000 0000 0000
000003f0: 0000 0000 0000 0000 0000 0000 0000 0000

cov.base_kernel.raw_lengthscale f4 [1, 2]
13.553759 14.435231
00000000: 32dc 5841 b5f6 6641
