slam/rbpf_slam/data/old_results/wrong/particle_gp_model/particle1.pth (torch, 44879 bytes, 4 tensors)

variational_strategy.inducing_points f4 [100, 2]
00000000: 363c 20c3 6557 a1c3 c398 a8c2 6093 80c3
00000010: 6f47 18c3 4af6 99c3 99c7 7bc2 91f2 9bc3
00000020: 275e bec1 2db3 4dc3 c236 b0c2 b4f9 b2c3
00000030: 98a6 2fc2 d787 77c3 5584 96c2 9dd4 a5c3
00000040: be5f 2dc3 43fc 04c4 3b9b 8f42 a98f b8c3
00000050: 4f56 24c3 2058 d0c3 7434 4c41 c1c6 d5c3
00000060: 681b 5440 0c3d 60c3 2d2c 05c3 dc43 83c3
00000070: 7329 ccc2 c269 9fc3 d397 4ac2 3ab5 93c3
00000080: 6682 38c3 56d9 bbc3 e660 18c3 eb2e bac3
00000090: 7a42 c1c1 f422 5ac3 cf72 a6c2 9c68 02c4
000000a0: 351a e7c2 e00b b1c3 89a1 8ac0 d277 84c3
000000b0: 8d88 c9c2 14cb b5c3 7764 16c3 c17c bec3
000000c0: 12b5 a0c2 fe0b 04c4 c56e acc2 774d 87c3
000000d0: ce91 87c2 d647 b2c3 594f ad42 16e4 bfc3
000000e0: 6bcb f2c2 e923 c5c3 11ee 23c3 5123 d0c3
000000f0: 98e1 cac2 a84f fac3 fe07 9fc2 0bd1 fac3
00000100: e371 e4c2 dadc a2c3 3254 f6c2 33e6 90c3
00000110: d132 bac2 eaff 9fc3 d986 12c3 d850 a7c3
00000120: 76e0 9ec2 111c a3c3 ca33 21c3 48e1 9ac3
00000130: de2e 5ac3 a214 d5c3 f37e 22c2 091a 96c3
00000140: ae46 3fc2 4567 bec3 0c05 02c3 eefb 9ec3
00000150: 245c 70c2 8b70 84c3 87e5 93c2 26f8 b3c3
00000160: 77df d4c2 43c0 9dc3 2da6 5dc3 cab2 d3c3
00000170: acea d4c2 0c95 a2c3 905c e6c2 a420 9bc3
00000180: 401c 30c2 b7bd c6c3 b6ab cdc1 d4e5 cec3
00000190: c2d7 91c1 e8e3 9ac3 09e8 69c2 b296 97c3
000001a0: 74e6 33bf 1e82 b7c3 a733 abc2 24ec a6c3
000001b0: dc3e 6cc1 1580 c9c3 2ece c842 7e5c a6c3
000001c0: 9209 0ac3 85a7 9bc3 90d6 55c2 3d1f 99c3
000001d0: da9d 64c2 3ac9 b8c3 08f4 dcc2 f14f d6c3
000001e0: 310a e6c2 7ecf a6c3 d433 e9c2 acb1 9cc3
000001f0: 3649 15c3 665f a6c3 cbc7 1bc3 99c8 e0c3
00000200: 5fff d3c2 bcc6 98c3 3276 0bc3 a78b afc3
00000210: 6be0 b5c2 a2be b4c3 4c8d 07c3 aef3 bac3
00000220: bbda b1c2 50ab b5c3 74a3 b441 4e15 72c3
00000230: 1c64 a1c2 6588 92c3 9d6e a3c2 57c4 96c3
00000240: 03df 95c2 239f bdc3 e654 dbc2 e234 bfc3
00000250: fad6 96c2 f9b8 a4c3 555e 09c3 db46 9ec3
00000260: f0ac f1c2 116d 9ec3 a015 35c3 3733 c2c3
00000270: 3645 bac2 f033 a8c3 77eb 63c2 43bf b1c3
00000280: 8a72 0ec2 83d3 84c3 8949 9bc2 b267 84c3
00000290: 642b e9c2 926d a0c3 9f53 8442 7501 b9c3
000002a0: d614 d9c2 eee3 96c3 122b 39c2 48f4 87c3
000002b0: 224a d2c2 e4fa bdc3 fb6a 5dc1 bc34 d6c3
000002c0: d82f 05c3 b2a9 7ac3 5341 1ec3 9cd3 97c3
000002d0: fa50 55c2 6fdc d2c3 09de 1ac3 f9b5 afc3
000002e0: 0385 03c3 79df a1c3 f6c3 1fc3 57f8 bec3
000002f0: 0925 12c3 f6e0 8bc3 29cb 43c3 921a b9c3
00000300: e1d4 46c3 666b a5c3 52ee ebc2 efbe 9ac3
00000310: 7e59 88c2 0036 8ac3 ba1a 28c3 a035 b3c3
-160.2352 -322.68277 -84.29836 -257.15137 -152.27904 -307.92413 -62.94492 -311.89505
-23.795973 -205.6999 -88.10695 -357.9508 -43.91269 -247.53062 -75.25846 -331.66104
-173.374 -531.9416 71.803185 -369.12234 -164.33714 -416.68848 12.762806 -427.55276
3.3141727 -224.23846 -133.17256 -262.53015 -102.080956 -318.82623 -50.648266 -295.41583
-184.50937 -375.69794 -152.37851 -372.36655 -24.15746 -218.13654 -83.224236 -521.6345
-115.551186 -354.09277 -4.3322186 -264.9361 -100.7667 -363.58655 -150.39244 -380.97464
-80.35365 -528.1874 -86.21635 -270.6052 -67.784775 -356.56122 86.654976 -383.78192
-121.3973 -394.28055 -163.92995 -416.2759 -101.44061 -500.6223 -79.51561 -501.63315
-114.222435 -325.7254 -123.164444 -289.79843 -93.09925 -319.99933 -146.52675 -334.6316
-79.4384 -326.21927 -161.2023 -309.76 -218.18307 -426.1612 -40.623974 -300.2034
-47.819023 -380.8068 -130.01971 -317.9682 -60.08998 -264.87924 -73.948296 -359.93866
-106.436455 -315.50204 -221.64912 -423.3968 -106.45834 -325.16443 -115.180786 -310.255
-44.027588 -397.48215 -25.708843 -413.79553 -18.23035 -309.78052 -58.476597 -303.1773
-0.7027352 -367.01654 -85.60088 -333.84485 -14.765347 -403.00064 100.402695 -332.7226
-138.03738 -311.30875 -53.459534 -306.24405 -57.154152 -369.57208 -110.47662 -428.62454
-115.019905 -333.62103 -116.60123 -313.38806 -149.28598 -332.7453 -155.78044 -449.56717
-105.99877 -305.5526 -139.4617 -351.09103 -90.93832 -361.48932 -135.55194 -373.90375
-88.92721 -363.33838 22.579811 -242.08322 -80.695526 -293.06558 -81.71604 -301.5339
-74.93557 -379.24326 -109.66582 -382.41315 -75.419876 -329.4451 -137.36848 -316.55356
-120.83777 -316.85208 -181.08447 -388.40012 -93.13518 -336.40576 -56.979946 -355.49423
-35.611855 -265.65244 -77.64362 -264.81012 -116.58475 -320.85602 66.16332 -370.01138
-108.540695 -301.7807 -46.29206 -271.90845 -105.14479 -379.96008 -13.838618 -428.412
-133.18689 -250.66287 -158.25517 -303.6532 -53.32908 -421.72214 -154.86732 -351.42166
-131.51958 -323.74588 -159.76547 -381.94016 -146.14467 -279.7575 -195.7936 -370.20758
-198.83156 -330.83905 -117.96547 -309.49167 -68.17479 -276.42188 -168.1044 -358.41895

variational_strategy._variational_distribution.variational_mean f4 [100]
00000000: ca7f aabe e060 6cbd de4e a1be c17e 0fbe
00000010: e675 6bbd cb0f a0be fff7 333d 5469 16bf
00000020: 3a56 51bd 279b 233d d838 78be 4783 523d
00000030: 7a1a 503d 8a08 633d f9fe 23bf 959d 5abe
00000040: 1bb2 823d b0ee e3ba 9ee8 4cbd 01b2 19bd
00000050: dce2 b5be cd67 513d 2953 8b3d eeca 473d
00000060: 59da 51bd 8ea2 00bf 416e 41be bb4d 4e3d
00000070: 731d 55bd c393 88bd 2b2b 0fbe 2b00 27be
00000080: a3a6 03bf 6d6c bfbd 1dea afbd 340e 39be
00000090: c431 96be a1df 05be 37d6 a2be 5cb5 59bd
000000a0: 97b8 4abe 8c43 31bf ca55 8bbd faa7 ccbe
000000b0: 09c8 aabe 996f 52bd 6426 c0be 15b3 89be
000000c0: 54d8 54bd 7e5c d2bd 8564 513d 3a27 8bbe
000000d0: 1cfd 51bd 2494 32bf d4de 55bd 9365 50bd
000000e0: 7891 7bbd a239 55bd 62a8 0abd 5f21 bdbe
000000f0: a276 f6bd a107 15bf 21b8 713d 0c72 df3b
00000100: a4b2 83be 9b71 eb3c 1c36 b23c e0d5 4d3d
00000110: 845b c0bd a813 503d f0cf 28be 34de c9be
00000120: 29e6 67be 4862 4ebd ec08 bcbe b59f b2be
00000130: 4130 cdbe 2942 1c3d 29c2 8dbe 46eb bdbd
00000140: 5161 52bd d138 1fbe 0b17 2fbe 8957 5f3d
00000150: ee02 48be b265 1b3c a665 3cbe 94bf d3be
00000160: f093 563d 918f 4ebd a617 a4bd d063 3d3b
00000170: a850 a3be dd24 17be c272 52bd 2ee0 e6be
00000180: 4295 503d 60b3 abbe def5 65bc d04d b0bc
-0.3330062 -0.057709575 -0.31505483 -0.14013197 -0.057485484 -0.3126205 0.04393768 -0.5875447
-0.051107623 0.039942887 -0.24240434 0.051394727 0.0508065 0.055428065 -0.6406093 -0.21349175
0.06381627 -0.001738986 -0.05002653 -0.037523273 -0.35524642 0.051124383 0.06802971 0.048777513
-0.051233623 -0.5024804 -0.18889715 0.0503671 -0.052030038 -0.06668808 -0.13981311 -0.16308658
-0.5142614 -0.093468525 -0.085895754 -0.18071824 -0.29334843 -0.13073589 -0.31804058 -0.053151473
-0.19796978 -0.69243693 -0.06803472 -0.39971906 -0.3335574 -0.05137596 -0.3752929 -0.2689444
-0.05196412 -0.10271548 0.051121254 -0.27178365 -0.051266775 -0.69757295 -0.05221446 -0.05087812
-0.061418027 -0.052056916 -0.03385199 -0.36939523 -0.12034346 -0.58214766 0.05901349 0.0068190154
-0.2572223 0.028740695 0.021754317 0.050252795 -0.09392455 0.050799996 -0.16485572 -0.3942734
-0.22646393 -0.050386697 -0.36725557 -0.34887472 -0.40075877 0.038149033 -0.27687195 -0.092733905
-0.05136234 -0.15549017 -0.17098634 0.05452684 -0.19532368 0.009484695 -0.18398151 -0.413571
0.052387178 -0.050429884 -0.08012323 0.0028898604 -0.31897473 -0.14760156 -0.051378973 -0.4509291
0.050923593 -0.3353529 -0.01403567 -0.021521479

variational_strategy._variational_distribution.chol_variational_covar f4 [100, 100]
00000000: a0ee 7f3f 0000 0000 0000 0000 0000 0000
00000010: 0000 0000 0000 0000 0000 0000 0000 0000
00000020: 0000 0000 0000 0000 0000 0000 0000 0000
00000030: 0000 0000 0000 0000 0000 0000 0000 0000
00000040: 0000 0000 0000 0000 0000 0000 0000 0000
00000050: 0000 0000 0000 0000 0000 0000 0000 0000
00000060: 0000 0000 0000 0000 0000 0000 0000 0000
00000070: 0000 0000 0000 0000 0000 0000 0000 0000
00000080: 0000 0000 0000 0000 0000 0000 0000 0000
00000090: 0000 0000 0000 0000 0000 0000 0000 0000
000000a0: 0000 0000 0000 0000 0000 0000 0000 0000
000000b0: 0000 0000 0000 0000 0000 0000 0000 0000
000000c0: 0000 0000 0000 0000 0000 0000 0000 0000
000000d0: 0000 0000 0000 0000 0000 0000 0000 0000
000000e0: 0000 0000 0000 0000 0000 0000 0000 0000
000000f0: 0000 0000 0000 0000 0000 0000 0000 0000
00000100: 0000 0000 0000 0000 0000 0000 0000 0000
00000110: 0000 0000 0000 0000 0000 0000 0000 0000
00000120: 0000 0000 0000 0000 0000 0000 0000 0000
00000130: 0000 0000 0000 0000 0000 0000 0000 0000
00000140: 0000 0000 0000 0000 0000 0000 0000 0000
00000150: 0000 0000 0000 0000 0000 0000 0000 0000
00000160: 0000 0000 0000 0000 0000 0000 0000 0000
00000170: 0000 0000 0000 0000 0000 0000 0000 0000
00000180: 0000 0000 0000 0000 0000 0000 0000 0000
00000190: 0000 0000 69e0 7e3f 0000 0000 0000 0000
000001a0: 0000 0000 0000 0000 0000 0000 0000 0000
000001b0: 0000 0000 0000 0000 0000 0000 0000 0000
000001c0: 0000 0000 0000 0000 0000 0000 0000 0000
000001d0: 0000 0000 0000 0000 0000 0000 0000 0000
000001e0: 0000 0000 0000 0000 0000 0000 0000 0000
000001f0: 0000 0000 0000 0000 0000 0000 0000 0000
00000200: 0000 0000 0000 0000 0000 0000 0000 0000
00000210: 0000 0000 0000 0000 0000 0000 0000 0000
00000220: 0000 0000 0000 0000 0000 0000 0000 0000
00000230: 0000 0000 0000 0000 0000 0000 0000 0000
00000240: 0000 0000 0000 0000 0000 0000 0000 0000
00000250: 0000 0000 0000 0000 0000 0000 0000 0000
00000260: 0000 0000 0000 0000 0000 0000 0000 0000
00000270: 0000 0000 0000 0000 0000 0000 0000 0000
00000280: 0000 0000 0000 0000 0000 0000 0000 0000
00000290: 0000 0000 0000 0000 0000 0000 0000 0000
000002a0: 0000 0000 0000 0000 0000 0000 0000 0000
000002b0: 0000 0000 0000 0000 0000 0000 0000 0000
000002c0: 0000 0000 0000 0000 0000 0000 0000 0000
000002d0: 0000 0000 0000 0000 0000 0000 0000 0000
000002e0: 0000 0000 0000 0000 0000 0000 0000 0000
000002f0: 0000 0000 0000 0000 0000 0000 0000 0000
00000300: 0000 0000 0000 0000 0000 0000 0000 0000
00000310: 0000 0000 0000 0000 0000 0000 0000 0000
00000320: 4068 7fbc 0000 0000 fa45 7d3f 0000 0000
00000330: 0000 0000 0000 0000 0000 0000 0000 0000
00000340: 0000 0000 0000 0000 0000 0000 0000 0000
00000350: 0000 0000 0000 0000 0000 0000 0000 0000
00000360: 0000 0000 0000 0000 0000 0000 0000 0000
00000370: 0000 0000 0000 0000 0000 0000 0000 0000
00000380: 0000 0000 0000 0000 0000 0000 0000 0000
00000390: 0000 0000 0000 0000 0000 0000 0000 0000
000003a0: 0000 0000 0000 0000 0000 0000 0000 0000
000003b0: 0000 0000 0000 0000 0000 0000 0000 0000
000003c0: 0000 0000 0000 0000 0000 0000 0000 0000
000003d0: 0000 0000 0000 0000 0000 0000 0000 0000
000003e0: 0000 0000 0000 0000 0000 0000 0000 0000
000003f0: 0000 0000 0000 0000 0000 0000 0000 0000
0.9997349 0.0 0.0 0.0 0.0 0.0 0.0 0.0
0.0 0.0 0.0 0.0 0.0 0.0 0.0 0.0
0.0 0.0 0.0 0.0 0.0 0.0 0.0 0.0
0.0 0.0 0.0 0.0 0.0 0.0 0.0 0.0
0.0 0.0 0.0 0.0 0.0 0.0 0.0 0.0
0.0 0.0 0.0 0.0 0.0 0.0 0.0 0.0
0.0 0.0 0.0 0.0 0.0 0.0 0.0 0.0
0.0 0.0 0.0 0.0 0.0 0.0 0.0 0.0
0.0 0.0 0.0 0.0 0.0 0.0 0.0 0.0
0.0 0.0 0.0 0.0 0.0 0.0 0.0 0.0
0.0 0.0 0.0 0.0 0.0 0.0 0.0 0.0
0.0 0.0 0.0 0.0 0.0 0.0 0.0 0.0
0.0 0.0 0.0 0.0 0.0 0.9956117 0.0 0.0
0.0 0.0 0.0 0.0 0.0 0.0 0.0 0.0
0.0 0.0 0.0 0.0 0.0 0.0 0.0 0.0
0.0 0.0 0.0 0.0 0.0 0.0 0.0 0.0
0.0 0.0 0.0 0.0 0.0 0.0 0.0 0.0
0.0 0.0 0.0 0.0 0.0 0.0 0.0 0.0
0.0 0.0 0.0 0.0 0.0 0.0 0.0 0.0
0.0 0.0 0.0 0.0 0.0 0.0 0.0 0.0
0.0 0.0 0.0 0.0 0.0 0.0 0.0 0.0
0.0 0.0 0.0 0.0 0.0 0.0 0.0 0.0
0.0 0.0 0.0 0.0 0.0 0.0 0.0 0.0
0.0 0.0 0.0 0.0 0.0 0.0 0.0 0.0
0.0 0.0 0.0 0.0 0.0 0.0 0.0 0.0
-0.01558882 0.0 0.989349 0.0 0.0 0.0 0.0 0.0
0.0 0.0 0.0 0.0 0.0 0.0 0.0 0.0
0.0 0.0 0.0 0.0 0.0 0.0 0.0 0.0
0.0 0.0 0.0 0.0 0.0 0.0 0.0 0.0
0.0 0.0 0.0 0.0 0.0 0.0 0.0 0.0
0.0 0.0 0.0 0.0 0.0 0.0 0.0 0.0
0.0 0.0 0.0 0.0 0.0 0.0 0.0 0.0

cov.base_kernel.raw_lengthscale f4 [1, 2]
00000000: 5517 663f d77d 673f
0.8987935 0.9042639
